saved_models/deep_hedging_with_impact/deep_hedger_impact_bachelier.pth (torch, 200953 bytes, 330 tensors)

neural_networks.0.linear_relu_stack.0.weight f4 [16, 2]
-0.5016822 -0.6003164 -0.3593765 -0.623435 0.47345325 0.5908658 0.393723 0.30744946
-0.34381273 0.682276 0.09282329 0.008220827 0.15339273 0.5453182 0.5852105 0.2544079
0.12844269 -0.6994798 0.4155626 -0.2244898 -0.57315433 -0.5972416 0.17279373 0.35649186
-0.03610729 0.4059306 -0.67588496 0.63284105 -0.36239257 0.47109395 -0.10602065 -0.49047804
00000000: 3f6e 00bf 56ae 19bf 3200 b8be 7099 1fbf
00000010: 7768 f23e fb42 173f 1096 c93e 046a 9d3e
00000020: 3908 b0be a4a9 2e3f 231a be3d a6b0 063c
00000030: fc12 1d3e f999 0b3f 5bd0 153f c141 823e
00000040: 7b86 033e 1c11 33bf 9fc4 d43e a7e0 65be
00000050: 3eba 12bf d3e4 18bf d7f0 303e 1a86 b63e
00000060: 3de5 13bd 23d6 cf3e cc06 2dbf df01 223f
00000070: 858b b9be 3a33 f13e 5b21 d9bd f01f fbbe

neural_networks.0.linear_relu_stack.1.weight f4 [16]
1.0235 1.0300059 0.96997947 0.96998423 1.0 1.0 0.98960197 1.0
1.0 1.0300179 1.0 1.0 1.0 1.0 0.96999615 1.0
00000000: 0c02 833f 3cd7 833f 9350 783f e350 783f
00000010: 0000 803f 0000 803f 8e56 7d3f 0000 803f
00000020: 0000 803f a0d7 833f 0000 803f 0000 803f
00000030: 0000 803f 0000 803f ab51 783f 0000 803f

neural_networks.0.linear_relu_stack.1.bias f4 [16]
0.034215137 -0.030027512 -0.030027492 -0.030027514 0.0 0.0 0.0069280523 0.0
0.0 -0.030027512 0.0 0.0 0.0 0.0 -0.030027492 0.0
00000000: 2c25 0c3d 42fc f5bc 37fc f5bc 43fc f5bc
00000010: 0000 0000 0000 0000 b704 e33b 0000 0000
00000020: 0000 0000 42fc f5bc 0000 0000 0000 0000
00000030: 0000 0000 0000 0000 37fc f5bc 0000 0000

neural_networks.0.linear_relu_stack.1.running_mean f4 [16]
-2.31033 -1.6549923 2.1803327 1.813164 -1.583313 0.4274672 0.7064009 2.6950006
0.5915005 1.9137325 -2.6394687 0.7957454 -0.16627994 -3.1125627 -1.6688819 -0.48824298
00000000: 72dc 13c0 cad6 d3bf 928a 0b40 c215 e83f
00000010: 00aa cabf fbdc da3e b0d6 343f e47a 2c40
00000020: 946c 173f 30f5 f43f 0eed 28c0 f8b5 4b3f
00000030: 4a45 2abe 3a34 47c0 ec9d d5bf fcfa f9be

neural_networks.0.linear_relu_stack.1.running_var f4 [16]
9.644215e-12 3.2099822e-12 5.135973e-13 9.644215e-12 6.9050286e-12 7.2224616e-14 9.130619e-13 6.2145275e-11
1.2839933e-13 1.1185006e-11 1.2839929e-11 1.1555938e-12 5.0155972e-14 2.7962515e-12 8.916619e-12 8.916621e-16
00000000: afa9 292d e6e1 612c 9690 102b afa9 292d
00000010: f8f2 f22c a8a2 a229 8680 802b aea8 882e
00000020: 9690 102a cac4 442d e6e1 612d a8a2 a22b
00000030: e6e1 6129 cac4 442c e2dc 1c2d 8680 8026

neural_networks.0.linear_relu_stack.3.weight f4 [16, 16]
-0.2545358 0.112258136 -0.2244733 -0.22096866 0.0030943751 0.23233083 0.18986452 -0.032205284
0.22018954 0.15461725 -0.12884185 -0.02643326 0.03093779 0.17579085 0.14555237 0.11052269
0.053099666 0.14605443 -0.0053848196 -0.038135055 -0.0728389 0.16310406 -0.07566503 0.2256814
0.09100708 -0.2786767 0.16459075 -0.14759201 0.18952042 -0.24997371 -0.2658232 -0.13444486
0.07730575 -0.023027848 -0.137322 0.19580723 0.16977248 0.24220216 0.18061598 -0.0942539
-0.22106165 -0.099069096 0.20901954 -0.22571379 -0.12310484 0.08830416 -0.2555474 0.076913565
-0.10192976 -0.035646576 0.10528307 -0.19677433 -0.013571829 -0.14616364 0.113537215 -0.09783247
0.0749515 0.21251032 -0.031775475 -0.14091623 0.068345696 0.24114674 0.033448294 -0.14422512
-0.008542501 0.16593158 0.04251218 -0.19901559 0.05245641 -0.21500567 -0.06535944 -0.099978834
-0.1552675 -0.2424475 -0.19301909 -0.020169169 0.21568051 0.23698333 0.15960994 0.08241603
0.19421355 -0.15069348 -0.046071827 -0.23649567 0.068834394 0.17309976 0.110322066 0.21541455
0.17359945 0.13200706 0.1391603 0.13503137 0.21952268 -0.17582437 -0.14006105 -0.18106243
-0.1419932 -0.21630426 0.24098584 0.036271565 0.08113253 -0.21930441 0.052800085 0.2392906
-0.1049566 -0.14463432 0.20169538 -0.065229446 -0.20918974 0.17532456 0.10425525 -0.2406894
-0.17283238 -0.17528534 -0.07146584 -0.24916583 -0.010828197 0.15226156 -0.20105235 0.1945411
-0.18359044 0.054455288 -0.12917769 0.033869743 0.0747664 0.14777428 -0.24046212 -0.21238503
0.14302072 0.0664089 0.016907126 0.15583342 0.15241355 0.1496518 -0.05997309 0.19797575
0.040026814 0.078098714 0.18631893 0.14096993 0.20859501 0.22371542 -0.09096259 0.07159948
-0.017157258 0.11061224 -0.054867953 -0.06696603 0.04922679 0.1654242 0.15196584 -0.08287701
-0.17029816 0.060295403 0.19116873 0.04470718 -0.06389013 0.1927473 -0.08730054 0.056882977
-0.07705737 0.010450102 -0.19083074 0.030923676 -0.22772184 -0.19365439 0.083222896 -0.06911194
0.040676385 -0.25827268 -0.16070926 -0.03611961 0.009459734 0.15417314 0.10618803 -0.20141432
0.12237466 0.014293015 -0.0077424347 -0.12515897 0.24036905 0.06824961 0.19041747 0.03563425
0.14378002 0.23143166 -0.21900073 -0.11157462 0.039226055 0.11926916 0.058280736 0.045878142
0.07543166 -0.26219982 -0.23544858 -0.21904252 0.035978973 -0.13151601 -0.2581733 0.0891788
0.10209367 0.05681901 0.17528588 0.19171998 0.21204937 -0.24050376 0.07653839 -0.17285377
-0.17142437 0.08490005 0.059483886 -0.24077567 0.056130797 -0.08183956 -0.18036097 -0.20024738
0.06618306 0.15281197 0.1400043 -0.06896755 -0.13207468 -0.08150232 -0.11365065 -0.20928568
-0.13046488 -0.23757797 0.2115516 0.19277057 0.06820148 -0.19439608 0.18020543 0.20012373
0.038618654 0.096119285 -0.1654053 -0.06061244 0.24059042 0.20612282 0.15560839 0.15751356
0.099079974 -0.17231482 0.11833275 0.20804986 0.23608154 0.1951634 -0.18333398 0.17621997
-0.0280869 0.007647057 0.06701964 -0.20275718 -0.22957766 -0.053960055 0.21557362 -0.040150344
00000000: 8452 82be 98e7 e53d 54dc 65be 9c45 62be
00000010: 00cb 4a3b 22e8 6d3e d86b 423e b0e9 03bd
00000020: 5e79 613e fc53 1e3e 1eef 03be 908a d8bc
00000030: 4071 fd3c 8402 343e ae0b 153e b859 e23d
00000040: 097f 593d 4b8f 153e 2473 b0bb 8133 1cbd
00000050: 902c 95bd c004 273e 44f6 9abd 0619 673e
00000060: ec61 ba3d b6ae 8ebe 7a8a 283e 5c22 17be
00000070: a411 423e 1cf9 7fbe fa19 88be eaab 09be
00000080: 7a52 9e3d e6a4 bcbc 239e 0cbe b181 483e
00000090: d6d8 2d3e d803 783e 65f3 383e 3008 c1bd
000000a0: fc5d 62be bde4 cabd 3809 563e 8421 67be
000000b0: 641e fcbd d0d8 b43d 1cd7 82be dc84 9d3d
000000c0: 8dc0 d0bd 2502 12bd a69e d73d 367f 49be
000000d0: 605c 5ebc ecab 15be 3386 e83d 645c c8bd
000000e0: 2c80 993d 4e9c 593e 0027 02bd 584c 10be
000000f0: d4f8 8b3d 2cef 763e 1401 093d c0af 13be
00000100: d9f5 0bbc f8e9 293e 4021 2e3d beca 4bbe
00000110: 88dc 563d 722a 5cbe 2cdb 85bd b4c1 ccbd
00000120: 72fe 1ebe 2844 78be cca6 45be d039 a5bc
00000130: 5adb 5c3e c2ab 723e ca70 233e bcc9 a83d
00000140: ebdf 463e 644f 1abe d0b5 3cbd ec2b 72be
00000150: 0cf9 8c3d 1041 313e 89f0 e13d a295 5c3e
00000160: 0ec4 313e dc2c 073e 0a80 0e3e aa45 0a3e
00000170: 8eca 603e 4e0b 34be 2a6c 0fbe 6e68 39be
00000180: aa66 11be dd7e 5dbe fec4 763e 7e91 143d
00000190: d028 a63d 5691 60be e744 583d 9808 753e
000001a0: 7cf3 d6bd 051b 14be 3c89 4e3e 0497 85bd
000001b0: d635 56be 4888 333e c783 d53d 4877 76be
000001c0: f9fa 30be 007e 33be af5c 92bd 5425 7fbe
000001d0: c068 31bc 74ea 1b3e abe0 4dbe c835 473e
000001e0: 22ff 3bbe 820c 5f3d 2847 04be 00bb 0a3d
000001f0: 201f 993d 2452 173e b43b 76be 767b 59be
00000200: 0674 123e 6401 883d d080 8a3c cc92 1f3e
00000210: 4c12 1c3e 523e 193e 58a6 75bd 28ba 4a3e
00000220: 28f3 233d 38f2 9f3d 64ca 3e3e 6c5a 103e
00000230: ee99 553e a815 653e 984a babd c0a2 923d
00000240: 618d 8cbc ac88 e23d 38bd 60bd 7c25 89bd
00000250: 08a2 493d f664 293e ef9c 1b3e 6cbb a9bd
00000260: a462 2ebe 50f8 763d bcc1 433e e01e 373d
00000270: d4d8 82bd 8c5f 453e a0ca b2bd 20fe 683d
00000280: 41d0 9dbd e836 2b3c 2269 43be a653 fd3c
00000290: ea2f 69be 564d 46be c470 aa3d 908a 8dbd
000002a0: 489c 263d 513c 84be f890 24be 28f2 13bd
000002b0: 00fd 1a3c 90df 1d3e 1c79 d93d 8e3f 4ebe
000002c0: 919f fa3d 402d 6a3c 40b4 fdbb ac29 00be
000002d0: 4e23 763e 74c6 8b3d ccfc 423e 38f5 113d
000002e0: 123b 133e 6cfc 6c3e ba41 60be 3c81 e4bd
000002f0: 80ab 203d 6443 f43d c8b7 6e3d b8ea 3b3d
00000300: ea7b 9a3d 0e3f 86be 6f19 71be af4c 60be
00000310: b05e 133d 22ac 06be 4a2f 84be 60a3 b63d
00000320: 7c16 d13d 0dbb 683d 247e 333e 3e52 443e
00000330: 7823 593e 9e46 76be 29c0 9c3d 9400 31be
00000340: df89 2fbe 14e0 ad3d 60a5 733d e68d 76be
00000350: 68e9 653d 809b a7bd 8cb0 38be a60d 4dbe
00000360: fc8a 873d be7a 1c3e 4a5d 0f3e dc3e 8dbd
00000370: 963e 07be b0ea a6bd acc1 e8bd fc4e 56be
00000380: 9698 05be a447 73be fca0 583e a665 453e
00000390: 38ad 8b3d c40f 47be c687 383e 3ced 4c3e
000003a0: 982e 1e3d 30da c43d 0260 29be c044 78bd
000003b0: 565d 763e dc11 533e ce57 1f3e 3c4b 213e
000003c0: 71ea ca3d 4c73 30be 7158 f23d 060b 553e
000003d0: 5cbf 713e ead8 473e e7bb 3bbe 0273 343e
000003e0: 8016 e6bc 2a94 fa3b 9841 893d 949f 4fbe
000003f0: 6816 6bbe 3805 5dbd 55bf 5c3e b074 24bd

neural_networks.0.linear_relu_stack.4.weight f4 [16]
0.97348404 1.0296617 1.0284597 1.018016 0.97735816 1.0549679 1.0379572 0.99398154
1.0271941 1.0650811 1.038027 1.0258018 0.9701582 0.97464526 0.996705 0.98865336
00000000: 4036 793f f4cb 833f 91a4 833f 594e 823f
00000010: 2534 7a3f 3009 873f c8db 843f 9375 7e3f
00000020: 197b 833f 9454 883f 12de 843f 794d 833f
00000030: 4a5c 783f 5a82 793f 0f28 7f3f 6318 7d3f

neural_networks.0.linear_relu_stack.4.bias f4 [16]
-0.027794454 -0.030027501 -0.030027486 -0.029130936 -0.027794456 -0.0015548584 -0.029086022 -0.028967656
-0.009974527 -0.00091161684 -0.029258456 -0.025807256 -0.0300275 -0.026735257 -0.00063340453 -0.030027494
00000000: 32b1 e3bc 3cfc f5bc 34fc f5bc 00a4 eebc
00000010: 33b1 e3bc 64cc cbba cf45 eebc 944d edbc
00000020: 336c 23bc 92f9 6eba 6eaf efbc bd69 d3bc
00000030: 3bfc f5bc e603 dbbc 0f0b 26ba 38fc f5bc

neural_networks.0.linear_relu_stack.4.running_mean f4 [16]
-0.007199552 0.0012628257 0.0037666713 -0.0026343893 -0.00071729266 0.007185574 -0.0043685054 -0.0070767095
0.004355085 0.00043755613 -0.0020088567 0.005329375 0.00079470535 -0.006892684 -0.0031405655 0.0020768428
00000000: 38ea ebbb 6685 a53a 42da 763b b8a5 2cbb
00000010: b208 3cba f774 eb3b ae25 8fbb bee3 e7bb
00000020: 1ab5 8e3b ca67 e539 06a7 03bb 0aa2 ae3b
00000030: c653 503a 06dc e1bb f2d1 4dbb a41b 083b

neural_networks.0.linear_relu_stack.4.running_var f4 [16]
7.053185e-17 7.836873e-18 9.600167e-17 1.7632963e-17 2.6667132e-18 1.2538997e-16 3.1269257e-17 5.4422724e-16
3.678976e-17 9.25173e-19 1.0666853e-17 4.898044e-17 1.2279126e-18 1.3881196e-17 5.572888e-17 1.222045e-17
00000000: a8a2 a224 9690 1023 625d dd24 a8a2 a223
00000010: cac4 4422 9690 1025 3934 1024 e2dc 1c26
00000020: afa9 2924 0c88 8821 cac4 4423 e6e1 6124
00000030: 3a35 b521 0c08 8023 8680 8024 726d 6123

neural_networks.0.linear_relu_stack.6.weight f4 [1, 16]
0.156196 -0.2497212 -0.12649131 0.013689675 0.10897737 -0.04184505 0.07674105 0.20102721
0.0075376574 -0.024642035 0.008679723 -0.24094886 -0.18438546 0.013442912 -0.012330746 -0.099655315
00000000: d8f1 1f3e eab6 7fbe f086 01be a94a 603c
00000010: 872f df3d b765 2bbd 692a 9d3d 14da 4d3e
00000020: 74fe f63b 18de c9bc 6635 0e3c 4cbb 76be
00000030: 8bcf 3cbe a93f 5c3c e606 4abc 1618 ccbd

neural_networks.1.linear_relu_stack.0.weight f4 [16, 2]
-1.4834074 -0.8670529 -0.78144616 -0.6617873 0.004445756 0.74945843 -4.743398 2.7362208
0.87284124 -0.50404966 0.38701952 -2.0281417 0.00030742973 0.8562745 0.83674663 -2.356578
0.40239412 -1.0275024 4.7167237e-06 1.8329663 0.7786871 -1.1909211 0.74985725 2.1145465
-0.2745452 0.24021848 0.71726686 -0.56350046 -0.0028980812 0.36672157 1.3702015e-06 1.3396074
00000000: 4be0 bdbf 2ef7 5dbf db0c 48bf e46a 29bf
00000010: b4ad 913b 82dc 3f3f ebc9 97c0 3e1e 2f40
00000020: 8672 5f3f 6609 01bf 6c27 c63e 13cd 01c0
00000030: 852e a139 ce34 5b3f 0735 563f 2dd2 16c0
00000040: 9a06 ce3e 3385 83bf 5944 9e36 a49e ea3f
00000050: 0a58 473f 1a70 98bf a5f6 3f3f bb54 0740
00000060: 3091 8cbe d5fb 753e cd9e 373f 9141 10bf
00000070: bced 3dbb eec2 bb3e c4e7 b735 4178 ab3f

neural_networks.1.linear_relu_stack.1.weight f4 [16]
1.3283292 0.09531377 0.73211133 5.3186316 1.6112156 0.0072820103 -0.00029101272 1.9830929
0.13978176 3.3381337e-05 1.1648389 1.5945145 0.10982447 0.26348567 0.88767403 1.4251269e-07
00000000: b106 aa3f de33 c33d a66b 3b3f 3b32 aa40
00000010: 503c ce3f ee9d ee3b 1193 98b9 fdd5 fd3f
00000020: f322 0f3e f002 0c38 7119 953f 0d19 cc3f
00000030: a7eb e03d 98e7 863e 9b3e 633f 9705 1934

neural_networks.1.linear_relu_stack.1.bias f4 [16]
7.196811 -0.7517703 -0.07002331 0.4656399 9.213044 -0.60096204 1.1324131 11.054008
-0.7049678 0.9109502 7.325525 8.942465 -0.53091264 -2.0511892 -0.0711401 4.2782593
00000000: 474c e640 0574 40bf 6268 8fbd 5a68 ee3e
00000010: a168 1341 a6d8 19bf eaf2 903f 37dd 3041
00000020: c578 34bf 0834 693f b36a ea40 5614 0f41
00000030: e4e9 07bf af46 03c0 e7b1 91bd 80e7 8840

neural_networks.1.linear_relu_stack.1.running_mean f4 [16]
-7.239891 -3.9388375 0.40110642 -20.46552 3.7635932 0.754316 0.43831348 2.663817
1.3333696 0.9309088 2.9915295 4.5681953 -1.143759 3.0206892 0.17287706 0.68032753
00000000: 30ad e7c0 ea15 7cc0 d25d cd3e 63b9 a3c1
00000010: b6de 7040 da1a 413f a06a e03e fa7b 2a40
00000020: dbab aa3f 0a50 6e3f 3875 3f40 a82e 9240
00000030: b266 92bf f952 4140 af06 313e f229 2e3f

neural_networks.1.linear_relu_stack.1.running_var f4 [16]
0.00023487258 6.580165e-05 2.1297617e-09 0.002421649 8.196653e-05 1.6140033e-05 9.09862e-11 7.550451e-05
1.7447845e-05 3.110287e-12 6.5543114e-05 6.1631246e-05 8.122067e-06 5.543705e-05 9.050252e-10 9.997639e-13
00000000: 2148 7639 fefe 8938 2a5b 1231 87b4 1e3b
00000010: 72e5 ab38 7564 8737 ad14 c82e 2d58 9e38
00000020: f65c 9237 f3dd 5a2c 3174 8938 0640 8138
00000030: 0344 0837 1485 6838 7dc5 7830 4ab4 8c2b

neural_networks.1.linear_relu_stack.3.weight f4 [16, 16]
0.0040562097 -0.3033979 0.19665647 -0.34854904 -0.55271316 -0.26302615 -0.4724467 -0.5890273
-0.5251341 -0.52903783 -0.4141668 -0.44630626 -0.09659662 -0.5573389 -0.071834944 -0.49470043
-0.19445309 0.07124313 -0.04299314 0.04880045 0.30341735 -0.07835754 -0.109460525 0.36364153
0.23417915 0.07910694 0.02160639 0.3536296 -0.29630998 0.28969145 -0.12111265 0.2684386
-0.3153152 -0.34784803 0.10281762 -0.63368833 0.008868213 0.032017246 -0.08364824 -0.23907706
-0.25493324 0.02222849 -0.3229041 -0.0591801 -0.5106693 -0.33305836 -0.039136223 -0.34916407
-0.19769064 -0.25820905 0.022860983 -0.21958636 -0.18866646 -0.1968969 -0.4503557 0.035878453
-0.04830221 -0.09380915 0.020922532 -0.12202092 -0.30035236 -0.32393482 -0.36760432 -0.3043579
-2.7822442 -0.13453394 0.04505446 -3.5864868 6.405811 -0.004719241 0.017495753 10.597656
-0.0034907495 -0.008216219 3.823978 6.8308654 0.0062668007 0.40563375 -0.014619808 -0.0007199534
-0.2441897 -0.4122219 0.076739416 -0.46107784 -0.18007013 -0.27003026 -0.14096259 -0.089887194
-0.579438 -0.18724144 -0.44186637 -0.330925 -0.27059573 -0.10750509 -0.16265287 -0.20905213
-0.0050260094 0.22641441 0.24992128 0.11865282 0.13717106 0.08630854 -0.008083756 -0.04001195
0.020600216 -0.025433064 0.16739848 0.09125482 0.18658191 0.18213245 0.078333735 -0.037440106
0.51625884 -0.10769883 0.15136658 -0.13397555 -0.31755075 -0.15230791 -0.26606646 -0.7819799
0.006661142 -0.454121 -0.8855254 -0.8346561 -0.15848145 -0.16449344 -0.25156912 0.170238
0.033382073 0.22434288 -0.050742857 0.20406099 0.15235044 0.2235152 0.084690206 -0.09058338
-0.07466657 0.051562324 0.18336867 0.015886221 -0.1043448 -0.1024388 0.23988645 0.057340372
-0.03148713 -0.100494415 -0.2997316 -0.3602301 -0.13173184 -0.65716356 -0.58910936 0.31260094
-0.35529178 -0.49940106 -0.08358335 -0.39457878 0.019626709 -0.16140763 0.114294566 -0.36575824
-0.09013296 -0.061443932 -0.14814122 -0.4560512 -0.05979029 -0.48597118 -0.43997952 0.11575809
-0.64366984 -0.67045414 -0.2125099 0.02780008 -0.4230788 -0.7618181 -0.041155588 -0.4883216
-0.28833058 -0.36332694 0.19204913 -0.5874628 -0.35101718 -0.1998688 -0.013454328 0.06293592
-0.24551487 -0.15978304 -0.3091421 0.28808323 -0.15466262 0.0015525225 -0.062199086 -0.12515475
10.650377 0.08527189 -0.06408405 -3.4319208 -9.078862 -0.37576175 0.00014721286 -12.570069
-0.22362901 -0.0016937787 -6.648169 -9.028974 0.111863025 -0.84564435 0.01822097 -0.0072740945
0.11466149 -0.32700258 -0.100531705 -0.12182257 -0.3424787 -0.5554216 -0.47271204 -0.46763226
-0.606629 -0.6828082 -0.5296228 -0.5485951 -0.39579365 -0.52925926 -0.16546991 -0.5582425
0.11890013 -0.06812259 -0.23973286 -0.11312848 -0.41090843 -0.24460097 -0.18775548 -0.30825713
-0.26418912 -0.39305156 -0.07709625 -0.12707765 -0.2606786 -0.26853955 0.07773539 -0.2132264
-0.09932663 -0.3350743 -0.07226187 -0.42390555 -0.26505604 -0.1340139 0.032448888 -0.16417915
0.006998601 -0.3264912 -0.13695899 -0.076920316 -0.3336386 -0.32571304 -0.26140177 -0.103267185
00000000: f4e9 843b f856 9bbe 5060 493e 0575 b2be
00000010: 9c7e 0dbf 5dab 86be 89e4 f1be 7eca 16bf
00000020: 306f 06bf 066f 07bf ac0d d4be 4182 e4be
00000030: 73d4 c5bd c3ad 0ebf 331e 93bd 6049 fdbe
00000040: b61e 47be ebe7 913d 9319 30bd fbe2 473d
00000050: 8559 9b3e eb79 a0bd d72c e0bd 392f ba3e
00000060: a9cc 6f3e d202 a23d e2ff b03c f00e b53e
00000070: f1b5 97be 7052 943e e909 f8bd c970 893e
00000080: fe70 a1be 2319 b2be 0b92 d23d 6639 22bf
00000090: fb4b 113c 8424 033d c54f abbd 9ed0 74be
000000a0: 9c86 82be 8618 b63c b053 a5be d566 72bd
000000b0: 39bb 02bf a086 aabe 4e4d 20bd a2c5 b2be
000000c0: 6a6f 4abe fa33 84be f546 bb3c 3fdb 60be
000000d0: c831 41be 579f 49be 0695 e6be 49f5 123d
000000e0: 8ad8 45bd 031f c0bd bb65 ab3c 1be6 f9bd
000000f0: c9c7 99be c9da a5be a236 bcbe ccd4 9bbe
00000100: 4a10 32c0 44c3 09be 078b 383d 0089 65c0
00000110: 67fc cc40 dda3 9abb 4153 8f3c 0090 2941
00000120: 0fc5 64bb 529d 06bc 0ebc 7440 7396 da40
00000130: bc59 cd3b 3aaf cf3e eb87 6fbc 41bb 3cba
00000140: dd0c 7abe c00e d3be 8e29 9d3d 6512 ecbe
00000150: 4e64 38be 6841 8abe 7f58 10be c716 b8bd
00000160: 0c56 14bf 38bc 3fbe 4f3c e2be 006f a9be
00000170: 868b 8abe a12b dcbd 798e 26be c311 56be
00000180: 39b1 a4bb 2ed9 673e 5deb 7f3e 4000 f33d
00000190: 9276 0c3e 88c2 b03d bb71 04bc 92e3 23bd
000001a0: c9c1 a83c 0059 d0bc 826a 2b3e cfe3 ba3d
000001b0: 540f 3f3e ee80 3a3e 706d a03d cc5a 19bd
000001c0: 8a29 043f 3491 dcbd d7ff 1a3e e330 09be
000001d0: 0396 a2be 9bf6 1bbe dd39 88be d62f 48bf
000001e0: b645 da3b 8c82 e8be cbb1 62bf 06ac 55bf
000001f0: f648 22be f870 28be abcd 80be df52 2e3e
00000200: a4bb 083d 24ba 653e bed7 4fbd 5df5 503e
00000210: c101 1c3e 2be1 643e 0f72 ad3d c783 b9bd
00000220: c9ea 98bd 0433 533d ffc4 3b3e d223 823c
00000230: bab2 d5bd 6fcb d1bd cba4 753e bddd 6a3d
00000240: a6f8 00bd 04d0 cdbd 6c76 99be 1470 b8be
00000250: b6e4 06be df3b 28bf dfcf 16bf 3b0d a03e
00000260: cee8 b5be 7fb1 ffbe bf2d abbd 3b06 cabe
00000270: 31c8 a03c 0b48 25be 4513 ea3d aa44 bbbe
00000280: a197 b8bd a2ac 7bbd 55b2 17be 8b7f e9be
00000290: aae6 74bd 37d1 f8be ff44 e1be 9412 ed3d
000002a0: 8cc7 24bf e2a2 2bbf 329c 59be febc e33c
000002b0: c99d d8be 8306 43bf c392 28bd 4a05 fabe
000002c0: 11a0 93be fd05 babe 87a8 443e f663 16bf
000002d0: 86b8 b3be 68aa 4cbe 8b6f 5cbc 8ce4 803d
000002e0: 4068 7bbe 2a9e 23be e047 9ebe a57f 933e
000002f0: e15f 1ebe 037e cb3a 78c4 7ebd 9128 00be
00000300: f267 2a41 07a3 ae3d 803e 83bd 97a4 5bc0
00000310: 0543 11c1 d863 c0be 275d 1a39 011f 49c1
00000320: 01ff 64be c801 deba cdbd d4c0 ad76 10c1
00000330: 7118 e53d 267c 58bf 2544 953c 875b eebb
00000340: a5d3 ea3d e26c a7be 91e3 cdbd 1d7e f9bd
00000350: 5e59 afbe 1c30 0ebf 5007 f2be 7f6d efbe
00000360: 0a4c 1bbf 85cc 2ebf 5c95 07bf ba70 0cbf
00000370: 77a5 cabe 897d 07bf f270 29be fbe8 0ebf
00000380: e981 f33d db83 8bbd 887c 75be e8af e7bd
00000390: 9762 d2be ad78 7abe f942 40be e1d3 9dbe
000003a0: cc43 87be 0e3e c9be a4e4 9dbd a520 02be
000003b0: aa77 85be 047e 89be bb33 9f3d 0558 5abe
000003c0: c36b cbbd dc8e abbe 08fe 93bd 260a d9be
000003d0: 6db5 87be f13a 09be 20e9 043d 941e 28be
000003e0: 8554 e53b db29 a7be fa3e 0cbe 6688 9dbd
000003f0: aed2 aabe dcc3 a6be 74d6 85be bf7d d3bd

neural_networks.1.linear_relu_stack.4.weight f4 [16]
0.18693277 -0.060214438 0.3244488 0.3267905 0.44475573 0.2527833 0.0515508 0.03149636
-0.021050872 0.43202004 0.19153786 0.4065135 0.45287034 0.0327614 0.1364577 0.18702036
00000000: 4e6b 3f3e 6aa3 76bd 271e a63e 1651 a73e
00000010: 06b7 e33e d06c 813e ef26 533d 5402 013d
00000020: e172 acbc bb31 dd3e 8022 443e 8a22 d03e
00000030: 9fde e73e d130 063d 91bb 0b3e 4482 3f3e

neural_networks.1.linear_relu_stack.4.bias f4 [16]
-0.94109726 -0.82772005 -0.62318 -0.7818483 -0.022029698 -0.77426 -0.5156396 -1.0546219
-0.19577008 -0.738434 -0.7416011 -0.6203506 -0.07909013 -0.88804597 -0.7491105 -0.94151515
00000000: c0eb 70bf 76e5 53bf b988 1fbf 3627 48bf
00000010: a077 b4bc e735 46bf f500 04bf dafd 86bf
00000020: f477 48be 030a 3dbf 92d9 3dbf 4ccf 1ebf
00000030: 02fa a1bd fb56 63bf b5c5 3fbf 2307 71bf

neural_networks.1.linear_relu_stack.4.running_mean f4 [16]
-22.55887 9.949824 -10.791279 -6.118777 236.70068 -12.921361 2.9159508 -22.112679
2.9985645 -5.664044 -5.5040545 -6.3862677 -283.76596 -20.120913 -9.790297 -8.367817
00000000: 9178 b4c1 7b32 1f41 14a9 2cc1 05cd c3c0
00000010: 60b3 6c43 e5bd 4ec1 f09e 3a40 c4e6 b0c1
00000020: 7be8 3f40 d93f b5c0 3721 b0c0 4e5c ccc0
00000030: 0be2 8dc3 a1f7 a0c1 0ea5 1cc1 94e2 05c1

neural_networks.1.linear_relu_stack.4.running_var f4 [16]
4.521339 3.2553883 2.8919106 0.38588622 3376.9502 0.5918223 0.04882921 19.701286
0.22525567 0.9494694 2.40225 3.9224172 3874.5703 6.709661 1.7300477 0.5976349
00000000: cfae 9040 4858 5040 1015 3940 e192 c53e
00000010: 340f 5345 ab81 173f 2301 483d 3c9c 9d41
00000020: 6ca9 663e 6d10 733f 77be 1940 e208 7b40
00000030: 2029 7245 8bb5 d640 3472 dd3f 9afe 183f

neural_networks.1.linear_relu_stack.6.weight f4 [1, 16]
0.06370395 0.041519444 0.00766628 0.170434 0.19301064 -0.0007634024 -0.016917516 -0.11661574
-0.005134428 0.12295874 0.1510144 0.00806446 -0.1835973 0.08986304 0.040259883 -0.08706812
00000000: 3777 823d 4b10 2a3d 6b35 fb3b 4086 2e3e
00000010: 95a4 453e 111f 48ba 9a96 8abc 3cd4 eebd
00000020: b43e a8bb cbd1 fb3d 85a3 1a3e cc20 043c
00000030: ee00 3cbe 1d0a b83d 8ce7 243d c550 b2bd

neural_networks.2.linear_relu_stack.0.weight f4 [16, 2]
26.166697 -0.13994886 -0.81783026 -0.9244228 -0.16620873 -1.0599608 -4.156159 -0.033978254
24.985867 0.15977864 -0.053411115 -1.1093342 -12.975984 -1.3443835 -0.42681587 0.67993075
0.31401846 -0.33426452 10.703887 -0.10967441 -28.188944 0.28778583 23.2188 -0.29753715
0.109196536 -0.46334592 1.2319709 -0.35953227 26.791952 -0.21326266 -27.45031 0.24697055
00000000: 6555 d141 c14e 0fbe 535d 51bf f9a6 6cbf
00000010: 9f32 2abe ccac 87bf 41ff 84c0 c82c 0bbd
00000020: 0ee3 c741 039d 233e 9dc5 5abd aafe 8dbf
00000030: a19d 4fc1 c214 acbf 9c87 dabe f10f 2e3f
00000040: 07c7 a03e b824 abbe 1f43 2b41 fa9c e0bd
00000050: f582 e1c1 aa58 933e 1ac0 b941 ca56 98be
00000060: 6fa2 df3d ad3b edbe 39b1 9d3f 9d14 b8be
00000070: eb55 d641 8761 5abe 3c9a dbc1 d9e5 7c3e

neural_networks.2.linear_relu_stack.1.weight f4 [16]
1.9759712 0.23033608 0.055031225 0.07908861 4.122424 -0.046921458 -0.0053801327 0.052636202
0.07118774 0.11790341 3.0473926 7.240352e-05 -0.055400655 0.0029431258 1.8009686 2.7151225
00000000: a0ec fc3f 39dd 6b3e 6c68 613d 36f9 a13d
00000010: e6ea 8340 b730 40bd d34b b0bb 0f99 573d
00000020: e1ca 913d 5877 f13d 7b08 4340 58d7 9738
00000030: cceb 62bd 75e1 403b 2486 e63f 91c4 2d40

neural_networks.2.linear_relu_stack.1.bias f4 [16]
-0.43017727 -1.3932011 -1.0067105 -0.41337776 0.30340973 -0.60231775 -0.8412293 -0.31497243
-0.88295555 -0.60105044 13.3051195 3.0077329 -0.6581175 -0.56145287 5.04493 11.950532
00000000: 3240 dcbe 6a54 b2bf e4db 80bf 40a6 d3be
00000010: 8558 9b3e 7f31 1abf ce5a 57bf 1144 a1be
00000020: 6009 62bf 71de 19bf c5e1 5441 b27e 4040
00000030: 637a 28bf 60bb 0fbf 1170 a140 6135 3f41

neural_networks.2.linear_relu_stack.1.running_mean f4 [16]
120.49608 -4.2356195 -1.2996203 -19.17841 115.28407 -0.80442774 -60.50017 -1.6256461
1.2795405 49.29339 -129.91519 106.897354 0.2702913 5.4989014 123.49915 -126.528984
00000000: fefd f042 328a 87c0 f559 a6bf 626d 99c1
00000010: 7291 e642 faee 4dbf 2d00 72c2 2c15 d0bf
00000020: fcc7 a33f 6e2c 4542 4aea 01c3 72cb d542
00000030: 9f63 8a3e 00f7 af40 91ff f642 d70e fdc2

neural_networks.2.linear_relu_stack.1.running_var f4 [16]
0.15374558 0.005305383 0.0055444194 0.004250228 0.15162773 0.0058651376 0.074063875 0.0017749167
0.00038924848 0.025032055 0.17475793 0.11586622 0.00093408563 0.00029365727 0.16013756 0.16703764
00000000: 7b6f 1d3e c7d8 ad3b f6ad b53b 7f45 8b3b
00000010: 4d44 1b3e 5730 c03b cdae 973d 52a4 e83a
00000020: 0c14 cc39 0610 cd3c bef3 323e 454b ed3d
00000030: 6ddd 743a 03f6 9939 1afb 233e ea0b 2b3e

neural_networks.2.linear_relu_stack.3.weight f4 [16, 16]
-1.6354289 0.45695332 -0.0026891853 0.1928244 -3.327803 0.0013077245 0.015104244 0.115329765
-0.06275433 -0.11071882 4.323733 -0.0032137772 0.005689202 -0.025101796 -8.4696455 3.8454435
-0.43350312 -0.008857914 0.04713102 -0.2277811 -0.13419254 -0.10784293 -0.025470227 -0.1378402
-0.04147052 -0.20899813 -0.22833894 -0.5532349 0.06272027 -0.36865163 -0.346011 -0.022076173
0.124734744 -0.3741838 -0.27138758 -0.19578008 -0.07752393 0.14550829 -0.4342074 -0.11210116
-0.054076206 -0.24225907 -1.1352224 0.6293944 -0.0013452795 0.013543473 0.31365347 -0.57538044
-0.14497465 -0.3662631 -0.03923574 -0.01740961 -0.06282973 -0.108316414 -0.5356637 -0.2892286
-0.053890117 -0.2997811 -0.1432856 0.018510558 0.20367055 0.046941448 -0.030537521 -0.33116892
0.06198766 -0.07699861 -0.44951183 -0.2732025 -0.3080582 -0.57388663 0.029361568 0.09416772
0.07406823 -0.11939465 -0.19769754 -0.28680655 -0.60693073 -0.16226445 -0.4599842 0.21603408
0.3049533 -0.24446741 -0.16017143 0.18216176 0.1847163 -0.080138676 -0.09999943 0.09019325
-0.061747007 -0.02384459 -0.36832595 0.44694966 0.04036429 -0.19466068 0.40532064 -0.09831578
-0.8099374 0.23400982 0.43387815 -0.20295767 -0.5075111 0.11321936 0.40435156 -0.29901236
-0.14261739 -0.5844958 0.015782993 -0.97008437 -0.25927177 -0.29979816 0.1347663 0.7943455
0.008099283 -0.28449604 -0.26537958 -0.1921872 -0.11666173 -0.090486355 -0.12141477 0.073323466
0.01034955 -0.28135845 -0.32970837 -0.35802707 0.14045112 -0.3574566 -0.019584838 -0.35062084
-0.059610505 -0.11009258 -0.12734611 -0.24031858 -0.045742184 -0.20507385 -0.44287807 0.06697382
-0.06742674 -0.021729177 -0.18138802 -0.31776205 -0.008134411 0.17515494 -0.03383225 -0.5834761
-0.14337307 0.0055632186 -0.118719384 0.1539206 -0.07809801 0.108036995 -0.1505755 -0.07158868
-0.24947366 0.11331149 -0.2049963 -0.19792213 -0.076787174 -0.33978906 0.056623332 -0.16226275
-0.20978852 -0.24616551 -0.13232523 0.07107662 -0.049219422 -0.28687185 -0.49019688 -0.14345182
-0.098959304 0.18395676 -0.16136576 -0.09145001 0.098817 -0.23832466 0.06385135 -0.5561975
-0.14766936 -0.21008192 0.07038793 0.2580788 -0.31571254 0.15205157 -0.17796123 0.10822744
0.014832386 -0.47938362 0.21508293 -0.64190924 -0.07147846 -0.0005682772 -0.23281272 0.26322347
-0.2900025 -0.14736973 -0.12950249 0.15283541 -0.18665363 -0.23638621 0.01805239 -0.14228559
-0.36670652 0.014863729 0.1193534 -0.3129172 0.09211593 -0.39645457 0.0043446296 -0.0010775554
-0.88523 0.10069425 0.013819442 -0.17626788 -1.3263916 0.06886716 -0.5931104 0.00013906976
-0.07153938 -0.021960268 -7.889946 -0.004969024 0.07480035 0.03241658 21.19715 -7.5776334
-0.18140593 -0.15541784 0.03639329 -0.20344204 -0.007442623 -0.24376252 -0.3195515 0.021247903
0.07123514 -0.29379788 -0.3451856 -0.13795058 -0.14751014 0.11481718 -0.15355344 -0.17127897
-0.01801893 -0.20957735 0.23238885 0.1211751 -0.2106055 -0.09709126 0.21856527 -0.099000335
-0.30830866 -0.18628109 0.079713315 -0.24410596 -0.13094181 0.16259958 -0.062253457 0.036425885
00000000: bc55 d1bf c9f5 e93e 0b3d 30bb c273 453e
00000010: b9fa 54c0 f467 ab3a cb77 773c 0332 ec3d
00000020: 5885 80bd 8cc0 e2bd 055c 8a40 3c9e 52bb
00000030: 7c6c ba3b 48a2 cdbc ab83 07c1 bf1b 7640
00000040: 1ff4 ddbe c920 11bc 750c 413d 733f 69be
00000050: c569 09be c1dc dcbd f0a6 d0bc fb25 0dbe
00000060: fedc 29bd 9b03 56be afd1 69be cda0 0dbf
00000070: 7c73 803d e8bf bcbe 5b28 b1be 17d9 b4bc
00000080: ee74 ff3d 0595 bfbe 50f3 8abe 937a 48be
00000090: dec4 9ebd 2000 153e 6f50 debe 4b95 e5bd
000000a0: 037f 5dbd c312 78be f84e 91bf fe1f 213f
000000b0: 1754 b0ba 71e5 5d3c 3097 a03e 224c 13bf
000000c0: 3c74 14be d686 bbbe a8b5 20bd 999e 8ebc
000000d0: e0ac 80bd ffd4 ddbd 4221 09bf c515 94be
000000e0: e2bb 5cbd e97c 99be 76b9 12be 74a3 973c
000000f0: 038f 503e ad45 403d d329 fabc f98e a9be
00000100: c6e6 7d3d 72b1 9dbd 6a26 e6be 33e1 8bbe
00000110: ceb9 9dbe 3cea 12bf ac87 f03c 01db c03d
00000120: 16b1 973d 2f85 f4bd 3971 4abe 4fd8 92be
00000130: d05f 1bbf a728 26be 0d83 ebbe 0a38 5d3e
00000140: d722 9c3e aa55 7abe fb03 24be 9d88 3a3e
00000150: 4526 3d3e bf1f a4bd 80cc ccbd 3db7 b83d
00000160: 6eea 7cbd bb55 c3bc 3895 bcbe 96d6 e43e
00000170: 0755 253d 2155 47be 3086 cf3e c959 c9bd
00000180: 0f58 4fbf 45a0 6f3e 4725 de3e 23d4 4fbe
00000190: 3fec 01bf 8ddf e73d 2b07 cf3e 2618 99be
000001a0: 4b0a 12be 84a1 15bf 564b 813c 7357 78bf
000001b0: 45bf 84be 257f 99be 2d00 0a3e 3a5a 4b3f
000001c0: dbb2 043c 77a9 91be d5df 87be b9cc 44be
000001d0: 58ec eebd e950 b9bd 4fa8 f8bd 9d2a 963d
000001e0: 2991 293c 370e 90be 89cf a8be 534f b7be
000001f0: 6bd2 0f3e 8d04 b7be 6270 a0bc 9384 b3be
00000200: 252a 74bd 3878 e1bd 0567 02be 1316 76be
00000210: 285c 3bbd e1fe 51be eac0 e2be 9229 893d
00000220: 0817 8abd 6301 b2bc c8bd 39be b5b1 a2be
00000230: 3146 05bc d15b 333e af93 0abd b15e 15bf
00000240: 64d0 12be a94b b63b 2623 f3bd 5d9d 1d3e
00000250: d9f1 9fbd 8042 dd3d 7730 1abe 169d 92bd
00000260: 0676 7fbe db0f e83d 8dea 51be 19ac 4abe
00000270: 9842 9dbd d5f8 adbe deed 673d 3528 26be
00000280: cdd2 56be d012 7cbe 4480 07be 9e90 913d
00000290: 4e9a 49bd dee0 92be 16fb fabe 09e5 12be
000002a0: 2dab cabd 295f 3c3e 113d 25be 254a bbbd
000002b0: 9160 ca3d 610b 74be 7fc4 823d f662 0ebf
000002c0: a336 17be b71f 57be 8c27 903d e822 843e
000002d0: 13a5 a1be 68b3 1b3e 783b 36be 59a6 dd3d
000002e0: 8903 733c c571 f5be b33e 5c3e 2a54 24bf
000002f0: 4d63 92bd 70f8 14ba 7566 6ebe 3ac5 863e
00000300: 357b 94be 17e8 16be 4d9c 04be e380 1c3e
00000310: 2122 3fbe 3a0f 72be 9be2 933c 50b3 11be
00000320: f5c0 bbbe ff86 733c 8e6f f43d af36 a0be
00000330: 47a7 bc3d 18fc cabe 655d 8e3b c23c 8dba
00000340: 6f9e 62bf c938 ce3d f16a 623c 917f 34be
00000350: 33c7 a9bf 3a0a 8d3d 15d6 17bf 41d3 1139
00000360: 3d83 92bd 05e6 b3bc 707a fcc0 32d3 a2bb
00000370: ed30 993d 3fc7 043d c393 a941 f97b f2c0
00000380: 7ac2 39be db25 1fbe 2111 153d 1c53 50be
00000390: 3fe1 f3bb e29c 79be 419c a3be 1510 ae3c
000003a0: bbe3 913d ad6c 96be 2bbc b0be eb42 0dbe
000003b0: e60c 17be 4525 eb3d 1d3d 1dbe c163 2fbe
000003c0: 6f9c 93bc 729b 56be 58f7 6d3e a72a f83d
000003d0: f8a8 57be c8d7 c6bd 93cf 5f3e b0c0 cabd
000003e0: a2da 9dbe 78c0 3ebe bc40 a33d eaf6 79be
000003f0: 9c15 06be 8180 263e 7bfd 7ebd 4f33 153d

neural_networks.2.linear_relu_stack.4.weight f4 [16]
0.5495583 0.14562646 0.13501242 0.05168107 0.11144582 0.048964437 0.07231649 0.1296582
-0.01669984 0.115025684 -0.014348362 0.19677974 0.2060966 0.505201 0.060813922 0.16244589
00000000: daaf 0c3f 1a1f 153e b240 0a3e 88af 533d
00000010: b53d e43d ef8e 483d ab1a 943d 1fc5 043e
00000020: 1ace 88bc 9692 eb3d 6415 6bbc a180 493e
00000030: fd0a 533e da54 013f 0518 793d 3758 263e

neural_networks.2.linear_relu_stack.4.bias f4 [16]
-0.13377433 -0.5876536 -0.76105314 -0.75732476 -0.5839823 -0.6273061 -0.4338728 -0.5764699
-0.67017287 -0.50188005 -0.70013386 -0.91436476 -0.66672903 -0.019071002 -0.61296815 -0.70887154
00000000: 23fc 08be 7770 16bf 61d4 42bf 09e0 41bf
00000010: dd7f 15bf 2297 20bf 9324 debe 8893 13bf
00000020: 7390 2bbf 367b 00bf f93b 33bf cf13 6abf
00000030: c1ae 2abf ca3a 9cbc 7beb 1cbf 9b78 35bf

neural_networks.2.linear_relu_stack.4.running_mean f4 [16]
53.85028 -7.198829 -18.541254 -6.1507916 -3.747548 -2.1702545 6.067402 -9.944719
-10.615312 -5.1933327 -8.944256 2.241554 0.14991502 -91.261826 -7.9381194 0.057202175
00000000: b066 5742 cf5c e6c0 7d54 94c1 49d3 c4c0
00000010: d4d7 6fc0 73e5 0ac0 2828 c240 921d 1fc1
00000020: 51d8 29c1 c82f a6c0 ac1b 0fc1 9f75 0f40
00000030: 5383 193e 0e86 b6c2 1305 fec0 d44c 6a3d

neural_networks.2.linear_relu_stack.4.running_var f4 [16]
2289.7131 0.4309253 30.822275 1.1007235 2.1753995 7.862252 15.051498 2.8592317
3.7711709 0.8224608 3.4705012 6.9933424 1.1406602 6340.4272 1.1912199 0.9317376
00000000: 691b 0f45 3ea2 dc3e 0594 f641 82e4 8c3f
00000010: bf39 0b40 9297 fb40 f0d2 7041 a7fd 3640
00000020: dd5a 7140 ca8c 523f b11c 5e40 76c9 df40
00000030: 2701 923f 6b23 c645 e579 983f 5b86 6e3f

neural_networks.2.linear_relu_stack.6.weight f4 [1, 16]
-0.24011874 0.18367648 -0.086507104 -0.004771931 -0.13757196 0.029724943 -0.023138301 0.083288096
-0.14307809 0.120681226 -0.0382738 0.051002122 0.09615071 0.25711662 0.1354267 -0.043911435
00000000: b0e1 75be b015 3c3e a32a b1bd dc5d 9cbb
00000010: aadf 0cbe b981 f33c 898c bdbc f392 aa3d
00000020: 1083 12be b827 f73d fdc4 1cbd 9ae7 503d
00000030: aaea c43d caa4 833e 4cad 0a3e 7adc 33bd

neural_networks.3.linear_relu_stack.0.weight f4 [16, 2]
27.421167 -0.30420265 -0.29837087 -0.54357463 -0.24689934 -0.43708077 -0.42478755 0.4186101
0.7507803 0.4528105 3.6513486 -0.02414078 -0.0863693 0.3975538 0.16631795 0.6727722
26.149704 -0.420013 29.260376 0.51803637 -2.0777104 0.15637918 0.63570297 0.15639383
-26.72344 0.52215755 -0.10080923 0.32746208 28.629866 -0.32905886 -23.612051 0.33448502
00000000: 8d5e db41 73c0 9bbe 11c4 98be b527 0bbf
00000010: 2ed3 7cbe 0dc9 dfbe c17d d9be 1054 d63e
00000020: 2333 403f c7d6 e73e b2af 6940 e3c2 c5bc
00000030: 63e2 b0bd 2c8c cb3e 414f 2a3e cd3a 2c3f
00000040: 9832 d141 f20b d7be 4015 ea41 089e 043f
00000050: 35f9 04c0 dd21 203e 6ebd 223f b425 203e
00000060: 9bc9 d5c1 1eac 053f 1275 cebd 1ca9 a73e
00000070: f709 e541 677a a8be 7be5 bcc1 9f41 ab3e

neural_networks.3.linear_relu_stack.1.weight f4 [16]
2.357295 0.13439295 0.06917532 0.08311096 0.08991408 0.21349917 0.085578516 0.10509699
2.4577088 2.2721267 0.22857605 0.1249786 1.7893612 0.059996642 1.5526848 2.0555985
00000000: ecdd 1640 4e9e 093e caab 8d3d 1436 aa3d
00000010: e024 b83d 879f 5a3e ca43 af3d 173d d73d
00000020: 1a4b 1d40 866a 1140 d70f 6a3e c8f4 ff3d
00000030: ca09 e53f 0abf 753d 60be c63f ed8e 0340

neural_networks.3.linear_relu_stack.1.bias f4 [16]
5.7534204 -0.68347484 -0.38300115 -0.5271893 -0.6308865 -1.0547081 -0.91468024 -0.58138317
5.166303 3.4578185 -1.8930687 -0.8320427 4.373602 -0.37906396 6.40661 3.6341207
00000000: 051c b840 35f8 2ebf ba18 c4be e1f5 06bf
00000010: c781 21bf ad00 87bf 7c28 6abf 87d5 14bf
00000020: 5b52 a540 e64c 5d40 1350 f2bf c000 55bf
00000030: 8cf4 8b40 ac14 c2be f302 cd40 6f95 6840

neural_networks.3.linear_relu_stack.1.running_mean f4 [16]
126.19992 -1.6492562 -1.3583403 -1.74765 3.6893115 16.821728 -0.19803509 1.1054966
120.28982 135.18303 -9.500175 3.0095322 -122.85395 -0.29989657 131.77347 -108.6002
00000000: 5c66 fc42 d41a d3bf 18de adbf ffb2 dfbf
00000010: ae1d 6c40 e692 8641 b6c9 4abe ea80 8d3f
00000020: 6394 f042 db2e 0743 b800 18c1 2d9c 4040
00000030: 39b5 f5c2 0b8c 99be 02c6 0343 4d33 d9c2

neural_networks.3.linear_relu_stack.1.running_var f4 [16]
0.2445513 0.004350697 0.0028251975 0.0016399754 0.0040214476 0.00455915 0.0018763986 0.0061331186
0.21138445 0.36991543 0.00071544136 0.000814771 0.21252772 0.0012399517 0.26572654 0.17514722
00000000: a86b 7a3e 4b90 8e3b f326 393b 71f4 d63a
00000010: 59c6 833b ec64 953b 7df1 f53a 54f8 c83b
00000020: 2a75 583e 8e65 bd3e 758c 3b3a 5b96 553a
00000030: dea0 593e e085 a23a 4f0d 883e cb59 333e

neural_networks.3.linear_relu_stack.3.weight f4 [16, 16]
-0.18415883 -0.24989693 0.027075771 -0.09841396 0.17369038 -0.36316362 -0.25573042 -0.17948936
-0.2345872 -0.6516661 -0.25355724 0.21753535 -0.23883161 0.1923995 -0.38241562 -0.022861334
0.20299089 0.2689331 0.0871944 -0.0099217445 -0.15198493 0.19376686 0.028426751 0.16812365
0.08676089 0.020773401 0.1411264 0.2518898 -0.06849805 0.2170277 0.20063607 0.021676993
0.023370447 -0.24188825 -0.037914053 0.016595587 0.08975167 -0.21546152 0.07960499 0.056325294
-0.23490863 0.24465744 -0.017575454 -0.2024563 -0.14951268 -0.6243547 -0.082580335 -0.81896317
-4.553437 -0.030968638 -0.011957518 0.07262691 -0.081135675 -0.23648618 -0.11999968 -0.0074137175
-4.3342924 -1.6831019 -0.1690126 -0.21231528 3.0693378 0.058335412 -4.5175495 1.3996639
-0.14651479 0.14114803 0.08965866 0.13538961 -0.1579668 -0.17499244 0.3539054 0.3453526
0.0901495 0.11996953 0.021490917 0.21558048 -0.15644108 0.14990169 0.08550776 -0.1983321
-0.1663052 -0.2037873 -0.18603085 -0.29068187 -0.084755465 -0.11039396 -0.009424379 -0.34609675
0.0019477721 -0.38134244 -0.43716422 -0.31970656 -0.12889148 0.062346023 -0.06699359 -0.076789655
-0.31398192 -0.06498476 0.08272774 -0.31938967 -0.19403808 -0.0689518 -0.12080609 -0.35165948
-0.09218343 -0.55613476 -0.39029276 0.030202577 -0.11973976 -0.25506362 -0.17776524 -0.3490252
0.27758908 0.23316193 0.09194333 -0.11109233 -0.10882335 -0.15487719 0.29267997 -0.111339085
0.21859129 -0.035272006 0.25264278 -0.11120796 -0.084560856 -0.25103316 0.24332324 -0.26521277
-0.5710354 -0.10915642 -0.016529521 -0.12160496 -0.02916936 -0.12991768 -0.12540947 -0.34359437
-0.3448799 -0.12618794 -0.1680046 -0.06693057 -0.4467647 0.065608285 -0.21394275 -0.13293083
-0.055942148 -0.043341693 0.057383243 0.1052034 0.026417281 -0.44242647 -0.106906295 -0.17793174
-0.074745364 0.11014948 -0.082594514 -0.1548867 -0.61785764 0.03784314 -0.15933767 -0.74034363
-0.50974 0.14374632 -0.15261963 -0.3747459 -0.019945208 -0.2142761 -0.11830364 -0.24611753
0.00390366 -0.59540844 -0.2552036 -0.5893367 -0.2884715 -0.29489407 -0.1914684 -0.13265875
7.997479 -0.12819324 -0.12700544 -0.005122876 0.031639367 0.30662674 0.0995696 0.018840998
5.4459805 1.671429 1.0561664 -0.0039745793 -2.4193494 -0.0056580384 8.049886 -1.583678
0.13761283 0.2000633 0.087023444 -0.42997497 -0.08007081 0.0938918 -0.13331835 -0.4316089
0.081147134 0.061842963 -0.09889552 -0.17971024 -0.11297137 -0.033824813 0.07530891 -0.49029276
-0.03450103 0.009896593 -0.021580573 0.08592248 -0.014264639 -0.26726848 0.029956091 -0.3205623
-0.006259718 -0.38605845 -0.06374031 -0.12467719 -0.21076511 0.06526132 -0.44302028 -0.08668318
-0.25610027 -0.04076435 0.08820532 0.057631575 -0.1382518 -0.24948986 0.021831056 -0.36650372
-0.2481174 -0.2347137 -0.08601713 -0.41470385 -0.068657264 -0.2960807 -0.6251842 -0.031326313
-0.40505925 0.1150958 -0.26015604 -0.2002253 -0.22599772 -0.13139392 -0.34677082 0.003206512
0.13324328 -0.56019276 -0.47036967 -0.11244726 -0.042268816 -0.09621971 0.056467094 -0.11287424
00000000: 2294 3cbe fbe4 7fbe 02ce dd3c 428d c9bd
00000010: e4db 313e 95f0 b9be 19ef 82be 0fcc 37be
00000020: a137 70be 97d3 26bf 41d2 81be 96c1 5e3e
00000030: 4690 74be 6004 453e fbcb c3be b147 bbbc
00000040: d8dc 4f3e 99b1 893e fa92 b23d d08e 22bc
00000050: f0a1 1bbe d26a 463e 38df e83c 9b28 2c3e
00000060: b2af b13d fb2c aa3c 7083 103e b3f7 803e
00000070: b548 8cbd 823c 5e3e 8b73 4d3e f393 b13c
00000080: 6173 bf3c 8eb1 77be c44b 1bbd 78f3 873c
00000090: b9cf b73d f2a1 5cbe f107 a33d 5ab5 663d
000000a0: e38b 70be 7b87 7a3e 66fa 8fbc b450 4fbe
000000b0: da19 19be b6d5 1fbf e11f a9bd 92a7 51bf
000000c0: c2b5 91c0 f1b1 fdbc 77e9 43bc 6bbd 943d
000000d0: 762a a6bd 6f29 72be 64c2 f5bd c5ee f2bb
000000e0: 86b2 8ac0 e26f d7bf a411 2dbe 2d69 59be
000000f0: 0870 4440 1df1 6e3d c48f 90c0 3028 b33f
00000100: f907 16be 1c89 103e f69e b73d 93a3 0a3e
00000110: 0cc2 21be 3831 33be 1733 b53e 0ed2 b03e
00000120: 4da0 b83d 96b2 f53d b80d b03c 21c1 5c3e
00000130: 1732 20be d47f 193e b11e af3d 9217 4bbe
00000140: e94b 2abe 9ead 50be df7e 3ebe 41d4 94be
00000150: 4694 adbd 3a16 e2bd b668 1abc 9833 b1be
00000160: 634c ff3a 513f c3be fdd3 dfbe 94b0 a3be
00000170: 21fc 03be 8b5e 7f3d ef33 89bd e543 9dbd
00000180: 3dc2 a0be bb16 85bd 296d a93d 0b87 a3be
00000190: ebb1 46be 9a36 8dbd 2f69 f7bd b60c b4be
000001a0: abca bcbd d95e 0ebf 74d4 c7be 656b f73c
000001b0: 1f3a f5bd b397 82be 1708 36be 6eb3 b2be
000001c0: 2820 8e3e 00c2 6e3e c94c bc3d 6084 e3bd
000001d0: c7de debd 2098 1ebe 26da 953e bf05 e4bd
000001e0: 65d6 5f3e 6179 10bd 655a 813e 00c1 e3bd
000001f0: 3e2e adbd 6b87 80be ba29 793e f8c9 87be
00000200: 602f 12bf 678d dfbd eb68 87bc 050c f9bd
00000210: 95f4 eebc 2409 05be 576b 00be 9aeb afbe
00000220: 1994 b0be 6937 01be 6609 2cbe e512 89bd
00000230: 58be e4be a35d 863d cf13 5bbe 051f 08be
00000240: 9823 65bd 0f87 31bd b10a 6b3d e174 d73d
00000250: 0e69 d83c b985 e2be b0f1 dabd bd33 36be
00000260: 1914 99bd 0d96 e13d 5027 a9bd 9e9a 1ebe
00000270: eb2b 1ebf 6901 1b3d 6a29 23be 2987 3dbf
00000280: 527e 02bf 3c32 133e 5248 1cbe b2de bfbe
00000290: 2264 a3bc 326b 5bbe 2e49 f2bd 3c06 7cbe
000002a0: 8cd4 7f3b b06c 18bf 0caa 82be c5de 16bf
000002b0: 89b2 93be 5bfc 96be 4b10 44be b2d7 07be
000002c0: 59eb ff40 1745 03be b70d 02be ccdd a7bb
000002d0: 4898 013d 2efe 9c3e 25eb cb3d 7058 9a3c
000002e0: 7945 ae40 63f1 d53f 7630 873f 303d 82bb
000002f0: 9fd6 1ac0 1167 b9bb 55cc 0041 f6b5 cabf
00000300: 61ea 0c3e 65dd 4c3e 5939 b23d ae25 dcbe
00000310: 2afc a3bd 584a c03d 9b84 08be d7fb dcbe
00000320: 7830 a63d 0c4f 7d3d bc89 cabd f605 38be
00000330: 895d e7bd e38b 0abd 8f3b 9a3d a707 fbbe
00000340: f450 0dbd 5225 223c bec9 b0bc 20f8 af3d
00000350: 3bb6 69bc 6ad7 88be 7a66 f53c be20 a4be
00000360: 521e cdbb 74a9 c5be 488a 82bd c156 ffbd
00000370: cfd2 57be baa7 853d 8ed3 e2be f386 b1bd
00000380: 931f 83be 85f8 26bd fea4 b43d 160f 6c3d
00000390: e191 0dbe 457a 7fbe 0bd7 b23c 60a6 bbbe
000003a0: 7d12 7ebe ca58 70be c029 b0bd 1054 d4be
000003b0: 2e9c 8cbd e497 97be 120c 20bf 0550 00bd
000003c0: ed63 cfbe 59b7 eb3d 2c33 85be dc07 4dbe
000003d0: f26b 67be 218c 06be f28b b1be 5824 523b
000003e0: ed70 083e cb68 0fbf 4bd4 f0be c04a e6bd
000003f0: 1122 2dbd d70e c5bd 0a4a 673d 9c2a e7bd

neural_networks.3.linear_relu_stack.4.weight f4 [16]
0.14978449 0.0517256 -0.014601676 0.5815152 0.05232762 0.13412175 0.12347407 0.13439351
0.048191775 0.117701694 0.07705095 0.4572596 0.16485126 0.13864702 0.054466322 0.15902777
00000000: 1b61 193e 39de 533d de3b 6fbc 2ede 143f
00000010: 7d55 563d 3657 093e f9df fc3d 749e 093e
00000020: bd64 453d 960d f13d e3cc 9d3d ee1d ea3e
00000030: c5ce 283e 7cf9 0d3e 1418 5f3d 2dd8 223e

neural_networks.3.linear_relu_stack.4.bias f4 [16]
-0.90539455 -0.4395775 -0.6655044 -0.2623918 -0.4182586 -0.7887504 -0.8073451 -0.6169459
-0.8662226 -0.4799505 -0.8428605 0.17330267 -0.6516283 -0.754994 -0.8267545 -0.7397052
00000000: f0c7 67bf 4d10 e1be 7f5e 2abf 3858 86be
00000010: fe25 d6be 8ceb 49bf 2bae 4ebf 2bf0 1dbf
00000020: c4c0 5dbf 12bc f5be b5c5 57bf 4176 313e
00000030: 1dd1 26bf 4947 41bf 2fa6 53bf 525d 3dbf

neural_networks.3.linear_relu_stack.4.running_mean f4 [16]
-8.154404 2.7597995 -4.4030414 -64.90484 -0.8195474 -3.5680757 -7.19052 2.8295572
-9.343784 -6.759742 -7.9958706 115.52068 -0.37399006 -5.6700544 -8.012445 -3.8576238
00000000: 7078 02c1 8ea0 3040 b7e5 8cc0 47cf 81c2
00000010: dccd 51bf 5a5b 64c0 bd18 e6c0 7717 3540
00000020: 2480 15c1 ce4f d8c0 2cde ffc0 970a e742
00000030: a07b bfbe 1671 b5c0 fa32 00c1 4fe3 76c0

neural_networks.3.linear_relu_stack.4.running_var f4 [16]
6.325155 1.2516559 3.1697688 1598.7284 0.88129836 0.8552692 2.3153038 4.6609154
2.920831 5.085145 3.904122 3066.368 3.7811298 1.1381608 6.181504 2.063047
00000000: ab67 ca40 4336 a03f 7edd 4a40 4fd7 c744
00000010: c59c 613f ecf2 5a3f f02d 1440 3826 9540
00000020: e5ee 3a40 82b9 a240 23dd 7940 e3a5 3f45
00000030: 08fe 7140 41af 913f e1ce c540 f608 0440

neural_networks.3.linear_relu_stack.6.weight f4 [1, 16]
-0.03357714 0.02066223 0.13026401 -0.22003083 -0.0081634065 0.09439059 -0.07936134 -0.016145065
-0.11549081 0.17806517 -0.067933284 0.2867533 0.0667124 -0.15046579 0.13118555 0.09743214
00000000: 2f88 09bd d643 a93c ee63 053e c34f 61be
00000010: cfbf 05bc db4f c13d 3388 a2bd a842 84bc
00000020: 7286 ecbd b756 363e 9b20 8bbd 54d1 923e
00000030: 83a0 883d b413 1abe 8155 063e 808a c73d

neural_networks.4.linear_relu_stack.0.weight f4 [16, 2]
14.161668 -0.3021774 -0.06296655 1.7414942 -26.138622 0.2516159 -32.487293 0.25169972
-22.909643 0.3868766 -0.6730545 -0.6994332 -0.319495 0.32509363 -0.045043487 -0.5969094
1.4178861 -0.5202258 -24.379206 0.48084086 -18.897654 0.19224645 0.032756496 -0.4370989
-24.635992 0.29539806 31.835249 -0.20795257 29.834759 -0.1594896 -0.3451111 -0.090677015
00000000: 3196 6241 ffb6 9abe 9bf4 80bd 48e9 de3f
00000010: e61b d1c1 cdd3 803e fdf2 01c2 c9de 803e
00000020: f346 b7c1 b114 c63e 4d4d 2cbf 0e0e 33bf
00000030: d994 a3be ac72 a63e 857f 38bd 0ecf 18bf
00000040: 4b7d b53f 852d 05bf 9d08 c3c1 c630 f63e
00000050: 652e 97c1 41dc 443e ad2b 063d 6dcb dfbe
00000060: 8316 c5c1 6a3e 973e 97ae fe41 85f1 54be
00000070: 96ad ee41 3e51 23be 67b2 b0be dfb4 b9bd

neural_networks.4.linear_relu_stack.1.weight f4 [16]
0.20224066 -0.039222535 0.70309055 2.6502802 0.9935128 0.13271788 0.08827151 0.12486488
0.08801079 1.1360307 0.00091753365 0.035177864 0.54735154 2.5226848 2.517726 0.086156555
00000000: 2d18 4f3e cfa7 20bd befd 333f 319e 2940
00000010: db56 7e3f 32e7 073e b2c7 b43d 29b9 ff3d
00000020: 003f b43d 7469 913f a486 703a aa16 103d
00000030: 3b1f 0c3f ab73 2140 6c22 2140 d972 b03d

neural_networks.4.linear_relu_stack.1.bias f4 [16]
1.282131 -0.21052848 2.8584068 4.0180106 3.8718452 -0.67424375 -0.51794106 -0.64622706
-0.53870946 1.8160484 1.7151724 -0.19400536 2.5054948 3.536989 5.1018915 -0.4505907
00000000: de1c a43f c794 57be 23f0 3640 8b93 8040
00000010: 50cc 7740 3d9b 2cbf c997 04bf 236f 25bf
00000020: dde8 09bf 4674 e83f c58a db3f 57a9 46be
00000030: 075a 2040 075e 6240 b242 a340 d3b3 e6be

neural_networks.4.linear_relu_stack.1.running_mean f4 [16]
65.117004 0.6079995 -120.41944 -149.67743 -105.47475 -3.463944 -1.3053579 -0.51557785
6.2688994 -112.1927 -87.029564 -0.074441895 -113.47577 146.68867 137.48148 -1.6379284
00000000: e83b 8242 dba5 1b3f c1d6 f0c2 6cad 15c3
00000010: 12f3 d2c2 42b1 5dc0 f815 a7bf e9fc 03bf
00000020: d39a c840 aa62 e0c2 230f aec2 fe74 98bd
00000030: 98f3 e2c2 4db0 1243 427b 0943 a3a7 d1bf

neural_networks.4.linear_relu_stack.1.running_var f4 [16]
0.078203 0.04968535 0.3046376 0.47911963 0.21705842 0.010680547 0.0012808566 0.006036915
0.0017784043 0.23795734 0.15770954 0.0030933225 0.2642407 0.46615914 0.4139018 0.00035122465
00000000: e528 a03d de82 4b3d 76f9 9b3e 2b4f f53e
00000010: 9044 5e3e 76fd 2e3c 6ae2 a73a 50d1 c53b
00000020: 5919 e93a 17ab 733e 9c7e 213e 57b9 4a3b
00000030: 8f4a 873e 69ac ee3e f0ea d33e 9324 b839

neural_networks.4.linear_relu_stack.3.weight f4 [16, 16]
-0.33462554 -0.27036408 -0.6673277 -0.060285456 0.17432557 -0.1867687 -0.25712854 -0.3043329
-0.23111753 -0.23738727 -0.20201169 -0.086920515 -0.58889604 -0.31566483 -0.047974877 0.05333322
0.0634782 -0.03207862 -0.33877942 -0.1370129 0.14986193 -0.0009254758 -0.11793333 -0.05181833
-0.25843656 -0.59574556 -0.34392023 -0.08998267 -0.4000569 -0.31335646 -0.009904829 -0.20220399
-0.09058767 -0.031217897 0.07993134 -0.15296596 0.23584129 0.0023493315 -0.05040882 -0.24456003
0.24323219 -0.03655655 -0.0019988655 -0.1168372 0.059499156 -0.33747047 0.13160753 -0.09410649
-0.018020406 -0.0067479326 1.6711471 3.7877278 5.384639 -0.038311962 0.1039557 0.009377735
0.010916519 2.7080486 -0.0022494982 -0.0068280846 1.9000126 -2.4270375 -4.71103 0.09130483
0.07583465 -0.042482138 -0.16428863 -0.23178653 -0.06117239 -0.15372579 -0.006804314 0.19236517
-0.04254965 -0.38434392 -0.18025921 0.30060387 -0.35905185 -0.63039607 -0.34714156 -0.15957452
-0.047063287 -0.2177049 -0.37410244 0.119748995 -0.31050885 -0.12323581 -0.1296054 0.052128933
-0.33747765 -0.0735307 -0.35931772 0.17149442 -0.23918103 -0.19809212 -0.29783282 0.004054281
0.33204022 -0.025701113 -0.691384 -0.23111044 -0.7335748 0.13707976 -0.48264697 0.26451245
-0.45068687 -0.55725896 -0.1597723 0.06128317 -0.63923377 0.16015178 0.44717214 -0.062021405
-0.04969735 -0.012054042 -0.18947549 0.32286802 0.21748923 -0.12721962 -0.38865077 -0.1649592
-0.74118024 -0.07522766 0.110597044 0.06478892 -0.14389868 -0.7634962 -0.54475766 -0.03896261
-0.21385562 -0.33060387 -0.45648408 -0.64404255 -0.07455404 -0.15011315 0.20018612 -0.09887864
-0.046302326 -0.4630234 -0.26382482 -0.26617187 -0.5308342 -0.15141755 -0.08833723 -0.17683756
-0.104106635 0.23253849 0.50167316 0.4970578 0.42450133 0.032179337 0.05050726 -0.08539112
0.03064078 0.26112658 0.55295616 0.17954056 0.38678703 -0.07794972 -0.22065085 -0.12983827
-0.46104008 -0.45870134 -0.09427415 0.11267121 0.24313737 -0.14215782 0.13699901 -0.38128632
-0.03184332 0.04070217 0.11940367 -0.17521255 -0.2631182 -0.7972454 -0.38487446 -0.05023115
0.30732304 -0.1621058 -0.3219857 -0.17971663 -0.25731036 -0.18684109 -0.116974436 -0.17022195
-0.22182605 -0.36464727 -0.009072169 0.19363812 -0.40599588 -0.08669221 0.10891707 0.18080181
0.4903646 -0.01791666 -1.2640299 -3.123776 -1.8392092 -0.14832151 -0.029199678 0.0049960706
0.08783576 -1.1379299 -0.00020007127 0.0067859096 -0.92560667 1.9422536 7.974803 -0.07256367
0.08682658 -0.19396913 -0.8869669 -0.11049899 -0.5119567 -0.029239759 0.11453514 -0.27243927
-0.045520883 -0.9017985 -0.054205313 -0.47042865 -0.600364 0.01966621 0.121392824 -0.33839998
0.1114585 0.21477783 -0.08534376 -0.20127068 0.0735145 -0.24911591 -0.29774946 -0.110113345
-0.2491872 -0.14630587 -0.27463815 -0.06706486 -0.01993484 -0.3180018 -0.5794949 0.19765285
0.0077945455 0.11133321 -0.004758903 -0.08762891 0.34344012 -0.20482604 -0.2707082 -0.12314191
-0.39925492 -0.08581154 0.024712143 0.055217434 0.13067822 -0.5263695 -0.31713375 0.09029672
00000000: 0a54 abbe 296d 8abe fdd5 2abf e2ed 76bd
00000010: 6782 323e 4b40 3fbe 5aa6 83be 86d1 9bbe
00000020: 13aa 6cbe a615 73be 27dc 4ebe 6203 b2bd
00000030: e4c1 16bf d29e a1be 4e81 44bd ef73 5a3d
00000040: dc00 823d df64 03bd 7f74 adbe 1c4d 0cbe
00000050: 6875 193e a19b 72ba 0887 f1bd 753f 54bd
00000060: cc51 84be c882 18bf 5016 b0be d648 b8bd
00000070: 42d4 ccbe 4270 a0be dd47 22bc 900e 4fbe
00000080: 0786 b9bd adbc ffbc 0bb3 a33d 1ca3 1cbe
00000090: 6180 713e 3ef7 193b 7b79 4ebd f26d 7abe
000000a0: dc11 793e 52bc 15bd 66ff 02bb 5848 efbd
000000b0: 63b5 733d eec8 acbe 20c4 063e e7ba c0bd
000000c0: 889f 93bc c31d ddbb 26e8 d53f 226a 7240
000000d0: f64e ac40 01ed 1cbd bae6 d43d 12a5 193c
000000e0: 33db 323c ab50 2d40 516c 13bb 20be dfbb
000000f0: 9d33 f33f 9554 1bc0 c2c0 96c0 07fe ba3d
00000100: 324f 9b3d c001 2ebd 473b 28be 7359 6dbe
00000110: e68f 7abd 4b6a 1dbe b9f6 debb 60fb 443e
00000120: 8b48 2ebd bac8 c4be df95 38be c0e8 993e
00000130: a5d5 b7be a361 21bf 8abc b1be 8167 23be
00000140: 6fc5 40bd 09ee 5ebe 5b8a bfbe f63e f53d
00000150: 04fb 9ebe 0e63 fcbd 47b7 04be 2685 553d
00000160: dfc9 acbe 4397 96bd 7ef8 b7be 3c9c 2f3e
00000170: dfeb 74be a9d8 4abe 8b7d 98be c6d9 843b
00000180: 2d01 aa3e 248b d2bc 8bfe 30bf 37a8 6cbe
00000190: 8fcb 3bbf a35e 0c3e 811d f7be 2d6e 873e
000001a0: 6ec0 e6be 86a8 0ebf 5a9b 23be 1004 7b3d
000001b0: d3a4 23bf d4fe 233e bff3 e43e 280a 7ebd
000001c0: 738f 4bbd 517e 45bc dd05 42be f54e a53e
000001d0: 7fb5 5e3e dc45 02be 3cfd c6be 11eb 28be
000001e0: fdbd 3dbf f610 9abd b480 e23d 0eb0 843d
000001f0: 2d5a 13be 7d74 43bf 3d75 0bbf 4297 1fbd
00000200: f8fc 5abe e944 a9be 48b8 e9be f9df 24bf
00000210: caaf 98bd 43b7 19be 97fd 4c3e e280 cabd
00000220: 82a7 3dbd 6711 edbe 0c14 87be ae47 88be
00000230: c0e4 07bf 340d 1bbe 26ea b4bd e814 35be
00000240: dc35 d5bd 921e 6e3e a76d 003f 5c7e fe3e
00000250: 3d58 d93e 7bce 033d b3e0 4e3d 8ae1 aebd
00000260: 6002 fb3c 62b2 853e 898e 0d3f 7bd9 373e
00000270: f308 c63e 1aa4 9fbd 4cf2 61be 53f4 04be
00000280: 720d ecbe e7da eabe ce12 c1bd 2ac0 e63d
00000290: 01f9 783e d291 11be 7849 0c3e f637 c3be
000002a0: 246e 02bd 52b7 263d e989 f43d eb6a 33be
000002b0: 6eb7 86be 4618 4cbf 440e c5be 2ebf 4dbd
000002c0: 7259 9d3e 10ff 25be 4fdb a4be a307 38be
000002d0: 2fbe 83be 4553 3fbe 4b90 efbd aa4e 2ebe
000002e0: 5e26 63be 0cb3 babe 6fa3 14bc 1249 463e
000002f0: b1de cfbe af8b b1bd ea0f df3d 1c24 393e
00000300: 1211 fb3e f6c5 92bc bbcb a1bf f2eb 47c0
00000310: 356b ebbf 98e1 17be 2a34 efbc 14b6 a33b
00000320: 3ce3 b33d b0a7 91bf 39ca 51b9 565c de3b
00000330: 8ff4 6cbf c49b f83f 9631 ff40 439c 94bd
00000340: 22d2 b13d d89f 46be 4310 63bf 4b4d e2bd
00000350: 980f 03bf 3888 efbc 6691 ea3d 297d 8bbe
00000360: 1b74 3abd 44dc 66bf 6406 5ebd 06dc f0be
00000370: 75b1 19bf 081b a13c cd9c f83d c342 adbe
00000380: 5b44 e43d b8ee 5b3e b6c8 aebd e719 4ebe
00000390: c58e 963d 3e18 7fbe 9e72 98be 1b83 e1bd
000003a0: ee2a 7fbe 35d1 15be 5f9d 8cbe 4d59 89bd
000003b0: 644e a3bc 22d1 a2be c759 14bf 8265 4a3e
000003c0: 6369 ff3b aa02 e43d 92f0 9bbb c976 b3bd
000003d0: 62d7 af3e ebbd 51be 449a 8abe d331 fcbd
000003e0: 246b ccbe f6bd afbd 1f71 ca3c ad2b 623d
000003f0: 83d0 053e 27c0 06bf 5b5f a2be 7ded b83d
