saved_models/deep_hedging_with_impact/recurrent_hedger_impact_bachelier.pth (torch, 200953 bytes, 330 tensors)

neural_networks.0.linear_relu_stack.0.weight f4 [16, 2]
0	0xbe156eab	-0.14592998
1	0x3f258b9c	0.6466615
2	0xbf2474bd	-0.6424063
3	0x3e048104	0.1293984
4	0x3caadf92	0.02085856
5	0x3dfb9e1d	0.12286017
6	0xbde07054	-0.10958925
7	0x3ec40479	0.38284662
8	0x3edf0411	0.4355779
9	0x3f28c63d	0.6592749
10	0xbf0a5ebf	-0.5405082
11	0xbea5cd8b	-0.3238338
12	0x3efc1138	0.49231887
13	0xbd9e3a7b	-0.07725998
14	0x3f18e17f	0.5971908
15	0x3e841937	0.25800487
16	0x3e8fa2a8	0.28053784
17	0x3e95dac3	0.29268464
18	0xbec2989a	-0.3800705
19	0xbe27af37	-0.16375433
20	0x3e74d181	0.23908044
21	0xbed1d503	-0.40982828
22	0x3f04c1d0	0.51858234
23	0x3ccce4a6	0.025011372
24	0xbf092603	-0.53573626
25	0x3e2fd2af	0.17170213
26	0xbf132540	-0.57478714
27	0xbe91beb3	-0.28465804
28	0xbf223a87	-0.63370556
29	0x3f00bdfe	0.50289905
30	0xbd9a0772	-0.07520951
31	0xbeee492c	-0.465402

neural_networks.0.linear_relu_stack.1.weight f4 [16]
0	0x3f7851fb	0.9700009
1	0x3f800000	1.0
2	0x3f800000	1.0
3	0x3f785182	0.9699937
4	0x3f800000	1.0
5	0x3f785515	0.97004825
6	0x3f7dff2d	0.9921749
7	0x3f800000	1.0
8	0x3f800000	1.0
9	0x3f800000	1.0
10	0x3f800000	1.0
11	0x3f811c05	1.0086676
12	0x3f83d7e8	1.0300264
13	0x3f800000	1.0
14	0x3f7ea205	0.9946597
15	0x3f7850d1	0.96998316

neural_networks.0.linear_relu_stack.1.bias f4 [16]
0	0xbcf5fc43	-0.030027514
1	0x00000000	0.0
2	0x00000000	0.0
3	0xbcf5fc43	-0.030027514
4	0x00000000	0.0
5	0xbcf5fc42	-0.030027512
6	0x3d51dc0c	0.051235244
7	0x00000000	0.0
8	0x00000000	0.0
9	0x00000000	0.0
10	0x00000000	0.0
11	0x3d0a789f	0.03380644
12	0xbcf5fc42	-0.030027512
13	0x00000000	0.0
14	0xbc89d68d	-0.016825939
15	0xbcf5fc42	-0.030027512

neural_networks.0.linear_relu_stack.1.running_mean f4 [16]
0	0xbf2c0a51	-0.6720324
1	0xc03d563c	-2.9583883
2	0x3dc4b9b8	0.096057355
3	0xbf013286	-0.5046772
4	0x400060e2	2.0059133
5	0xc01f4dfa	-2.4891343
6	0x401119fc	2.267211
7	0x403002b5	2.7501652
8	0x3fa55de2	1.2919276
9	0xbfe00944	-1.7502828
10	0x3f8cedde	1.1010091
11	0x4018d7a0	2.3881607
12	0xc01de5f6	-2.4671607
13	0xc0296848	-2.6469898
14	0xc03ac5e7	-2.918329
15	0xbeb1550e	-0.34635204

neural_networks.0.linear_relu_stack.1.running_var f4 [16]
0	0x29c8c8ce	8.916618e-14
1	0x2b109096	5.135973e-13
2	0x2904c4ca	2.9480575e-14
3	0x29808086	5.706637e-14
4	0x2d808086	1.4608991e-11
5	0x2d109096	8.217557e-12
6	0x00000004	6e-45
7	0x2b808086	9.130619e-13
8	0x2d713136	1.3710191e-11
9	0x2e233338	3.71074e-11
10	0x2d61e1e6	1.2839929e-11
11	0x2a808086	2.2826549e-13
12	0x2ddd5d62	2.5166261e-11
13	0x2c44c4ca	2.7962515e-12
14	0x2e88a8ae	6.2145275e-11
15	0x2a61e1e6	2.0062389e-13

neural_networks.0.linear_relu_stack.3.weight f4 [16, 16]
0	0x3e3f5394	0.18684226
1	0xbd6dfc08	-0.058101684
2	0x3e3c3c78	0.18382442
3	0x3e1addd8	0.15123689
4	0xbd1ed840	-0.03878045
5	0xbc324180	-0.010879874
6	0xbda9778b	-0.08274754
7	0x3d25a928	0.040444523
8	0x3e606dc8	0.21916878
9	0x3e0e612a	0.13904253
10	0xbe2f6322	-0.1712766
11	0x3e8d29f2	0.27571064
12	0x3e2f1150	0.17096448
13	0xbe7ea678	-0.2486819
14	0x3e8afc41	0.2714558
15	0xbe1d4628	-0.15358794
16	0x3e596d68	0.21233141
17	0xbd126e08	-0.035749465
18	0x3ddbcd38	0.10732502
19	0xbe14d5d0	-0.14534688
20	0xbe7377e8	-0.2377621
21	0x3df3b5d8	0.11899918
22	0x3d8cb040	0.068695545
23	0xbd10fc38	-0.035396785
24	0x3d5787e0	0.052619815
25	0x3da0d744	0.07853559
26	0x3df2015c	0.118166655
27	0xbe37b716	-0.17940935
28	0xbe3c5e6e	-0.18395397
29	0xbe7c1ffe	-0.24621579
30	0x3dcc0494	0.09961811
31	0x3e338016	0.1752933
32	0x3d996270	0.074894786
33	0x3e19a01e	0.15002486
34	0xbba6b780	-0.005087793
35	0x3e3581be	0.17725274
36	0x3e6db7b2	0.23214605
37	0x3e5ac958	0.21365869
38	0x3d51f5b8	0.051259726
39	0xbd7575a8	-0.05992666
40	0xbe522872	-0.20523241
41	0x3d00d288	0.03145078
42	0x3e7b09b4	0.2451542
43	0x3d76aa40	0.060220957
44	0x3e42e344	0.19032007
45	0xbddea4a4	-0.108712465
46	0xbe35226c	-0.17688912
47	0x3dbedc88	0.09319407
48	0xbc85d545	-0.016337046
49	0xbd765238	-0.060137004
50	0xbbce1e00	-0.0062901974
51	0x3e56de63	0.20983271
52	0x3e20d80a	0.15707412
53	0x3e501628	0.20320952
54	0x3cce32e7	0.025170757
55	0x3e58dc1c	0.21177715
56	0xbc6ea3c0	-0.014565408
57	0xbd2787a8	-0.040900856
58	0xbdb8efe8	-0.090301335
59	0xbe2be5bd	-0.16786857
60	0xbd819344	-0.06326917
61	0x3e2a2d78	0.16618907
62	0x3e6fef76	0.23431191
63	0xbe3ff434	-0.187455
64	0xbdfda95a	-0.12385817
65	0x3e431e36	0.19054493
66	0xbe2ad4d4	-0.1668275
67	0x3d44f34a	0.04808358
68	0xbdacde00	-0.08440781
69	0x3dace7d9	0.08442659
70	0x3d9f819a	0.077883914
71	0xbe6829a8	-0.2267214
72	0xbe7d6a26	-0.24747524
73	0xbc8b7c30	-0.01702699
74	0xbd33f250	-0.04393226
75	0xbdfd3ad7	-0.123647384
76	0x3e5577f7	0.20846544
77	0xbd4491e0	-0.04799068
78	0xbe121ed8	-0.14269578
79	0xbe28266a	-0.16420904
80	0xbc957f60	-0.018249214
81	0xbd056bb8	-0.03257343
82	0x3e4f4c84	0.20244032
83	0x3e2d7014	0.16937286
84	0x3e7e2538	0.24818885
85	0xbe5ebad0	-0.21750951
86	0xbe13a925	-0.14419992
87	0x3e6ab738	0.22921455
88	0xbe520eea	-0.20513502
89	0x3daffa48	0.08592659
90	0xbe148d20	-0.1450696
91	0x3e05eb16	0.1307796
92	0x3e7ea6d6	0.2486833
93	0xbdedff98	-0.11621016
94	0x3e24989d	0.16073842
95	0x3db9d878	0.09074491
96	0x3e64de62	0.22350457
97	0xbcedce10	-0.029028922
98	0xbe2156fa	-0.15755835
99	0xbdf8657c	-0.121287316
100	0x3d762c48	0.060100824
101	0xbd622c68	-0.05521813
102	0x3e63d180	0.22247887
103	0x3c6b8c40	0.0143767
104	0xbd379640	-0.044821024
105	0xbe533e06	-0.20629129
106	0x3e4aecc2	0.19816878
107	0xbe7b0737	-0.24514471
108	0xbe779d52	-0.24181107
109	0x3d79f4f0	0.061024606
110	0x3e5e5d64	0.21715313
111	0xbdbdb4b0	-0.09262979
112	0x3e3f2e66	0.18670043
113	0xbd87f22c	-0.066379875
114	0xbdc152f4	-0.0943965
115	0x3e237382	0.15962031
116	0x3e04f346	0.12983426
117	0x3d0e6089	0.03476003
118	0xbc12c90a	-0.008959064
119	0xbd29d100	-0.041459084
120	0x3e3362ea	0.17518201
121	0x3e3dcefa	0.18535987
122	0x3db1ac64	0.08675459
123	0xbd42cebf	-0.04756045
124	0xbe508e20	-0.20366716
125	0xbd5543f0	-0.052066743
126	0xbc108ab6	-0.008822134
127	0x3c71262a	0.014718572
128	0xbe513ea8	-0.20434058
129	0xbe073f6a	-0.13207784
130	0x3e19c5c6	0.15016851
131	0xbdcafe20	-0.09911752
132	0x3e346b04	0.17618948
133	0xbe55b418	-0.20869482
134	0x3e266f0b	0.16253297
135	0x3e198822	0.14993337
136	0x3e3d6d92	0.18498829
137	0x3e018b06	0.1265069
138	0x3e1935dc	0.14961952
139	0x3dbc602b	0.0919803
140	0x3c3a0320	0.011353284
141	0x3d38e0f0	0.045136392
142	0x3ded5ed1	0.115903504
143	0xbd16c350	-0.03680736
144	0x3dac2ad0	0.08406603
145	0x3e7373e2	0.23774675
146	0x3dfb7424	0.122780114
147	0x3e3081b8	0.17236984
148	0xbde4021c	-0.11133215
149	0x39827c00	0.0002488792
150	0xbdf5af94	-0.119963795
151	0x3d896fbc	0.06710765
152	0x3e40bc74	0.18821889
153	0xbe32b068	-0.17450106
154	0xbd107510	-0.03526789
155	0x3e2a162d	0.16610022
156	0xbdc278d4	-0.094957024
157	0xbdb606d8	-0.08888024
158	0xbdc5c5ad	-0.09656844
159	0x3d3f0bb0	0.046642005
160	0x3e1345f4	0.14382154
161	0xbe28f42a	-0.16499391
162	0x3ab68100	0.0013923943
163	0x3d88679c	0.06660387
164	0x3e04f4d4	0.1298402
165	0x3d414b48	0.047190934
166	0x3c84a4ea	0.016191918
167	0x3e14f282	0.14545634
168	0xbde60054	-0.11230531
169	0xbdd2abb4	-0.10286656
170	0xbe1a7df8	-0.15087116
171	0xbc6a0f70	-0.014285907
172	0xbd9a17f4	-0.075241
173	0xbe213832	-0.15744093
174	0x3cd26393	0.025682246
175	0x3e2f8b4a	0.17142978
176	0xbe2221b0	-0.15833163
177	0xbe6bdbfe	-0.23033139
178	0xbbcc4100	-0.0062333345
179	0x3d7e6678	0.06210944
180	0x3e1029d2	0.14078453
181	0xbe1fd080	-0.1560688
182	0x3dd3a341	0.103338726
183	0x3d7ec618	0.062200636
184	0xbc8861c0	-0.016648173
185	0xbcac9540	-0.021067262
186	0x3dafa744	0.08576825
187	0x3e58ca87	0.21171008
188	0xbd9623e8	-0.07331067
189	0xbe4aa382	-0.19788936
190	0x3e778500	0.24171829
191	0xbe06f8ca	-0.13180843
192	0x3abe3400	0.0014511347
193	0xbe423f66	-0.18969497
194	0x3e2e8f0e	0.17046759
195	0xbe61303a	-0.21991053
196	0xbd169100	-0.036759377
197	0xbcfb1a90	-0.030652314
198	0x3e1c1686	0.15242967
199	0x3c1a1120	0.009403497
200	0x3e26f104	0.16302878
201	0x3d02aea0	0.031904817
202	0x3da7052c	0.08155283
203	0x3d86349a	0.06553002
204	0x3e5c932a	0.21540514
205	0x3e15abc8	0.1461631
206	0xbd726075	-0.05917402
207	0xbd1f9130	-0.03895682
208	0x3e070db6	0.13188824
209	0xbdcfcbd0	-0.10146296
210	0x3e097a0a	0.1342546
211	0xbdff1836	-0.1245579
212	0x3d211140	0.03932309
213	0x3e807b84	0.25094235
214	0xbe436556	-0.19081625
215	0xbd8690d8	-0.065705955
216	0xbdc071a0	-0.09396672
217	0xbdfeb86c	-0.124375194
218	0xbc2e84a0	-0.010651737
219	0x3db7f3ab	0.08982023
220	0x3c1b75bc	0.009488519
221	0xbd44a638	-0.04801008
222	0xbd942ef7	-0.0723552
223	0x3e5c9170	0.21539855
224	0xbd9ea389	-0.077460356
225	0xbe5e58f2	-0.21713617
226	0xbdaeb88c	-0.08531293
227	0xbddc6c4e	-0.10762845
228	0x3e433de4	0.19066578
229	0x3d5daea2	0.05412162
230	0xbdc2f7cf	-0.09519922
231	0xbe764660	-0.24050283
232	0x3c8b4be0	0.017003953
233	0x3e6cd494	0.23127967
234	0x3e7c28c6	0.24624929
235	0xbe04994f	-0.12949108
236	0xbc9d3db0	-0.019194454
237	0x3dffe4e4	0.12494829
238	0xbdf0466c	-0.11732182
239	0x3dd6decf	0.10491716
240	0x3e43c992	0.19119862
241	0xbe24463c	-0.16042417
242	0x3da73efc	0.0816631
243	0x3e765340	0.24055195
244	0xbe12e30a	-0.14344421
245	0x3e55e020	0.20886278
246	0x3d7e0b58	0.062022537
247	0xbd8d9c7c	-0.06914613
248	0xbda95584	-0.08268264
249	0x3da8f204	0.08249286
250	0xbe38fb48	-0.18064606
251	0x3e227dde	0.15868327
252	0xbe77ea94	-0.24210578
253	0xbd40cf50	-0.04707271
254	0x3d4eb546	0.050465845
255	0xbe645618	-0.22298467

neural_networks.0.linear_relu_stack.4.weight f4 [16]
0	0x3f7c561b	0.98568887
1	0x3f822063	1.0166134
2	0x3f7c0d58	0.9845786
3	0x3f6d65af	0.9273328
4	0x3f83f253	1.0308326
5	0x3f835b69	1.0262271
6	0x3f855473	1.0416397
7	0x3f7a73ab	0.97832745
8	0x3f7c9996	0.98671854
9	0x3f776676	0.9664072
10	0x3f7d01bb	0.98830765
11	0x3f79af31	0.97532946
12	0x3f7dfbe5	0.99212486
13	0x3f83d467	1.0299195
14	0x3f7ea02a	0.9946314
15	0x3f7dcb93	0.99138755

neural_networks.0.linear_relu_stack.4.bias f4 [16]
0	0xbcdb03de	-0.026735242
1	0xbc2c1ba8	-0.010504641
2	0xbce3b135	-0.02779446
3	0xbc4b1c1e	-0.01239684
4	0xbc3dc146	-0.0115817245
5	0xbce3b125	-0.02779443
6	0xbc0d6d1d	-0.008631972
7	0xbc42640c	-0.011864673
8	0xbcdb03c8	-0.026735201
9	0xbbe4cd6e	-0.006982497
10	0xbcdb03de	-0.026735242
11	0xbcb03b93	-0.021512782
12	0xbc0c425b	-0.008560742
13	0xbcf5fc42	-0.030027512
14	0xbc3b550f	-0.011433854
15	0xbcdb03b3	-0.026735162

neural_networks.0.linear_relu_stack.4.running_mean f4 [16]
0	0x3ba7dfe8	0.0051231273
1	0xbb289610	-0.002572421
2	0x3b9921e2	0.0046732286
3	0xbb908f66	-0.0044116257
4	0xb9596df6	-0.00020735696
5	0xbb415358	-0.002949914
6	0x3b49ba06	0.0030781045
7	0xbb07f85c	-0.00207474
8	0x3c3bb2a6	0.011456167
9	0xba051d06	-0.0005077872
10	0x39b4c5c0	0.0003447961
11	0x3c4c9cba	0.012488538
12	0x3c247dfa	0.010039801
13	0xbbdc8eba	-0.0067308815
14	0xbc180502	-0.009278538
15	0x3c0c669c	0.008569386

neural_networks.0.linear_relu_stack.4.running_var f4 [16]
0	0x2444c4ca	4.2667412e-17
1	0x2429767a	3.6746387e-17
2	0x2529767a	1.4698555e-16
3	0x23c8c8ce	2.1769088e-17
4	0x1fcb5d62	8.612833e-20
5	0x24beb83c	8.271147e-17
6	0x1f909096	6.122557e-20
7	0x2329a9af	9.19744e-18
8	0x2644c4ca	6.826786e-16
9	0x20a1393e	2.731234e-19
10	0x1e109096	7.653196e-21
11	0x26531318	7.323121e-16
12	0x25109096	1.2538997e-16
13	0x26234d12	5.6656435e-16
14	0x2529a9af	1.4715904e-16
15	0x00000004	6e-45

neural_networks.0.linear_relu_stack.6.weight f4 [1, 16]
0	0x3dae97f2	0.08525075
1	0x3a42d115	0.00074316683
2	0x3d6a17cd	0.057151604
3	0xbe435e62	-0.19078973
4	0xbd83457d	-0.06409738
5	0x3d0b5532	0.034016795
6	0xbdbb49cc	-0.09144935
7	0xbde6d495	-0.112710156
8	0x3c008802	0.007844927
9	0xbd4f5af7	-0.05062386
10	0x3e0c59b0	0.13706088
11	0xbe1ea2f9	-0.15491857
12	0xbe31c3c5	-0.17359836
13	0x3d92280e	0.07136546
14	0xbc51817f	-0.012787222
15	0xba83899d	-0.0010035519

neural_networks.1.linear_relu_stack.0.weight f4 [16, 2]
0	0x406c4335	3.691602
1	0xc009452e	-2.1448474
2	0xbe56ea19	-0.20987739
3	0x3f93b9d2	1.1541083
4	0xb73a4faf	-1.1105017e-05
5	0xbff14c20	-1.8851357
6	0xbf5660ea	-0.8374163
7	0x3ffbe27e	1.9678495
8	0xbf37dab5	-0.71818095
9	0x3d253396	0.0403324
10	0x379e21ff	1.8850898e-05
11	0x40a6f606	5.217532
12	0xbe51251c	-0.20424312
13	0x3df8f002	0.12155153
14	0x401689f6	2.3521705
15	0x40639bed	3.556392
16	0xc0884b12	-4.259164
17	0xc053c5d2	-3.308949
18	0x40a8cbcf	5.274879
19	0x406b62d1	3.6779063
20	0xbf24fe2d	-0.6445034
21	0xbdc4be99	-0.09606666
22	0xbaf103d6	-0.0018387984
23	0x3e9928f5	0.2991406
24	0x361eb704	2.3650364e-06
25	0x3f8ecc3c	1.1156077
26	0x369c00f5	4.6492737e-06
27	0xbf5bdf3e	-0.85887516
28	0x3d4e35a4	0.050344124
29	0x3e97e1c5	0.29664436
30	0x4001bdc6	2.0272079
31	0xbfdadd97	-1.7098874

neural_networks.1.linear_relu_stack.1.weight f4 [16]
0	0x40619a6a	3.5250497
1	0x3eb87c5b	0.36032376
2	0xb7597200	-1.2960751e-05
3	0xbcefcce0	-0.029272497
4	0x3d85cac3	0.06532814
5	0x349e17a8	2.9447006e-07
6	0x3e89e409	0.2693179
7	0x3fa2a544	1.2706685
8	0x3fe942ef	1.8223552
9	0x40375826	2.8647552
10	0x3eb4fe9c	0.35350502
11	0x3f66c58b	0.90145177
12	0xb7bb47f3	-2.2325641e-05
13	0xb7385af6	-1.0988433e-05
14	0x3d3bde2d	0.04586618
15	0x409222f8	4.5667686

neural_networks.1.linear_relu_stack.1.bias f4 [16]
0	0xbf2c2056	-0.6723684
1	0xbfda341b	-1.7047151
2	0x3f93ad1a	1.1537201
3	0xbf3d514f	-0.7395219
4	0xbea767d4	-0.32696402
5	0x3fb6f9d1	1.4294988
6	0xbf614e10	-0.8800974
7	0x40167b24	2.351266
8	0x40acc627	5.3991885
9	0x40cd3fa6	6.4140196
10	0xbfedf530	-1.859045
11	0xbcf50abc	-0.029912345
12	0x40170151	2.3594553
13	0x408804df	4.2505946
14	0xbe8920e4	-0.26782906
15	0xbff5cdf9	-1.9203483

neural_networks.1.linear_relu_stack.1.running_mean f4 [16]
0	0x4180504f	16.039213
1	0xbecf4f36	-0.4049012
2	0xbf6b3ed0	-0.9189272
3	0xc039a972	-2.9009671
4	0xc0529dbd	-3.2908776
5	0x4022c4b7	2.5432565
6	0xbf61da0d	-0.88223344
7	0x4148c213	12.547381
8	0xc1aa2a0a	-21.270527
9	0x41d09454	26.072426
10	0xc041229e	-3.0177379
11	0x3e0ca1a6	0.13733539
12	0x3f0b3792	0.5438167
13	0xbed6557a	-0.41862088
14	0x3ec0d9cd	0.3766617
15	0x4107f1b4	8.49651

neural_networks.1.linear_relu_stack.1.running_var f4 [16]
0	0x3ab9248a	0.0014125269
1	0x369811d4	4.5320285e-06
2	0x2c6b8512	3.3469377e-12
3	0x38974ff2	7.215132e-05
4	0x385e94dc	5.306756e-05
5	0x2d9a1530	1.7517182e-11
6	0x369003b8	4.2919673e-06
7	0x3a147f63	0.0005664734
8	0x3af53218	0.0018706946
9	0x3b3b1a5e	0.0028549652
10	0x38334154	4.2737767e-05
11	0x2fbf3fce	3.4788034e-10
12	0x2b6bbd08	8.3751105e-13
13	0x2b7ce88b	8.9851103e-13
14	0x348c000b	2.6077063e-07
15	0x39dd1bac	0.00042173022

neural_networks.1.linear_relu_stack.3.weight f4 [16, 16]
0	0xbf044d59	-0.51680523
1	0xbec76d87	-0.3895075
2	0xbe79068b	-0.24318902
3	0x3d2fe6aa	0.042944588
4	0xbe1e46ce	-0.15456697
5	0xbefe0625	-0.49614063
6	0xbd98cd9f	-0.07461094
7	0xbe07b8c6	-0.13254079
8	0xbe920e2a	-0.2852643
9	0xbecb0459	-0.39651754
10	0x3db89113	0.09012046
11	0xbe5d3613	-0.21602659
12	0xbf537393	-0.8259823
13	0x3ca8e7a8	0.020618275
14	0x3d601b37	0.054713454
15	0xbf2c1d94	-0.6723263
16	0xbe82b474	-0.255283
17	0xbe5dd1a0	-0.21661997
18	0xbf005519	-0.5012985
19	0xbe0d6028	-0.13806212
20	0xbe937204	-0.28797925
21	0xbe6539f0	-0.22385383
22	0xbe315e1f	-0.1732106
23	0xbd5e473b	-0.05426715
24	0xbe30c81a	-0.17263833
25	0x3de1a22f	0.11017262
26	0xbe8054dc	-0.25064743
27	0xbe89715e	-0.26844305
28	0xbe04d2d8	-0.12971056
29	0xbf13131f	-0.5745105
30	0xba0600fc	-0.0005111841
31	0xbed3414b	-0.41260752
32	0xbf1a8140	-0.6035347
33	0xbeaa2fef	-0.33239695
34	0x3e114e5c	0.14190048
35	0xbe91309c	-0.283574
36	0xbd8585dd	-0.06519673
37	0xbdf951dc	-0.121738166
38	0xbe1a0b1f	-0.15043305
39	0xbeb922fe	-0.3615951
40	0xbe27b3f6	-0.16377243
41	0x3e1e3bcf	0.15452503
42	0x3cc762ba	0.024339069
43	0xbdb651d9	-0.0890233
44	0xbdef9335	-0.116979994
45	0xbd32b7a1	-0.043632153
46	0xbe48b855	-0.19601567
47	0xbea59ae2	-0.3234473
48	0xbee8b4cb	-0.45450434
49	0xbe959aa8	-0.29219556
50	0xbf153d3d	-0.5829657
51	0xbe4ce867	-0.2001053
52	0xbe9b5c2f	-0.30343768
53	0xbea5825f	-0.32326028
54	0xbe061fc4	-0.13098055
55	0xbe9d255b	-0.30692562
56	0xbe6a756b	-0.22896354
57	0xbeb15a57	-0.34639236
58	0xbe98ad33	-0.2981964
59	0xbdbe139d	-0.09281085
60	0xbdc0d535	-0.09415666
61	0xbe76f196	-0.24115595
62	0xbe9081eb	-0.2822412
63	0xbdb447d5	-0.088027634
64	0xbfd6d34a	-1.678323
65	0xbf4129f8	-0.75454664
66	0x3c9aa8a1	0.018879237
67	0xbed9c131	-0.42530206
68	0xbf0ef673	-0.558448
69	0x3e262def	0.1622846
70	0xbd2e6683	-0.04257823
71	0x4094e9c9	4.653538
72	0xc0bce8c9	-5.903416
73	0x413a6c45	11.651433
74	0xbf38b066	-0.7214416
75	0xbbc6c400	-0.0060658455
76	0xbdacea41	-0.08443118
77	0xbe217a7d	-0.15769382
78	0xbc79c51f	-0.015244751
79	0xbff24921	-1.8928567
80	0xc0511d47	-3.267412
81	0x3e91dfcc	0.28491056
82	0x3a65c551	0.0008765059
83	0xbe0c2b65	-0.13688429
84	0xbb9dd3e8	-0.004816521
85	0xbc832d6c	-0.01601287
86	0xbc8cad9b	-0.017172625
87	0xbf333f64	-0.700186
88	0x40e6bfb2	7.2109003
89	0xc0081f02	-2.1268926
90	0x3daea5f0	0.08527744
91	0x3e1a4e8d	0.15069027
92	0xbcb70487	-0.022341026
93	0xbc23e789	-0.010003933
94	0xbda8c1f2	-0.08240117
95	0xc09cc12a	-4.8985796
96	0xbe9a6a46	-0.30159205
97	0xbeff37d9	-0.49847296
98	0x3d836847	0.06416374
99	0xbf37fb7e	-0.7186812
100	0xbcb39f8b	-0.021926662
101	0x3e249861	0.16073753
102	0xbe051046	-0.12994489
103	0xbdaa3c7e	-0.08312319
104	0x3e848e7c	0.25889957
105	0xbdb3660f	-0.087597005
106	0xbf0a2bc9	-0.5397306
107	0x3e0ae8c7	0.1356536
108	0x3dc78671	0.097424395
109	0xbf3509ad	-0.7071789
110	0xbeab557a	-0.3346365
111	0xbe144232	-0.14478377
112	0xbe4945bf	-0.19655512
113	0xbf13ad8c	-0.57686687
114	0xbe810cfa	-0.25205213
115	0xbe71f765	-0.2362953
116	0xbe904cbc	-0.28183544
117	0xbceb4dae	-0.028723564
118	0xbe5d12fe	-0.21589276
119	0xbe652e9e	-0.22381064
120	0x3d81cefe	0.06338309
121	0xbe26c699	-0.16286696
122	0xbed2e6bd	-0.41191664
123	0x3d8b43dc	0.068000525
124	0xbe4ebfc0	-0.20190334
125	0xbeb24e2e	-0.3482527
126	0x3d8bc401	0.06824494
127	0xbe69bbdb	-0.22825567
128	0xbd01a1ba	-0.031648375
129	0xbe7a128f	-0.24421142
130	0x3db7b2d6	0.08969657
131	0x3e2b4a8c	0.16727656
132	0xbee394c1	-0.44449428
133	0xbf3adddc	-0.7299478
134	0x3e3bbbd4	0.1833337
135	0x3ec7a66b	0.38994154
136	0xbec1083d	-0.37701598
137	0x3f0fcb0f	0.5616922
138	0x3e529cf8	0.20567691
139	0x3e446228	0.19178069
140	0x3e1271a4	0.14301163
141	0xbebefe86	-0.3730356
142	0xbdaffc53	-0.08593049
143	0x3e35f11d	0.17767759
144	0x3e6c95a6	0.23103961
145	0xbe9717f8	-0.29510474
146	0xbd4f3b6d	-0.050593782
147	0xbdbc7c22	-0.09203364
148	0xbec46f11	-0.38365987
149	0xbe4a1a8e	-0.19736692
150	0xbe3a02b3	-0.18165092
151	0x3ef841be	0.48487657
152	0xbee6980e	-0.45037884
153	0x3e770b6a	0.24125448
154	0xbebd43d2	-0.36965805
155	0x3dd3ac29	0.10335571
156	0x3e0ed5f4	0.13948804
157	0xbf01748d	-0.5056847
158	0x3e40ae10	0.188164
159	0x3c052583	0.008126619
160	0x3d9168a6	0.07100038
161	0xbe66efdb	-0.22552435
162	0xbe947a73	-0.2899967
163	0xbe35c6c4	-0.17751604
164	0xbef74afa	-0.4829939
165	0x3e95b996	0.29243153
166	0xbedeb2e4	-0.43495858
167	0xbf17f437	-0.5935702
168	0x3e27bdb0	0.16380954
169	0xbed2c21b	-0.41163716
170	0xbe2e24fb	-0.17006294
171	0xbd9c1e05	-0.07622913
172	0xbe18f7d2	-0.14938286
173	0xbdfe95b6	-0.12430899
174	0xbeeb87fa	-0.4600218
175	0xbe932df4	-0.28745997
176	0xbc8f93df	-0.017526565
177	0xbf15a74c	-0.584584
178	0xbed10028	-0.40820432
179	0xbede1c10	-0.43380785
180	0xbe7b76e4	-0.24557072
181	0x3c08ed59	0.008357369
182	0xbef8f6ae	-0.48625702
183	0xbe4f8d8b	-0.20268838
184	0x3789cd54	1.6427286e-05
185	0xbe7b8222	-0.2456136
186	0xbf175fd0	-0.59130573
187	0xbeab73fe	-0.33486933
188	0x3d5089c2	0.050912626
189	0xbea495e3	-0.32145604
190	0xbe3353e7	-0.17512475
191	0xbe9f1362	-0.31069475
192	0xbd5ae84d	-0.053444196
193	0xbe5da3f8	-0.2164458
194	0xbe18cb21	-0.14921238
195	0xbdd58728	-0.1042617
196	0xbeeafbb9	-0.45895174
197	0xbe2e3146	-0.17010984
198	0xbd7c3165	-0.061570544
199	0xbe8234e2	-0.2543097
200	0xbd9c6a60	-0.07637477
201	0xbe054327	-0.13013898
202	0xbee3357a	-0.44376737
203	0x3e87b114	0.26502287
204	0xbec1c9e5	-0.37849346
205	0xbdcc7787	-0.099837355
206	0xbd838347	-0.064215235
207	0xbe897479	-0.26846674
208	0xbec55819	-0.38543776
209	0xbd404920	-0.046944737
210	0xbedec0e9	-0.43506554
211	0xbd33ee5f	-0.0439285
212	0xbeaec254	-0.34132636
213	0xbefc5d34	-0.49289858
214	0x3e35a657	0.17739235
215	0x3e1bc162	0.15210488
216	0xbe1fe023	-0.15612845
217	0xbe04cf44	-0.1296969
218	0xbdf4c5aa	-0.11951764
219	0x3d9ab980	0.075549126
220	0xbe675053	-0.22589235
221	0xbe99cb81	-0.30038074
222	0xbd0732f3	-0.033007573
223	0xbf014515	-0.50496036
224	0x3dd5bddc	0.104366034
225	0xbebefa2c	-0.3730024
226	0xbf069908	-0.5257726
227	0xbf05c3b3	-0.5225174
228	0xbdf0b2e7	-0.11752873
229	0xbdad4c90	-0.08461869
230	0x3dacf051	0.08444274
231	0x3e55f404	0.20893866
232	0xbe7c422d	-0.24634619
233	0x3e5f792e	0.2182357
234	0xbf002889	-0.5006185
235	0x3ceeb2a4	0.029137917
236	0x3e1a8d52	0.15092972
237	0xbed8f05d	-0.42370883
238	0xbe83973b	-0.25701317
239	0xbe87898a	-0.2647212
240	0xbe1834a6	-0.14863834
241	0xbf277a92	-0.654214
242	0xbf0da097	-0.55323166
243	0xbefa206e	-0.48852867
244	0xbef434e8	-0.47696614
245	0xbeb79e04	-0.35862744
246	0xbe6ec208	-0.23316205
247	0xbec7c3a1	-0.3901644
248	0xbde8a10e	-0.11358844
249	0x3e4b2c24	0.19841057
250	0xbebf77f8	-0.37396216
251	0x3e0778c9	0.1322967
252	0x3dc05307	0.09390836
253	0xbf74721e	-0.9548663
254	0xbea0bb7f	-0.31393048
255	0xbe778c7d	-0.24174686

neural_networks.1.linear_relu_stack.4.weight f4 [16]
0	0x3e29b06d	0.16571207
1	0x3ddfb04f	0.109223
2	0x3e5136b2	0.20431021
3	0x3e247231	0.16059186
4	0x3f087e8d	0.533181
5	0x3ee68e38	0.4503038
6	0x3dfd0c2e	0.12355839
7	0x3e8a199c	0.26972663
8	0xbcd496d2	-0.025950823
9	0x3e0cf2a6	0.13764438
10	0x3e1f9b1b	0.15586512
11	0x3da5511a	0.080721095
12	0x3e2e3cc1	0.17015363
13	0x3deaf5a6	0.11472635
14	0x3cdf76d1	0.027278336
15	0x3dea2875	0.11433498

neural_networks.1.linear_relu_stack.4.bias f4 [16]
0	0xbf10f156	-0.5661825
1	0xbeed368a	-0.46330673
2	0xbf7dffca	-0.9921843
3	0xbf2e29dd	-0.6803263
4	0xbec99222	-0.39369303
5	0x3d60e263	0.0549034
6	0xbf1a945b	-0.6038262
7	0xbf771fdd	-0.96532995
8	0xbf621976	-0.883201
9	0xbf4162e0	-0.75541496
10	0xbf248be2	-0.64275944
11	0xbf2a6562	-0.6656095
12	0xbf4265fb	-0.7593686
13	0xbee63278	-0.4496038
14	0xbf63af7c	-0.8893964
15	0xbf6aa2b1	-0.916545

neural_networks.1.linear_relu_stack.4.running_mean f4 [16]
0	0xc107cf57	-8.48812
1	0xc095f843	-4.6865554
2	0xc00ca793	-2.197728
3	0xc0e50105	-7.1563745
4	0x424711e3	49.767467
5	0x41702f1a	15.011499
6	0xc013c73e	-2.3090358
7	0xc07dce54	-3.9657183
8	0x3ee9b2ad	0.4564413
9	0xbfd0bf11	-1.6308309
10	0xc085993f	-4.174957
11	0xc082fb6c	-4.093191
12	0xc07a3157	-3.9092615
13	0xc0a8342b	-5.256368
14	0xbfe04a2b	-1.7522634
15	0xc0b4d01b	-5.6504035

neural_networks.1.linear_relu_stack.4.running_var f4 [16]
0	0x4105e07b	8.367305
1	0x3f4ed596	0.80794656
2	0x40110c90	2.2663918
3	0x40590d3f	3.3914335
4	0x44f25372	1938.6077
5	0x448c49bc	1122.3042
6	0x401c5019	2.4423888
7	0x401c1b0e	2.4391513
8	0x410cfd85	8.811894
9	0x40c13872	6.0381403
10	0x40cbfa04	6.3742695
11	0x400e3c4e	2.2224307
12	0x3f99e774	1.2023759
13	0x4024417a	2.5664964
14	0x3f9a577f	1.2057952
15	0x3e9bec40	0.30453682

neural_networks.1.linear_relu_stack.6.weight f4 [1, 16]
0	0x3ddc79b3	0.107654
1	0xbe190c63	-0.14946131
2	0x3e153db7	0.14574324
3	0xbd44dc0f	-0.048061427
4	0x3e20b4a1	0.15693904
5	0xbe69d5bb	-0.22835438
6	0xbdcdceb9	-0.10049195
7	0x3b89b7aa	0.0042028027
8	0x3e1c3478	0.1525439
9	0x3c916008	0.017745987
10	0xbd88a204	-0.06671527
11	0x3df168ba	0.11787553
12	0x3c91311e	0.017723616
13	0xbe203306	-0.15644464
14	0x3e0b0024	0.13574272
15	0xbce38f98	-0.027778432

neural_networks.2.linear_relu_stack.0.weight f4 [16, 2]
0	0x40e7d1a0	7.244339
1	0xbf6bb1fe	-0.9206847
2	0x41af69d1	21.926668
3	0xbf10a142	-0.5649606
4	0xc1887e8b	-17.061789
5	0x3d4afd41	0.049557928
6	0xc1b75a2a	-22.919025
7	0x3e8dcdc2	0.27696043
8	0xbee61bb0	-0.44943
9	0x3f35329d	0.70780355
10	0xc0b24dba	-5.571988
11	0x3f2bc96f	0.6710424
12	0xc1a1270c	-20.144066
13	0x3e99860a	0.29985076
14	0x3fe21081	1.7661287
15	0x3c9f9295	0.019479075
16	0x3da33bcc	0.0797039
17	0x3f47393c	0.7782171
18	0xbf41eb46	-0.75749624
19	0xbecc115e	-0.39857
20	0x3e10616b	0.14099662
21	0xbf856d20	-1.0423927
22	0x4109e575	8.61852
23	0xbae45467	-0.0017420173
24	0x3ded716d	0.115939
25	0xbf8285a8	-1.0197039
26	0x414bb404	12.731449
27	0x3f737680	0.9510269
28	0xc19804b9	-19.002306
29	0x3d561c3d	0.052273024
30	0xbea3b6e2	-0.31975466
31	0x3f021026	0.5080589

neural_networks.2.linear_relu_stack.1.weight f4 [16]
0	0x3dc9fbe4	0.098624974
1	0x404885c9	3.1331656
2	0x405562ab	3.3341472
3	0x402563ba	2.5842118
4	0x3db5e476	0.08881466
5	0x3e6138f5	0.21994384
6	0x402cb22c	2.6983747
7	0xbb047f77	-0.0020217577
8	0x3d6da1e2	0.05801571
9	0x3d5b90ef	0.053605016
10	0x3dd10523	0.10206058
11	0x3dab1290	0.0835315
12	0x3cfd74d4	0.030939497
13	0x3fdc587a	1.7214501
14	0x4057efc4	3.3740091
15	0xbcd7e86e	-0.026355948

neural_networks.2.linear_relu_stack.1.bias f4 [16]
0	0xbf0a4c6e	-0.5402287
1	0xbfb4b950	-1.4119053
2	0xbd86d6d0	-0.06583941
3	0x40a2676f	5.075126
4	0xbf1a7719	-0.6033798
5	0xbfae90c4	-1.3637929
6	0x41381197	11.504294
7	0xbed4f15a	-0.41590387
8	0xbedef26b	-0.43544325
9	0xbf21d406	-0.6321415
10	0xbf27c9c1	-0.6554223
11	0xbf2161a6	-0.63039625
12	0xbf20618f	-0.6264886
13	0x40770ded	3.860225
14	0xbd727844	-0.059196725
15	0xbf2ab66a	-0.6668459

neural_networks.2.linear_relu_stack.1.running_mean f4 [16]
0	0x4203b181	32.923344
1	0x42c98e1e	100.77757
2	0xc29d39ca	-78.61287
3	0xc2d30d6e	-105.52623
4	0xbfdac477	-1.7091206
5	0xc1cabc77	-25.342024
6	0xc2b96cc3	-92.712425
7	0x41026c99	8.151513
8	0x3f4423b6	0.7661699
9	0xc06c8d9a	-3.6961427
10	0x3ded477c	0.115859
11	0x421eea6d	39.72893
12	0x3c442c21	0.011973412
13	0x426cb653	59.17805
14	0xc2af2687	-87.57525
15	0xbf9b5a20	-1.2136879

neural_networks.2.linear_relu_stack.1.running_var f4 [16]
0	0x3bc812ff	0.00610578
1	0x3dbb6c54	0.09151521
2	0x3d825914	0.063646466
3	0x3dde9191	0.10867608
4	0x3acfb577	0.0015846927
5	0x3b719d3d	0.0036867403
6	0x3da905e0	0.08253074
7	0x3a4211a5	0.0007403142
8	0x3b21080b	0.0024571444
9	0x3a96f78f	0.001151787
10	0x3b8541ec	0.0040666964
11	0x3c8708e9	0.01648374
12	0x3b8074f1	0.0039201905
13	0x3d6404b0	0.055668533
14	0x3da1e2b1	0.07904566
15	0x3a566f26	0.00081800146

neural_networks.2.linear_relu_stack.3.weight f4 [16, 16]
0	0xbe2e8846	-0.17044172
1	0xbda383d9	-0.07984132
2	0xbea4a9e6	-0.32160872
3	0xbe406b59	-0.1879095
4	0x3cd4b6d1	0.02596608
5	0xbeade6e7	-0.33965227
6	0xbc9b2bef	-0.018941848
7	0xbd69d124	-0.057084218
8	0xbda0196d	-0.078173496
9	0xbe88850f	-0.26664016
10	0xbe4b204e	-0.19836542
11	0x3cdf4b70	0.027257651
12	0xbe3bf419	-0.18354835
13	0xbeb8c509	-0.36087826
14	0xbe3cc076	-0.18432793
15	0x3e918a91	0.2842603
16	0xbf0fb2d1	-0.5613223
17	0xbe937e5b	-0.2880734
18	0xbe32d3f4	-0.17463666
19	0xbe778f70	-0.24175811
20	0xbeb9f745	-0.36321464
21	0xbda08896	-0.07838552
22	0xbe7a0749	-0.24416842
23	0xbe9a83ce	-0.30178684
24	0x3d298f9e	0.04139673
25	0xbe7f0fda	-0.2490839
26	0x3e0bd25c	0.13654464
27	0xbeabb5b1	-0.33537057
28	0xbdb5d7a6	-0.08879022
29	0xbe815265	-0.25258175
30	0xbd9f14e2	-0.07767655
31	0xbec28974	-0.37995493
32	0xbdd88b8f	-0.10573494
33	0xbdd8e1fc	-0.10589978
34	0xbea21873	-0.31659278
35	0x3c21bcb8	0.009871654
36	0xbe6c4d20	-0.23076296
37	0xbe62704c	-0.2211315
38	0x3da67eba	0.0812964
39	0xbd84722b	-0.06467088
40	0xbe139b9a	-0.14414826
41	0xbd319d60	-0.043362975
42	0xbe4939e2	-0.19650987
43	0xbd269ef2	-0.040678926
44	0x3db60922	0.08888461
45	0x3d48ee2f	0.049055275
46	0xbe8db56e	-0.27677482
47	0xbc82805d	-0.015930349
48	0xbdab12bf	-0.08353185
49	0xc0837155	-4.1075845
50	0xbeb501b0	-0.3535285
51	0x40a0085e	5.0010214
52	0xbdaa98a1	-0.08329893
53	0x3d28dbdc	0.0412253
54	0x41481604	12.505375
55	0xbc939e23	-0.018019741
56	0xbcc0a102	-0.023514275
57	0xbb794b3f	-0.0038039235
58	0xbcb92a08	-0.02260305
59	0xbe8cc4a1	-0.27493766
60	0x3da5f976	0.081042215
61	0xc03d81a0	-2.9610367
62	0xbebd690d	-0.3699421
63	0x3d895bb8	0.06706947
64	0xbcac8d30	-0.021063417
65	0x3dedf163	0.116183065
66	0xbe868363	-0.26272115
67	0xbe260056	-0.16211066
68	0xbda62d79	-0.08114142
69	0xbe9531c0	-0.2913952
70	0xbd9062db	-0.07050105
71	0x3ce7257f	0.028216122
72	0xbcc00191	-0.023438247
73	0xbec63669	-0.38713387
74	0xbe610e33	-0.21978073
75	0x3dfd8fdb	0.12380954
76	0xbeb4ce77	-0.3531377
77	0x3e2a5510	0.16634011
78	0xbe569711	-0.20956065
79	0x3d99894e	0.07496892
80	0xbe2ee6a6	-0.17080173
81	0xbef72329	-0.48269013
82	0xbebb3c9a	-0.36569673
83	0xbefc20ed	-0.4924387
84	0x3d45ad19	0.048260782
85	0xbe307712	-0.17232922
86	0xbef27484	-0.4735452
87	0xbec67f70	-0.38769102
88	0xbd67746c	-0.056507513
89	0x3e4c9ac5	0.19980915
90	0x3de23f06	0.11047177
91	0xbe6f155b	-0.2334799
92	0xbd9bc0bd	-0.07605121
93	0xbe78c77a	-0.24294844
94	0xbe510cc5	-0.20415027
95	0x3e0b2ce0	0.13591337
96	0xbf1f1443	-0.6214029
97	0xbf3afd43	-0.73042697
98	0xbe3dc593	-0.185324
99	0x3d96b744	0.07359174
100	0xbd089028	-0.033340603
101	0xbe74b7a7	-0.23898183
102	0x3e4f7d8e	0.20262739
103	0xbe518df9	-0.20464315
104	0x3cfef71d	0.031123692
105	0x3c7e066d	0.015504462
106	0x3dca93a7	0.09891444
107	0xbeb36a17	-0.35041878
108	0xbda1805b	-0.0788581
109	0xbf40638f	-0.75151914
110	0x3c1805e1	0.009278745
111	0xbd467501	-0.048451427
112	0xbeffc989	-0.49958447
113	0xbfa27c27	-1.2694138
114	0xbdea26f5	-0.11433212
115	0xbe26945b	-0.1626753
116	0x3e82cc39	0.25546435
117	0x3d8817c2	0.066451564
118	0x3d6cad3f	0.057782408
119	0xbe35564c	-0.17708701
120	0xba5d9dd3	-0.00084539986
121	0xbe40b030	-0.1881721
122	0x3d903990	0.07042229
123	0xbedc432e	-0.43020004
124	0xbe817d47	-0.25290892
125	0xbf0a8444	-0.5410807
126	0x3eb01837	0.34393474
127	0x3cad16ef	0.0211291
128	0xbf047080	-0.5173416
129	0xbf211a9d	-0.62931234
130	0x3ce47286	0.02788664
131	0xbf08c4dc	-0.53425384
132	0xbd512be2	-0.05106724
133	0x3e081b54	0.13291675
134	0x3e9e65a7	0.3093693
135	0xbec4eb80	-0.38460922
136	0x3b67818a	0.0035325014
137	0xbea6b13d	-0.32557097
138	0xbe4fd06e	-0.20294353
139	0xbf064ca7	-0.5246071
140	0xbee8d2a1	-0.45473197
141	0xbf2f7e7c	-0.68552375
142	0xbd6e1d0f	-0.05813318
143	0xbca6ae9c	-0.020346932
144	0x3e235d13	0.15953474
145	0x3e1090a7	0.1411768
146	0x3dca0dab	0.09865888
147	0xbd7238d5	-0.05913623
148	0x3d8915b5	0.066935934
149	0xbe36e244	-0.17859751
150	0x3dac3b95	0.08409802
151	0x3e807e0b	0.25096163
152	0xbddd012b	-0.107912384
153	0xbe787bb0	-0.24265933
154	0xbe266bbd	-0.16252036
155	0x3dba0d96	0.090846226
156	0xbe917f9e	-0.28417677
157	0x3e4a00a2	0.19726804
158	0x3d755446	0.059894823
159	0x3e680d6c	0.2266137
160	0xbd20b8fb	-0.03923891
161	0xbe51b431	-0.20478894
162	0x3e928537	0.2861726
163	0x3d49a523	0.049229752
164	0xbc1dee9c	-0.009639408
165	0xbef53d4a	-0.47898322
166	0x3dbe94fa	0.09305759
167	0xbe7d601e	-0.24743697
168	0x3d6c0361	0.05762041
169	0xbeefc935	-0.46833196
170	0x3d885577	0.06656926
171	0xbeaee63a	-0.34160024
172	0xbe999438	-0.29995894
173	0xbf1a454d	-0.60261995
174	0xbd9b513d	-0.07583854
175	0x3d6e0d28	0.058118016
176	0xbf3a5813	-0.7279064
177	0xbf04e9fb	-0.51919526
178	0x3e4aeae6	0.19816169
179	0xbe32c2d7	-0.17457138
180	0xbe848526	-0.25882834
181	0xbdfc657d	-0.12324045
182	0x3db3f5e5	0.08787135
183	0xbeb6fc48	-0.3573935
184	0xbee575dd	-0.44816485
185	0xbf0cd020	-0.55005074
186	0x3def749d	0.11692164
187	0xbf106a59	-0.56412274
188	0xbe1ee12f	-0.15515588
189	0xbe9c530a	-0.30532104
190	0x3ae5749c	0.0017506066
191	0xbf4a7204	-0.79080224
192	0xbcaceca0	-0.021108925
193	0xbef70081	-0.48242572
194	0xc0878e91	-4.236153
195	0xbff5c990	-1.9202137
196	0x3d39feb3	0.045408916
197	0xbe8d27b8	-0.27569366
198	0xc140dec0	-12.054382
199	0x3d008d84	0.03138496
200	0x3a144a1c	0.0005656795
201	0x3c727347	0.014797992
202	0xbe04783e	-0.12936494
203	0x3ebd56f4	0.36980402
204	0xbe1080a5	-0.14111574
205	0x4083a945	4.114413
206	0xc0834a0e	-4.10279
207	0xbd2ab783	-0.041678917
208	0xbdfeb520	-0.124368906
209	0xbe202ef3	-0.1564291
210	0xbe592869	-0.21206822
211	0xbeffc9f2	-0.4995876
212	0xbe2046dc	-0.1565203
213	0xbed80c3b	-0.4219683
214	0x3e3e1dca	0.18566051
215	0xbdd894e7	-0.10575276
216	0x3e2c9077	0.16851984
217	0xbec27770	-0.3798175
218	0xbecd4aee	-0.4009623
219	0xbe91d690	-0.2848401
220	0xbed5840a	-0.417023
221	0xbe815037	-0.25256512
222	0xbee15476	-0.4400975
223	0x3d442583	0.047887336
224	0x3cbec74f	0.023288397
225	0xbe2672fe	-0.16254804
226	0xbea161ce	-0.31519932
227	0xbf189cb7	-0.5961413
228	0xbdf87cbd	-0.12133167
229	0xbe2d7b96	-0.16941676
230	0x3e07e62a	0.13271394
231	0x3d83b61c	0.06431219
232	0xbda82bc8	-0.082114756
233	0xbec7fab1	-0.3905845
234	0xbc9cd8e8	-0.019146398
235	0xbe41ede3	-0.18938403
236	0xbec17a98	-0.37788844
237	0xbe2570cc	-0.1615631
238	0xbe616e5f	-0.2201476
239	0x3c59b6ba	0.013288194
240	0xbe299ef1	-0.16564538
241	0xbcf299bf	-0.029614327
242	0xbf1b6222	-0.60696614
243	0xbe95a4bd	-0.29227248
244	0x3d9056a4	0.070477754
245	0xbe990730	-0.29888296
246	0xbd988165	-0.07446555
247	0x3e04aa93	0.12955694
248	0xbcc25fb1	-0.02372727
249	0xbed2f5a1	-0.41203025
250	0xbdd01c0b	-0.10161599
251	0xbd39c1d0	-0.04535085
252	0xbec9d5e9	-0.39421013
253	0xbedc6f20	-0.43053532
254	0xbf2fcf77	-0.6867594
255	0xbcfbfbf9	-0.030759798

neural_networks.2.linear_relu_stack.4.weight f4 [16]
0	0xbcdd159a	-0.02698784
1	0x3ea381fc	0.31935108
2	0x3e88cb18	0.26717448
3	0x3eb69a32	0.35664517
4	0x3e1b9a87	0.15195666
5	0x3ecfbb8c	0.40572774
6	0x3e3d0e2e	0.1846244
7	0x3cc1fa76	0.023679
8	0x3e72dad6	0.23716292
9	0x3bb4735a	0.005506915
10	0x3d264ab5	0.04059859
11	0x3c837ca8	0.016050652
12	0x3f21fa4e	0.6327256
13	0xbd4f5b6b	-0.050624292
14	0x3e14fd68	0.14549792
15	0x3e634164	0.22192913

neural_networks.2.linear_relu_stack.4.bias f4 [16]
0	0xbed16f68	-0.4090531
1	0xbf42b526	-0.7605766
2	0xbf1544eb	-0.58308285
3	0x3e7b2f7e	0.24529836
4	0xbf1a0e42	-0.60178006
5	0xbf48c476	-0.78424776
6	0xbf162c2e	-0.5866116
7	0xbe36815f	-0.17822789
8	0xbf127659	-0.57211834
9	0xbe8c22d3	-0.2737032
10	0xbedb9d1e	-0.42893308
11	0xbf568dd3	-0.83810157
12	0xbf1f38ed	-0.62196237
13	0xbf001583	-0.50032824
14	0xbe996afd	-0.29964438
15	0xbf32f96e	-0.6991185

neural_networks.2.linear_relu_stack.4.running_mean f4 [16]
0	0xc051d8dd	-3.2788613
1	0xc0b12fc8	-5.5370827
2	0x3eab251f	0.3342676
3	0x431a1cc3	154.11235
4	0xbfc3e2e0	-1.5303612
5	0xc11f5967	-9.959327
6	0xbf69567d	-0.91147596
7	0xc0335a26	-2.8023772
8	0xc01197f8	-2.2749004
9	0x3fdd2209	1.7276012
10	0xbf5f798c	-0.8729484
11	0xbf9309fc	-1.1487422
12	0xc30fd4e8	-143.83167
13	0xc015d6d4	-2.341237
14	0xc03c36d9	-2.9408476
15	0xc0b6b7ea	-5.7099504

neural_networks.2.linear_relu_stack.4.running_var f4 [16]
0	0x3f585a52	0.8451282
1	0x3f9f7ac7	1.2459344
2	0x3f7d769a	0.99009097
3	0x4539abfc	2970.749
4	0x40561d77	3.3455484
5	0x40f864b9	7.7622952
6	0x40d3cfcb	6.6191154
7	0x40c6b8b3	6.2100463
8	0x3ff72bcb	1.931024
9	0x3dc703df	0.09717535
10	0x40736294	3.8028917
11	0x3fb8fce7	1.445218
12	0x4556a323	3434.196
13	0x4014b5e9	2.323603
14	0x4047a082	3.1191716
15	0x40edd256	7.431926

neural_networks.2.linear_relu_stack.6.weight f4 [1, 16]
0	0xbd91d73b	-0.0712113
1	0x3d21ee31	0.039533798
2	0x3ddc18bd	0.10746906
3	0xbe887b4c	-0.26656568
4	0x3dbb48b1	0.09144724
5	0xbe146f01	-0.1449547
6	0xbe02419d	-0.12720342
7	0x3e0af9ba	0.13571826
8	0xbcedb55a	-0.02901714
9	0x3b8f4eed	0.0043734224
10	0xbe30222d	-0.17200537
11	0x3c355d10	0.011069551
12	0x3e29df4a	0.16589084
13	0xbe0389cf	-0.12845539
14	0xbb9f0886	-0.004853311
15	0xbde5e648	-0.11225563

neural_networks.3.linear_relu_stack.0.weight f4 [16, 2]
0	0xbe13a93b	-0.14420025
1	0x3e9d90c1	0.307745
2	0xbf0e273d	-0.5552862
3	0xbe2ba927	-0.16763745
4	0xbda855a1	-0.082194574
5	0xbf6641b0	-0.8994398
6	0xc1cf6f01	-25.929201
7	0x3ecc3fa3	0.398923
8	0xc1c47556	-24.557293
9	0x3e8f0405	0.27932754
10	0x41ed2132	29.641209
11	0x3ee631e4	0.4495994
12	0x41c52c20	24.646545
13	0xbe53164c	-0.20613974
14	0xbfaacc4c	-1.3343596
15	0x3e2b58a7	0.16733037
16	0x41de326a	27.774616
17	0xbe52ed98	-0.20598447
18	0x3ed63e88	0.41844583
19	0x3f82d53e	1.0221326
20	0x41c65019	24.78911
21	0xbe889477	-0.2667577
22	0x3ca1693b	0.019703498
23	0x3ead8d3b	0.33896813
24	0xc1a5f738	-20.745712
25	0x3e11bae3	0.14231448
26	0xc1bcc873	-23.597876
27	0x3f1fd785	0.6243823
28	0xbe590d37	-0.21196447
29	0x3f4f90c7	0.8108029
30	0xbd31f7f8	-0.043449372
31	0x3f35e8b2	0.7105819

neural_networks.3.linear_relu_stack.1.weight f4 [16]
0	0x3ce0eef3	0.02745769
1	0x3d267f15	0.04064854
2	0x3d1677c1	0.0367353
3	0x3fae65d3	1.3624824
4	0x3f82f34d	1.02305
5	0x3fe2d2b1	1.7720548
6	0x4001f201	2.0303957
7	0x3d420677	0.047369447
8	0x3ff81c30	1.9383602
9	0xbd31f1c0	-0.04344344
10	0x3fc5998e	1.5437486
11	0x3d88b75d	0.06675599
12	0xbcf9f0fd	-0.03051042
13	0x3fad3ef0	1.3534832
14	0x3d8b6198	0.06805724
15	0xbd15360f	-0.036428507

neural_networks.3.linear_relu_stack.1.bias f4 [16]
0	0xbec638cd	-0.3871521
1	0xbe814b2a	-0.25252658
2	0xbe957bc4	-0.29195988
3	0x40bc39c4	5.8820515
4	0x40988df7	4.7673297
5	0x4089b161	4.3029027
6	0x410f0cba	8.940607
7	0xbf2d535d	-0.6770533
8	0x41069a23	8.412631
9	0xbf179b65	-0.5922149
10	0x40df3699	6.9754148
11	0xbeb9e31c	-0.36306083
12	0x403f9eae	2.99406
13	0x40c10568	6.03191
14	0xbf01cd93	-0.50704306
15	0xbf4a9836	-0.79138505

neural_networks.3.linear_relu_stack.1.running_mean f4 [16]
0	0xbf03e4ae	-0.5152081
1	0xc0290436	-2.640882
2	0xbf50ceea	-0.81565726
3	0xc2eebbfa	-119.36714
4	0xc2e23b5a	-113.11592
5	0x4308dc0d	136.85957
6	0x42e3258e	113.57335
7	0xc0c236ba	-6.0691805
8	0x42fff8a8	127.98566
9	0x401b3525	2.4251187
10	0x42e46c97	114.21209
11	0x3e82c835	0.2554337
12	0xc2bf16a4	-95.54422
13	0xc2d91716	-108.54509
14	0xbf154fe5	-0.58325034
15	0x3e1449cd	0.14481278

neural_networks.3.linear_relu_stack.1.running_var f4 [16]
0	0x3a0f99ee	0.00054779544
1	0x3a0c24ed	0.00053460785
2	0x3bbd0533	0.005768442
3	0x3e51a3df	0.20472668
4	0x3e423db7	0.18968855
5	0x3eab135c	0.33413208
6	0x3e486562	0.19569924
7	0x39758097	0.00023412924
8	0x3e7ff929	0.24997391
9	0x3c08c4b8	0.008347683
10	0x3e473e67	0.19457398
11	0x3a542e5c	0.0008094066
12	0x3e0e6877	0.13907038
13	0x3e1ff8a7	0.15622197
14	0x3b86cabe	0.004113524
15	0x3b5f1d8e	0.0034044716

neural_networks.3.linear_relu_stack.3.weight f4 [16, 16]
0	0x3e0d978c	0.13827342
1	0xbe1434ee	-0.14473316
2	0xbe740e18	-0.23833501
3	0xbf19919d	-0.59987813
4	0xbea0422e	-0.3130049
5	0x3c93f472	0.018060897
6	0x3ddf35fb	0.10898968
7	0xbee72f50	-0.45153284
8	0x3cb601dd	0.022217685
9	0xbdc1696c	-0.09443936
10	0xbe077e7d	-0.13231845
11	0xbdb6c9c7	-0.08925205
12	0xbee5d95e	-0.448924
13	0xbcbadbae	-0.02280983
14	0xbe028147	-0.12744628
15	0xbdceb103	-0.10092356
16	0xbe6d1045	-0.23150738
17	0xbe02924c	-0.1275112
18	0xbbf39443	-0.0074334457
19	0xbefb0203	-0.49024972
20	0xbf21042d	-0.62896997
21	0xbd2f4952	-0.042794533
22	0x3dcb5b6f	0.09929549
23	0xbcbad26e	-0.022805419
24	0xbedde30b	-0.43337283
25	0xbe230abb	-0.15922062
26	0x3e6d42e7	0.23170052
27	0x3d78342d	0.060596634
28	0xbedb709a	-0.42859346
29	0xbeae44e8	-0.34036946
30	0xbd768d4a	-0.060193338
31	0xbdfb8cbe	-0.12282704
32	0xbdbbfe45	-0.091793574
33	0xbdece202	-0.11566545
34	0xbedf386b	-0.4359773
35	0x3d82d568	0.0638836
36	0xbdbbd9f7	-0.09172433
37	0xbe781c81	-0.24229623
38	0xbf03fdff	-0.5155944
39	0x3e4402aa	0.19141641
40	0xbe62018c	-0.22070903
41	0xbebf7ed3	-0.37401447
42	0xbe995b22	-0.2995234
43	0xbec4ae14	-0.3841406
44	0xbd4d5d8e	-0.05013805
45	0x3c3bb55f	0.011456816
46	0xbd1d75b6	-0.038442336
47	0xbd6154ce	-0.055012517
48	0xbf3f6ee6	-0.7477859
49	0xbf2022e8	-0.6255326
50	0xbf3ce71c	-0.73790145
51	0xbf06b094	-0.52613187
52	0xbeac6159	-0.3366802
53	0xbd3242bd	-0.043520678
54	0xbe75b550	-0.23994946
55	0xbe156679	-0.14589871
56	0x3d938ded	0.072048046
57	0xbe267211	-0.1625445
58	0xbde662c9	-0.112493105
59	0xb94920dc	-0.00019181095
60	0xbd159432	-0.036518283
61	0xbe30600c	-0.17224139
62	0x3e14bd72	0.14525393
63	0xbb099974	-0.0020996006
64	0xbe914e48	-0.28380036
65	0xbd5a8d5a	-0.05335746
66	0xbf3af8eb	-0.7303607
67	0xbf117a90	-0.5682764
68	0xbf12e723	-0.57383937
69	0xbe3ccf47	-0.18438445
70	0x3de39bce	0.11113702
71	0x3d90fc4b	0.07079371
72	0xbec88a55	-0.3916804
73	0xbeb9e34d	-0.3630623
74	0xbf02fc8d	-0.5116661
75	0xbede2a99	-0.43391874
76	0xbf10be39	-0.56540257
77	0xbf0fb651	-0.5613757
78	0x3b231fb4	0.0024890723
79	0xbee24b98	-0.44198298
80	0xbe4c36d6	-0.19942793
81	0xbecd11dc	-0.40052688
82	0xbed9b5ef	-0.42521617
83	0xbe6eea01	-0.23331453
84	0xbeb22fe4	-0.34802163
85	0xbe5e79bb	-0.21726124
86	0x3ea4bf10	0.3217702
87	0xbeb3c967	-0.35114595
88	0x3de88119	0.113527484
89	0x3e030ee2	0.12798646
90	0x3dcbc02d	0.09948764
91	0xbe53eff0	-0.20696998
92	0xbedde141	-0.43335918
93	0xbee417c9	-0.44549397
94	0x3d9037ed	0.07041917
95	0x3ddd31d0	0.108005166
96	0xbda957d6	-0.082687065
97	0x3da82824	0.08210781
98	0xbd9be83f	-0.07612657
99	0xbe88c797	-0.26714775
100	0xbf57c48f	-0.842843
101	0x3dcf499a	0.1012146
102	0xbca5048f	-0.020143775
103	0xbefb0227	-0.4902508
104	0xbd0c8f06	-0.034316085
105	0x3c843ab8	0.01614128
106	0xbebe4afe	-0.3716659
107	0xbd8ce04d	-0.068787195
108	0xbf3a28c4	-0.72718453
109	0xbd5acdd4	-0.05341895
110	0xbddae210	-0.10687649
111	0xbe2bff3b	-0.16796581
112	0xbdb90cda	-0.09035654
113	0xbd7c41a4	-0.061586037
114	0xbcd71487	-0.026254905
115	0x409a5e10	4.8239822
116	0x3fc4ca3c	1.5374217
117	0xc03b6427	-2.9279878
118	0xc0862ee6	-4.193225
119	0x3de58775	0.11207477
120	0xc0eac66b	-7.336721
121	0xbea57dbb	-0.32322487
122	0xbffb470e	-1.9631059
123	0xbd299149	-0.04139832
124	0xbd0dac76	-0.0345883
125	0x3feca936	1.8489139
126	0xbe29329f	-0.16523217
127	0xbe2e3665	-0.17012937
128	0xbd47cab6	-0.048777305
129	0xbe00cbd3	-0.12577753
130	0x3d407942	0.04699064
131	0xc09067de	-4.512679
132	0xbffd9f41	-1.9814225
133	0x3f4368a5	0.7633155
134	0x40ec8ed9	7.3924375
135	0xbd3db45a	-0.046314575
136	0x412b8416	10.719748
137	0xbd790ac6	-0.06080129
138	0x40a34cfd	5.103148
139	0x3b341c6a	0.0027482756
140	0xbe8b86c5	-0.27251258
141	0xc074aa5e	-3.8228984
142	0x3c2ac0c6	0.010421937
143	0x3e169177	0.14703928
144	0xbf1671cc	-0.5876739
145	0xbf2a05d8	-0.66415167
146	0xbe8714c6	-0.26383036
147	0x3dbc4b36	0.09194033
148	0x3dc3d26b	0.095616184
149	0xbeeae307	-0.45876333
150	0xbe547e53	-0.20751314
151	0xbed3c612	-0.41362053
152	0xbeb475a0	-0.3524599
153	0xbed2e4b9	-0.41190127
154	0xbf14535f	-0.57939714
155	0xbe066401	-0.13124086
156	0xbe5a20ad	-0.21301527
157	0x3e9bbd6e	0.3041796
158	0xbefffcad	-0.49997464
159	0xbe787e40	-0.2426691
160	0xbe541782	-0.20712093
161	0xbe957435	-0.2919022
162	0xbd018d90	-0.031629145
163	0xbb4e6dac	-0.0031498475
164	0x3b870b51	0.004121222
165	0xbf01a11b	-0.5063645
166	0xbe9f6692	-0.31132942
167	0xbd74c74c	-0.059760377
168	0x3d67ef0b	0.056624454
169	0x3cd5b56c	0.026087485
170	0xbe89c4ac	-0.2690786
171	0xbeaa5c33	-0.33273467
172	0x3bdc278c	0.0067185815
173	0xbe839ea6	-0.25706977
174	0xbb261fb8	-0.0025348496
175	0xbe40b536	-0.18819126
176	0xbed7776e	-0.42083305
177	0xbce64fcb	-0.02811422
178	0xbe1d3d3c	-0.1535539
179	0xbe46f64e	-0.19429895
180	0xbf108feb	-0.564696
181	0xbeb9b3a8	-0.3626988
182	0xbe95e392	-0.29275185
183	0xbe167f23	-0.14696936
184	0xbe5bc2f4	-0.21461087
185	0xbe9b7fc6	-0.3037092
186	0xbed2222d	-0.410417
187	0xbcd6344d	-0.026147986
188	0xbf3b1580	-0.7307968
189	0xbe83047f	-0.25589368
190	0xbe8d9175	-0.27650037
191	0xbeb9ec72	-0.36313206
192	0xbeb252fc	-0.34828937
193	0x3e164c60	0.14677572
194	0xbe4643f2	-0.19361857
195	0xbdedc7d5	-0.116103806
196	0xbf02af7d	-0.51049024
197	0x3d1a670b	0.037695926
198	0x3c9a3ec9	0.018828766
199	0xbeb41daa	-0.35178882
200	0x3e8750f1	0.2642894
201	0xbe3011c8	-0.17194283
202	0x3e319d65	0.17345197
203	0x3d2f9bca	0.04287318
204	0xbf4f9ad9	-0.81095654
205	0xbe10dd89	-0.14147009
206	0xbe0086b1	-0.1255138
207	0xbe63b7e4	-0.22238117
208	0xbe578359	-0.21046199
209	0xbdc41891	-0.09574998
210	0xbde56bb8	-0.11202186
211	0xbf0f0b1b	-0.5587632
212	0xbe53a86b	-0.20669715
213	0xbea1d206	-0.31605548
214	0xbe57ad56	-0.21062216
215	0x3e863bf6	0.26217622
216	0x3e857032	0.2606216
217	0xbd4dcafa	-0.0502424
218	0xbe54bbcd	-0.20774765
219	0xbcbe2357	-0.02321021
220	0xbea9e5c0	-0.33183098
221	0xbe718a6e	-0.23587963
222	0xbd8fee09	-0.070278235
223	0x3d090471	0.0334515
224	0xbf6fccad	-0.93671685
225	0xbe76f396	-0.24116358
226	0xbf36e44c	-0.71442103
227	0xbe527877	-0.20553766
228	0xbeedec51	-0.46469358
229	0xbea12e8b	-0.31480822
230	0x3d48061b	0.048833948
231	0xbee7bf2e	-0.45263046
232	0x3db4e4e9	0.08832724
233	0x3dfe6e42	0.12423374
234	0xbe800fa8	-0.25011945
235	0xbdf1af78	-0.11801046
236	0xbeefaff9	-0.46813944
237	0xbe49fb32	-0.1972473
238	0x3d906729	0.07050926
239	0x3e0cb55f	0.13741063
240	0xbe108d39	-0.14116372
241	0x3d819ad7	0.063283615
242	0xbe4dd23a	-0.20099726
243	0xbdfdb7da	-0.123885825
244	0xbea47f0f	-0.32128188
245	0xbf067037	-0.52514976
246	0xbeff7a04	-0.49897778
247	0xbcf3a2df	-0.029740749
248	0xbdfea9ce	-0.124347314
249	0xbe467dba	-0.19383898
250	0xbf0762c4	-0.5288508
251	0xbc84aa99	-0.016194629
252	0xbe23ee54	-0.16008884
253	0xbe6280e4	-0.2211948
254	0x3a288f5d	0.0006430054
255	0x3dfe5c7a	0.12419982

neural_networks.3.linear_relu_stack.4.weight f4 [16]
0	0x3dfb00eb	0.122560345
1	0x3e26ea4d	0.16300316
2	0x3db6cdd7	0.089259796
3	0x3da3d659	0.07999868
4	0x3d80dc7b	0.06292053
5	0x3d686e40	0.056745768
6	0x3d3e0d2c	0.04639928
7	0x3effe3e2	0.49978548
8	0x3ebb8ede	0.36632437
9	0x3dd1c027	0.10241728
10	0x3d90cb16	0.070699856
11	0x3d77b072	0.060471006
12	0x3d109711	0.03530032
13	0x3d13c1e6	0.036073588
14	0x3dcb55bd	0.09928463
15	0x3e0f93d0	0.1402123

neural_networks.3.linear_relu_stack.4.bias f4 [16]
0	0xbf175877	-0.5911936
1	0xbf7079bd	-0.9393576
2	0xbf4de531	-0.80427843
3	0xbf614a21	-0.88003737
4	0xbf28ec82	-0.6598588
5	0xbf77f258	-0.9685416
6	0xbf03b291	-0.51444346
7	0xbec3711f	-0.38172242
8	0x3e64ac10	0.22331262
9	0xbf5c2328	-0.85991144
10	0xbf3ff48e	-0.74982536
11	0xbf46b4b6	-0.77619493
12	0xbf7a8a0b	-0.97866887
13	0xbf32077e	-0.6954268
14	0xbf1c65f8	-0.6109309
15	0xbf4ea49d	-0.8071993

neural_networks.3.linear_relu_stack.4.running_mean f4 [16]
0	0xc0c5fbe3	-6.186998
1	0xc128b2fa	-10.543695
2	0xc11c0ab4	-9.752613
3	0xc105cd1b	-8.362575
4	0xc18ea728	-17.83162
5	0xc05b03e3	-3.4221122
6	0xc12b8340	-10.719543
7	0xc29d6cc4	-78.71243
8	0x43086870	136.40796
9	0xc10a8787	-8.658088
10	0xc0fcde21	-7.9021153
11	0xc18366e5	-16.425241
12	0xc0284966	-2.62948
13	0xc11317ef	-9.193343
14	0xc0fe1707	-7.940311
15	0xc178bd0b	-15.546153

neural_networks.3.linear_relu_stack.4.running_var f4 [16]
0	0x3fc887ec	1.566648
1	0x3ffaa0c5	1.9580313
2	0x40b49b20	5.643936
3	0x3ef53420	0.4789133
4	0x3e59093b	0.21194927
5	0x4069d564	3.6536493
6	0x3f1c6d82	0.61104596
7	0x44d85024	1730.5044
8	0x45556c9c	3414.788
9	0x413d41fd	11.82861
10	0x400d0814	2.203618
11	0x3f9e91e0	1.2388268
12	0x4041f727	3.03071
13	0x3e75042e	0.23927376
14	0x3dfa1601	0.12211228
15	0x409ba0fe	4.8634024

neural_networks.3.linear_relu_stack.6.weight f4 [1, 16]
0	0x3cb83ee4	0.022490926
1	0x3d544675	0.051825006
2	0xbe165029	-0.14679016
3	0x3de0dccc	0.10979614
4	0x3d0fa0d1	0.035065476
5	0x3d89d287	0.06729608
6	0x3c27c7cf	0.010240509
7	0xbe55d1fe	-0.20880887
8	0x3e82185c	0.2540921
9	0x3d9a9e28	0.07549697
10	0x3c2186d4	0.009858806
11	0x3d1612d8	0.036639065
12	0xbd3b88d3	-0.045784783
13	0x3da76dc9	0.08175237
14	0x3dfd14e3	0.123574995
15	0xbd61fe36	-0.055174075

neural_networks.4.linear_relu_stack.0.weight f4 [16, 2]
0	0xbf01fb0c	-0.5077369
1	0xbed7f916	-0.42182225
2	0x3e90e706	0.28301257
3	0xbec74231	-0.38917688
4	0xbfa18fc0	-1.2621994
5	0x3cbc07ca	0.022952933
6	0xc1e46ffd	-28.554682
7	0x3efd3e9e	0.49461836
8	0x41d8d27a	27.102772
9	0xbe121621	-0.14266254
10	0xbf38f741	-0.7225228
11	0xbf000967	-0.50014347
12	0xc1db0d48	-27.381485
13	0x3e76d25d	0.24103685
14	0xbdd51562	-0.10404469
15	0x3f5949ff	0.84878534
16	0x41ccd45e	25.603695
17	0x3e126224	0.1429525
18	0x3f457dc5	0.77145034
19	0x3f0837bc	0.53210044
20	0xbe2eb8f3	-0.1706274
21	0xbf42c068	-0.7607484
22	0x40950437	4.6567645
23	0x3e072c7c	0.13200563
24	0xc1d6ca6b	-26.848837
25	0x3ec90f8d	0.39269677
26	0xbf3f02a7	-0.7461342
27	0xbee58c7f	-0.44833753
28	0x3e92a181	0.28638843
29	0xbf283ac3	-0.65714663
30	0xc1a4e965	-20.613962
31	0x3f25713b	0.646259

neural_networks.4.linear_relu_stack.1.weight f4 [16]
0	0x3e061d92	0.13097218
1	0xbd5b9682	-0.053610332
2	0x3dc30cd6	0.09523933
3	0x400c624c	2.1934996
4	0x4028cce9	2.6375067
5	0x3de7f441	0.113258846
6	0x400ff7da	2.2495027
7	0x3d14899a	0.03626404
8	0x40200380	2.5002136
9	0x3e542097	0.20715557
10	0x3d633ad7	0.055476036
11	0x3dde4d3c	0.10854575
12	0x4000e165	2.013757
13	0x3d7811df	0.06056392
14	0x3d27fc5d	0.041012157
15	0x4020e871	2.514187

neural_networks.4.linear_relu_stack.1.bias f4 [16]
0	0xbf2cde38	-0.6752658
1	0xbf31c73f	-0.6944465
2	0xbf20e1ea	-0.6284472
3	0x41074483	8.4542265
4	0x40d4373d	6.631743
5	0xbf24b9e6	-0.6434616
6	0x40be28a2	5.94246
7	0xbe87d3ff	-0.26528928
8	0x4047e466	3.1233153
9	0xbf915a95	-1.1355768
10	0xbe9733ac	-0.2953161
11	0xbf1b556e	-0.6067723
12	0x40f2c713	7.586801
13	0xbecc5164	-0.39905846
14	0xbf0a40a9	-0.54004914
15	0x4034f56a	2.827479

neural_networks.4.linear_relu_stack.1.running_mean f4 [16]
0	0xc022f9f1	-2.5465052
1	0x3f8e9d9a	1.1141846
2	0xc0b9cefc	-5.8065166
3	0xc303558c	-131.33417
4	0x42f99f6a	124.811356
5	0xc064c964	-3.574792
6	0xc2fc1c0d	-126.05479
7	0xbd843cfd	-0.06456945
8	0x42ec41ce	118.128525
9	0x40743841	3.8159335
10	0xbf9446b5	-1.1584078
11	0x41ac3a72	21.528538
12	0xc2f70ba6	-123.52275
13	0xc06a2177	-3.6582925
14	0x3f7fac95	0.99872714
15	0xc2bd70d4	-94.72037

neural_networks.4.linear_relu_stack.1.running_var f4 [16]
0	0x3b1d1f8a	0.0023975098
1	0x3a7c4cbe	0.00096244726
2	0x3a2563c6	0.0006309118
3	0x3ea5f582	0.3241387
4	0x3ea45978	0.3209951
5	0x3b6f5dc8	0.0036524404
6	0x3ea3319e	0.31873792
7	0x3bc20182	0.00592059
8	0x3e9f9795	0.31170335
9	0x3b87b268	0.0041411407
10	0x3bb2fa68	0.0054619797
11	0x3c4784ca	0.0121776555
12	0x3e95dda1	0.29270652
13	0x3b4e7ca9	0.0031507409
14	0x3b4c1488	0.0031140167
15	0x3e1b523e	0.15168092
