saved_models/deep_hedging_with_impact/simple_hedger_impact_bachelier.pth (torch, 199033 bytes, 330 tensors)

neural_networks.0.linear_relu_stack.0.weight f4 [16, 1]
0	0xbe92a5e1	-0.2864218
1	0x3eda8510	0.42679644
2	0x3e13d540	0.14436817
3	0xbf0644a2	-0.52448475
4	0x3dd13859	0.102158256
5	0x3f530822	0.82434285
6	0x3e6a6d20	0.2289319
7	0xbec4f87b	-0.38470826
8	0xbf14b598	-0.5808959
9	0xbcb5d4c0	-0.022196174
10	0x3e950c75	0.29111066
11	0xbeb07a48	-0.34468293
12	0x3e0cf328	0.13764632
13	0xbf2fd172	-0.68678963
14	0x3f2233e8	0.6336045
15	0xbf462598	-0.77401114

neural_networks.0.linear_relu_stack.1.weight f4 [16]
0	0x3f8150a5	1.0102736
1	0x3f800000	1.0
2	0x3f800000	1.0
3	0x3f7fd4e1	0.999342
4	0x3f7fff25	0.99998695
5	0x3f800000	1.0
6	0x3f800000	1.0
7	0x3f7fc47d	0.9990919
8	0x3f800000	1.0
9	0x3f800000	1.0
10	0x3f7ff80f	0.9998788
11	0x3f7ffa0b	0.9999091
12	0x3f800000	1.0
13	0x3f800000	1.0
14	0x3f800f34	1.000464
15	0x3f800000	1.0

neural_networks.0.linear_relu_stack.1.bias f4 [16]
0	0xbc779565	-0.015111302
1	0x00000000	0.0
2	0x00000000	0.0
3	0xbcf31bf8	-0.029676422
4	0xbce9455c	-0.028475456
5	0x00000000	0.0
6	0x00000000	0.0
7	0xbc9dfc2a	-0.01928528
8	0x00000000	0.0
9	0x00000000	0.0
10	0xbcd8afb6	-0.026450973
11	0xbcf1fe3d	-0.029540176
12	0x00000000	0.0
13	0x00000000	0.0
14	0xbcf3a86c	-0.029743396
15	0x00000000	0.0

neural_networks.0.linear_relu_stack.1.running_mean f4 [16]
0	0xbfa8d5bb	-1.3190225
1	0x3ffb94ba	1.9654763
2	0x3f2a32fa	0.66484034
3	0xc01a94fa	-2.4153428
4	0x3ef0dfce	0.4704575
5	0x4072f5bc	3.7962484
6	0x3f86f25c	1.0542712
7	0xbfe2c53e	-1.7716444
8	0xc02b3514	-2.6751146
9	0xbdd15710	-0.10221684
10	0x3fab9914	1.3406091
11	0xbfcb2d48	-1.5873194
12	0x3f224648	0.6338849
13	0xc04a6afc	-3.1627798
14	0x403abe0e	2.91785
15	0xc0641ffc	-3.5644522

neural_networks.0.linear_relu_stack.1.running_var f4 [16]
0	0x2b109096	5.135973e-13
1	0x2e44c4ca	4.4740024e-11
2	0x2ac8c8ce	3.5666473e-13
3	0x2ca2a2a8	4.6223754e-12
4	0x2bc8c8ce	1.4266589e-12
5	0x2ee8080d	1.05515686e-10
6	0x2c109096	2.0543892e-12
7	0x2d29a9af	9.644215e-12
8	0x2eabcbd1	7.812385e-11
9	0x29bedee4	8.4763603e-14
10	0x2dbedee4	2.1699482e-11
11	0x2d61e1e6	1.2839929e-11
12	0x2a44c4ca	1.7476572e-13
13	0x2ca2a2a8	4.6223754e-12
14	0x2e109096	3.2870227e-11
15	0x00000004	6e-45

neural_networks.0.linear_relu_stack.3.weight f4 [16, 16]
0	0x3dcb0304	0.099126846
1	0x3d2d6a48	0.042337686
2	0x3df55610	0.11979306
3	0xbb720c80	-0.003693372
4	0xbc64cb80	-0.013964534
5	0x3e242144	0.16028315
6	0x3e58b8ba	0.21164218
7	0x3e52b409	0.2057649
8	0x3e0a93e4	0.13532978
9	0x3e52a254	0.20569736
10	0x3e397525	0.18111093
11	0xbe2d7c60	-0.16941977
12	0x3d8678d0	0.06566012
13	0xbe52da94	-0.20591193
14	0xbdea2a38	-0.11433834
15	0xbd930280	-0.07178211
16	0x3e51de98	0.20495069
17	0xbe75a3e8	-0.23988307
18	0x3e53c4b4	0.20680505
19	0x3e7a7e68	0.24462283
20	0xbd447888	-0.04796651
21	0x3da5c178	0.08093542
22	0xbe46973a	-0.19393626
23	0x3ddd6771	0.108107455
24	0x3e435aae	0.1907756
25	0xbd0496d8	-0.03237042
26	0x3e014673	0.1262453
27	0x3d797e50	0.060911477
28	0x3dd909d8	0.10597581
29	0x3d576bc8	0.052593023
30	0x3e227cfd	0.15867992
31	0x3d6354f0	0.055500925
32	0xbd8a2b41	-0.06746531
33	0xbe0fbbbc	-0.14036459
34	0x3e73cc3e	0.23808381
35	0xbc558d5b	-0.01303419
36	0x3e318c69	0.17338718
37	0x3d56b900	0.052422523
38	0x3e4766c0	0.1947279
39	0xbceeef60	-0.029166877
40	0x3e7d25b4	0.24721414
41	0x3e491ea0	0.19640589
42	0xbe11661c	-0.14199108
43	0xbe7f8eba	-0.2495679
44	0x3e010b64	0.12602001
45	0xbd5b7398	-0.053577036
46	0xbe40d853	-0.18832521
47	0x3d4ec188	0.050477535
48	0xbe06d4d4	-0.13167125
49	0x3e5adce2	0.21373323
50	0x3e2a5dc4	0.16637331
51	0xbdfbd22e	-0.12295948
52	0x3dd048f8	0.10170168
53	0x3df1e454	0.11811128
54	0xbd9ca59c	-0.07648775
55	0xbe2f7712	-0.17135265
56	0xbe435db2	-0.1907871
57	0xbe668f3a	-0.22515574
58	0xbe7f2f46	-0.24920377
59	0x3d0212dc	0.031756267
60	0x3e729a8a	0.23691764
61	0xbe0f4c58	-0.13993967
62	0xbc55416a	-0.013016084
63	0x3e4e1454	0.20124942
64	0x3d839aa8	0.06425983
65	0xbdf25ee4	-0.11834505
66	0x3d2917d8	0.041282505
67	0x3e7b0c30	0.24516368
68	0x3b74bf80	0.0037345588
69	0x3e6e9bba	0.23301592
70	0xbe0a3aa0	-0.13498926
71	0xbe5166aa	-0.2044932
72	0xbe502090	-0.20324922
73	0xbe11ede8	-0.1425091
74	0xbde6d555	-0.112711586
75	0xbe4f1d3e	-0.20225999
76	0xbdd3e094	-0.10345569
77	0xbca97ec0	-0.020690322
78	0xbe1914cc	-0.1494934
79	0xbdd142d0	-0.102178216
80	0xbd0248dd	-0.03180777
81	0x3e26110c	0.1621744
82	0xbc1cea80	-0.0095773935
83	0xbe27d176	-0.16388497
84	0xbe4ba225	-0.19886072
85	0x3d704ed0	0.05866891
86	0x3e09f646	0.13472852
87	0xbe464e31	-0.19365765
88	0x3e78b15c	0.24286407
89	0x3b411800	0.0029463768
90	0x3e0a2ac9	0.13492884
91	0x3e562642	0.20913032
92	0x3d3980f0	0.04528898
93	0x3e16d45e	0.14729449
94	0x3dc3b8dd	0.09556744
95	0x3e438c3e	0.19096467
96	0xbdb3f699	-0.08787269
97	0x3db780f0	0.0896014
98	0xbe32a5ba	-0.17446032
99	0x3c8e9b0f	0.017407922
100	0xbdce9d58	-0.10088605
101	0xbe0d7f5a	-0.13818112
102	0x3d909fc0	0.0706172
103	0xbe3f02d4	-0.18653423
104	0x3e4ef8d4	0.20212108
105	0xbe6b8eaa	-0.23003641
106	0xbd90ffb5	-0.07080022
107	0x3e1523cf	0.14564441
108	0xbe6cea40	-0.23136234
109	0x3d060948	0.032723695
110	0x3de13e97	0.10998266
111	0xbe7014ae	-0.23445389
112	0xbe80d872	-0.25165135
113	0xbcfb8bc0	-0.030706286
114	0x3e08c8ba	0.13357821
115	0xbd9b02a5	-0.07568864
116	0x3e7f7083	0.24945264
117	0x3d2f3a68	0.04278031
118	0xbcfd5870	-0.03092596
119	0x3e384cb2	0.17998007
120	0xbe7ff9f2	-0.2499769
121	0x3e7c0cb4	0.24614221
122	0xbe49663d	-0.19667907
123	0x3d8a4c83	0.06752875
124	0x3e30cc5a	0.17265454
125	0xbe7537b0	-0.23947024
126	0x3e7abdc9	0.2448646
127	0xbdfbc6a4	-0.12293747
128	0xbe43ff4d	-0.19140358
129	0x3e385c02	0.18003848
130	0x3e46d2c4	0.19416338
131	0x3dc03f62	0.09387089
132	0xbc63aec0	-0.013896644
133	0xbcb2a630	-0.02180776
134	0xbc852aa0	-0.016255677
135	0x3dc3b187	0.09555345
136	0xbd1c6748	-0.038184434
137	0xbe327480	-0.17427254
138	0x3d98401c	0.07434103
139	0xbe5a2c40	-0.21305943
140	0xbe1feec8	-0.15618432
141	0x3dbb22c8	0.09137493
142	0x3e65ed7f	0.22453879
143	0x3e4dcade	0.20096919
144	0x3e17714a	0.1478931
145	0xbe51a758	-0.20473993
146	0xbe50342e	-0.20332405
147	0xbe4c6794	-0.19961387
148	0xbc8bfbd0	-0.017087847
149	0xbdc7d5a4	-0.097575456
150	0xbdddef28	-0.10836631
151	0xbe136ddd	-0.14397378
152	0x3e7a9cc2	0.24473861
153	0x3d82bd70	0.063837886
154	0xbe08a54e	-0.13344309
155	0x3de46590	0.11152184
156	0xbe0a08f8	-0.13479984
157	0xbe25cb72	-0.1619089
158	0xbdd7a388	-0.10529238
159	0xbdbae994	-0.09126583
160	0x3e62ba36	0.22141346
161	0x3e0b68e6	0.13614234
162	0x3e3db60a	0.18526474
163	0xbd9d8f7d	-0.07693384
164	0xbce4e369	-0.027940469
165	0x3d96bbf0	0.07360065
166	0x3dc27230	0.09494436
167	0x3e4db6f1	0.20089318
168	0xbe05a914	-0.1305278
169	0xbe05341a	-0.13008156
170	0xbd7133fa	-0.05888746
171	0x3d4b1b9e	0.049586885
172	0xbdfa1708	-0.12211424
173	0xbd60e6b8	-0.05490753
174	0xbc11a850	-0.0088902265
175	0xbe75ece4	-0.24016148
176	0xbe272f7d	-0.16326709
177	0x3e717d3a	0.23582926
178	0xbe4528b2	-0.19253805
179	0xbdbd9610	-0.09257138
180	0xbe2c98ea	-0.16855207
181	0x3db97cd4	0.09057012
182	0xbe196b44	-0.14982325
183	0xbc3346f4	-0.0109422095
184	0xbe37ba1a	-0.17942086
185	0xbe396e88	-0.1810857
186	0xbe2ed71d	-0.17074247
187	0x3e5f7be6	0.21824607
188	0x3e3b52ee	0.18293354
189	0xbd843868	-0.06456071
190	0x3e39d2b2	0.1814678
191	0x3ca338f0	0.01992461
192	0x3e490523	0.19630866
193	0xbe7e4b4a	-0.24833408
194	0x3e01cdb0	0.1267612
195	0x3e7438df	0.2384982
196	0xbe5d9220	-0.21637774
197	0x3d1c9e68	0.038237005
198	0xbe4bd8c8	-0.19906914
199	0xbe709f3b	-0.23498242
200	0xbe4a6798	-0.1976608
201	0xbdb29614	-0.087200314
202	0xbdeaf578	-0.11472601
203	0x3e76db0b	0.24106996
204	0x3e79ba00	0.2438736
205	0x3e184d24	0.14873177
206	0x3dee9082	0.116486564
207	0x3d9634dc	0.07334301
208	0x3e18ac8d	0.14909573
209	0xbdfbcb9c	-0.12294695
210	0x3e6a1d8c	0.22862834
211	0x3e32382b	0.17404239
212	0x3deb76e3	0.11497285
213	0x3cb9cd40	0.022680879
214	0xbdcf1774	-0.10111895
215	0xbe3ab7a8	-0.18234122
216	0x3e129442	0.14314368
217	0xbd6d5178	-0.057939023
218	0x3da7c9dc	0.081927985
219	0x3e1c6353	0.15272264
220	0x3dd5cfdc	0.10440037
221	0xbe63b628	-0.22237456
222	0x3d23a45e	0.039951675
223	0x3deb6db8	0.114955366
224	0xbe024062	-0.12719873
225	0x3d86e848	0.06587273
226	0x3e27c940	0.16385365
227	0xbe15cc80	-0.14628792
228	0xbe74003a	-0.23828211
229	0x3e3e304c	0.18573111
230	0xbe4d8b98	-0.20072782
231	0xbe1e6e15	-0.1547168
232	0xbb3d8f00	-0.0028924346
233	0x3d8ddd40	0.06926966
234	0xbd17e725	-0.03708567
235	0x3d6af56e	0.057362966
236	0x3e7a9e78	0.24474514
237	0x3e1f0e7c	0.15532869
238	0xbe1d36d9	-0.15352954
239	0xbe105398	-0.14094388
240	0xbd9c7f6d	-0.07641492
241	0xbe5ab8dc	-0.21359581
242	0x3e024fb0	0.12725711
243	0xbe342ae2	-0.17594483
244	0xbc417240	-0.0118070245
245	0xbda4c69c	-0.08045694
246	0xbafcca00	-0.0019286275
247	0xbe42150e	-0.18953344
248	0x3d89bfd0	0.067260385
249	0xbe278ec8	-0.1636306
250	0xbe332a45	-0.17496593
251	0xbd9bc0ac	-0.076051086
252	0x3c1409e0	0.0090355575
253	0xbe3e9dd2	-0.18614891
254	0x3e6a4a11	0.22879817
255	0x3e1201b0	0.14258456

neural_networks.0.linear_relu_stack.4.weight f4 [16]
0	0x3f7d9da6	0.9906868
1	0x3f7d6b05	0.98991424
2	0x3f7e0394	0.9922421
3	0x3f7a4522	0.9776174
4	0x3f800000	1.0
5	0x3f7ecdd2	0.99532807
6	0x3f80402e	1.0019586
7	0x3f84aaa1	1.0364572
8	0x3f7b68ce	0.98206794
9	0x3f7b20d4	0.98096967
10	0x3f7bcf2a	0.9836298
11	0x3f7c84df	0.98640245
12	0x3f81a639	1.0128852
13	0x3f80320e	1.0015275
14	0x3f7ca9c7	0.9869656
15	0x3f7e0776	0.99230134

neural_networks.0.linear_relu_stack.4.bias f4 [16]
0	0xbce3b130	-0.02779445
1	0xbcdb03a3	-0.026735133
2	0xbcf5fc1f	-0.030027447
3	0xbcf5fc40	-0.030027509
4	0xbce3b12f	-0.027794449
5	0xbcf5fc3b	-0.0300275
6	0xbcb4ab9b	-0.022054484
7	0xbcb4ec75	-0.022085408
8	0xbcf5fc3b	-0.0300275
9	0xbcd1f8f0	-0.025631398
10	0xbcf5fc40	-0.030027509
11	0xb6d5d9bb	-6.373242e-06
12	0xbcb47c6e	-0.022031989
13	0xbcabee92	-0.020987783
14	0xbcb54c0f	-0.022130994
15	0xbcdb03cc	-0.026735209

neural_networks.0.linear_relu_stack.4.running_mean f4 [16]
0	0x00000004	6e-45
1	0x00000004	6e-45
2	0x80000004	-6e-45
3	0x80000004	-6e-45
4	0x80000004	-6e-45
5	0x00000004	6e-45
6	0x80000004	-6e-45
7	0x80000004	-6e-45
8	0x00000004	6e-45
9	0x80000004	-6e-45
10	0x80000004	-6e-45
11	0x80000004	-6e-45
12	0x80000004	-6e-45
13	0x00000004	6e-45
14	0x80000004	-6e-45
15	0x80000004	-6e-45

neural_networks.0.linear_relu_stack.4.running_var f4 [16]
0	0x00000004	6e-45
1	0x00000004	6e-45
2	0x00000004	6e-45
3	0x00000004	6e-45
4	0x00000004	6e-45
5	0x00000004	6e-45
6	0x00000004	6e-45
7	0x00000004	6e-45
8	0x00000004	6e-45
9	0x00000004	6e-45
10	0x00000004	6e-45
11	0x00000004	6e-45
12	0x00000004	6e-45
13	0x00000004	6e-45
14	0x00000004	6e-45
15	0x00000004	6e-45

neural_networks.0.linear_relu_stack.6.weight f4 [1, 16]
0	0xbe1979bf	-0.14987849
1	0x3d8d9a98	0.06914252
2	0x3b1c950b	0.0023892547
3	0x3e4bc7e5	0.19900472
4	0xbdf6bb66	-0.12047462
5	0x3e207209	0.15668501
6	0xbe1ccf62	-0.15313485
7	0xbe53221c	-0.2061848
8	0x3de5169b	0.11185952
9	0xbe164fa9	-0.14678825
10	0x3e21c1ab	0.15796535
11	0xb65f82dd	-3.3305762e-06
12	0xbe2fd3a0	-0.17170572
13	0xbb6af7dc	-0.0035853302
14	0xbdb92e53	-0.09042039
15	0x3e514097	0.20434795

neural_networks.1.linear_relu_stack.0.weight f4 [16, 1]
0	0xbf504db2	-0.81368554
1	0x40b6006c	5.6875515
2	0x3ff8e98c	1.9446273
3	0x3f869f74	1.0517411
4	0xbb78be28	-0.0037955139
5	0x3909f88d	0.0001315793
6	0xc0156b89	-2.3346884
7	0xbfab79a4	-1.3396497
8	0x406bd225	3.6847012
9	0x407ddaa9	3.966471
10	0x40093f5e	2.1444926
11	0x3f67d9f5	0.9056695
12	0x3f427600	0.75961304
13	0x3d46b89d	0.048515905
14	0xb9b2590f	-0.0003401716
15	0xbaa7939d	-0.0012785081

neural_networks.1.linear_relu_stack.1.weight f4 [16]
0	0x401ca183	2.447358
1	0x40a19a5a	5.0500917
2	0x3e03faff	0.12888716
3	0x3f0a16a0	0.53940773
4	0x3f6b3d10	0.9189005
5	0x3f6c3f16	0.9228376
6	0x3fa7c74d	1.3107697
7	0x400a073e	2.156692
8	0x3fafd412	1.3736594
9	0x40831c59	4.0972104
10	0x3d3958ea	0.04525081
11	0x3fa897ee	1.3171365
12	0x3f91961c	1.1373935
13	0x3ef32dbb	0.47495827
14	0x3f6a2e1a	0.91476595
15	0x3a462c17	0.00075596705

neural_networks.1.linear_relu_stack.1.bias f4 [16]
0	0x412e85ad	10.907636
1	0x3fc5a825	1.5441939
2	0xbfbac622	-1.4591715
3	0x404cdf24	3.2011194
4	0xbd7573ee	-0.059925012
5	0xbd5cacd5	-0.053875763
6	0x40cbcd43	6.3688064
7	0x41211898	10.068504
8	0x409bd85a	4.87016
9	0x3e47e735	0.19521792
10	0xbf8cae2c	-1.0990653
11	0x40a8d9fa	5.2766085
12	0x408f5a84	4.4797993
13	0xbeee9ba1	-0.4660311
14	0xbd7fdadc	-0.06246458
15	0x400380c5	2.0547345

neural_networks.1.linear_relu_stack.1.running_mean f4 [16]
0	0xc0741a35	-3.8140996
1	0x41d19548	26.197891
2	0x410f7048	8.964912
3	0x409b7e71	4.8591847
4	0xbc8f5747	-0.017497672
5	0x3a1f03c2	0.00060659286
6	0xc12cdc4d	-10.803784
7	0xc0c4d565	-6.151049
8	0x41881343	17.009405
9	0x41927555	18.307291
10	0x411e2e56	9.8863125
11	0x40875c31	4.230004
12	0x40653141	3.5811312
13	0x3e6507e2	0.22366288
14	0xbacd8cd3	-0.0015682228
15	0xbbba1e6e	-0.005679897

neural_networks.1.linear_relu_stack.1.running_var f4 [16]
0	0x3898827c	7.2722294e-05
1	0x3b60d0d3	0.0034304156
2	0x39d29b46	0.0004017001
3	0x38f77ef0	0.00011801522
4	0x30d251df	1.530278e-09
5	0x2c016a37	1.8390964e-12
6	0x3a18ee90	0.00058338884
7	0x39465476	0.00018914216
8	0x3abd89ba	0.0014460601
9	0x3adb9027	0.0016751335
10	0x3a000fbc	0.0004885157
11	0x38bb8f45	8.943541e-05
12	0x388671e3	6.410831e-05
13	0x34863c49	2.5003308e-07
14	0x2d583e9e	1.2292082e-11
15	0x2f319650	1.6151458e-10

neural_networks.1.linear_relu_stack.3.weight f4 [16, 16]
0	0xbf3a4975	-0.72768337
1	0xbe6fda6a	-0.23423162
2	0xbe23ff36	-0.16015324
3	0xbd65fcba	-0.056149222
4	0x3e299c91	0.16563632
5	0x3de76cb9	0.11300034
6	0xbee40265	-0.44533077
7	0xbe9daf3a	-0.3079775
8	0x3e5a7db5	0.21337016
9	0xbd18c677	-0.037298646
10	0xbe42f661	-0.19039299
11	0x3d0f4f0a	0.034987487
12	0x3ddc46e9	0.107557125
13	0xbe0e7b5c	-0.13914245
14	0xbdd775ac	-0.10520491
15	0xbe83c5f8	-0.25736976
16	0xbdbf1b58	-0.09331387
17	0xbee2793b	-0.44233117
18	0xbea0fa0b	-0.31440768
19	0xbe472966	-0.19449386
20	0x3d79219c	0.060823068
21	0x3e20e823	0.15713553
22	0xbe7e9fd8	-0.24865663
23	0xbd977a07	-0.07396322
24	0x3dc1b3ad	0.094580986
25	0xbe69ffb6	-0.22851452
26	0xbf040477	-0.5156931
27	0x3e1821ce	0.14856645
28	0x3dfb399e	0.12266849
29	0xbe965a79	-0.293659
30	0xbe1c705d	-0.15277238
31	0xbea0b96a	-0.3139146
32	0xbdbee337	-0.093206815
33	0xbe8cb7bd	-0.2748393
34	0xbef444f5	-0.4770886
35	0xbed83b16	-0.4223258
36	0xbd3d9291	-0.046282355
37	0xbe952b8f	-0.29134795
38	0x3ddb9230	0.107212424
39	0xbcbc424b	-0.02298083
40	0xbd4dc333	-0.050234985
41	0xbe28ca12	-0.16483334
42	0xbe099af6	-0.13438019
43	0xbda9a8ed	-0.08284173
44	0xbefd2d74	-0.4944874
45	0xbe0cb916	-0.1374248
46	0xbdcc0276	-0.09961407
47	0xbe832925	-0.25617328
48	0xbe8175a7	-0.25285074
49	0xbf10b1dd	-0.565214
50	0xbe9311d8	-0.2872455
51	0x3e2fa18c	0.17151469
52	0x3e61b289	0.22040762
53	0x3e856357	0.26052353
54	0xbd14e300	-0.036349297
55	0xbe72ecb2	-0.23723105
56	0x3e3e5cfc	0.18590158
57	0xbebc562a	-0.36784488
58	0xbef67333	-0.48134765
59	0x3d8a80fc	0.06762883
60	0xbe5faff7	-0.21844469
61	0xbeb91c9f	-0.3615465
62	0xbc829b27	-0.015943123
63	0xbe104a16	-0.14090762
64	0xbe8c820f	-0.27442977
65	0xbe33b69e	-0.17550132
66	0xbec18b44	-0.37801564
67	0x3d508fce	0.050918393
68	0xbd2f496f	-0.04279464
69	0x3d292794	0.04129751
70	0xbf0399c1	-0.51406485
71	0xbe447071	-0.19183518
72	0x3e5c89ed	0.2153699
73	0x3dd4df7d	0.103941895
74	0xbe0b4e5d	-0.13604112
75	0x3e8e4187	0.27784368
76	0x3e35ad80	0.17741966
77	0xbef80b16	-0.48445958
78	0x3e2a960b	0.166588
79	0xbd0b6a04	-0.03403665
80	0xbe26873b	-0.16262524
81	0xbf1bd988	-0.608788
82	0xbdc46ec3	-0.095914386
83	0xbe222954	-0.15836078
84	0xbe3ad339	-0.18244638
85	0xbdc2dd8a	-0.095149115
86	0x3d1884b6	0.037235938
87	0xbdac53ca	-0.08414419
88	0xbdfc3345	-0.123144664
89	0xbe6e3e7a	-0.2326602
90	0xbe9feec4	-0.3123685
91	0xbe5c4c97	-0.21513592
92	0xbec55a97	-0.38545677
93	0xbf349838	-0.7054477
94	0x3cbf40b3	0.02334628
95	0xbef1bd5e	-0.47214788
96	0x408be8b3	4.3721557
97	0xc075d571	-3.8411524
98	0xbe83636a	-0.25661784
99	0xbf78148f	-0.9690637
100	0xbd69576f	-0.05696815
101	0x3e5ce53d	0.21571822
102	0x3ffbbe90	1.966753
103	0x40832bed	4.099112
104	0xc031841d	-2.7736886
105	0xc03b729a	-2.9288697
106	0xbe7390a6	-0.23785648
107	0xc00f09e6	-2.2349792
108	0xbfda47c5	-1.7053152
109	0x3c29f4f4	0.010373343
110	0xbce26ebc	-0.027640693
111	0xbd0c3a47	-0.034235265
112	0x3e2fdf3e	0.17175004
113	0xbeaf9289	-0.34291485
114	0xbc97ba45	-0.018521437
115	0xbea9debd	-0.33177748
116	0x3e075ea7	0.13219701
117	0x3d454b88	0.048167735
118	0x3d37c147	0.044862058
119	0xbe70c84d	-0.23513909
120	0xbea40ccd	-0.32041016
121	0xbea6aaad	-0.3255209
122	0xbd82b199	-0.0638153
123	0xbf10f4fb	-0.5662381
124	0xbedc9316	-0.43080968
125	0xbef1bd4a	-0.4721473
126	0xbe591708	-0.21200192
127	0xbe66834c	-0.22511023
128	0xc05da542	-3.4632115
129	0xc02c6bff	-2.6940916
130	0xbebd9d82	-0.3703423
131	0x40b932d5	5.787455
132	0x3df2252d	0.11823497
133	0x3d40e739	0.04709551
134	0xc048b7bd	-3.1362145
135	0xc02d435b	-2.707236
136	0x4132c012	11.171892
137	0xc010dd72	-2.263516
138	0x3cf2c1db	0.029633453
139	0x41350eb0	11.316086
140	0x410a5faf	8.64836
141	0x3c91803f	0.017761348
142	0xbe2e916e	-0.17047665
143	0xbcd203f2	-0.025636647
144	0xbe2f115a	-0.17096463
145	0xbeda96e6	-0.4269325
146	0xbe5232ac	-0.20527142
147	0x3cc164ee	0.023607697
148	0x3dd86ebb	0.10567995
149	0x3e3fcfd7	0.18731628
150	0xbe8d49e2	-0.2759543
151	0xbe5bee75	-0.21477683
152	0xbcf19269	-0.02948876
153	0xbe54dd50	-0.20787549
154	0xbec98e87	-0.39366552
155	0xbe328f06	-0.17437372
156	0x3e4a187d	0.19735904
157	0xbd27817d	-0.040894974
158	0x3e419164	0.18903118
159	0x3e2b4cc1	0.16728498
160	0xbe6eacae	-0.2330806
161	0xbf55dd84	-0.8354113
162	0xbec16e4a	-0.37779456
163	0xbe1fcd02	-0.15605548
164	0x3d7ff8af	0.062493023
165	0xbd8ca5bd	-0.068675496
166	0xbe39fed6	-0.18163618
167	0xbecfc01a	-0.4057625
168	0x3dc6544f	0.09684049
169	0xbeb1d768	-0.34734654
170	0xbf1f4dde	-0.6222819
171	0xbcf6bec5	-0.030120263
172	0x3bdcaa71	0.0067341854
173	0xbe49a271	-0.19690873
174	0xbd3e74b2	-0.046498008
175	0xbecf21e7	-0.40455553
176	0xbeb3b0e7	-0.35095903
177	0xbe832fc1	-0.2562237
178	0xbf009ce4	-0.50239396
179	0xbe466bcc	-0.19377059
180	0x3d980903	0.07423594
181	0xbe515159	-0.20441188
182	0xbeb9e333	-0.36306152
183	0xbd70d637	-0.05879804
184	0x3e805506	0.25064868
185	0xbef774a8	-0.4833119
186	0xbe372c5a	-0.17888013
187	0xbd83dc3b	-0.0643849
188	0xbd52b42f	-0.051441368
189	0xbdb188eb	-0.08668693
190	0x3e3ba1c9	0.18323435
191	0x3c986f1b	0.018607667
192	0xbd9f7065	-0.077851094
193	0xbead19b4	-0.33808672
194	0xbdca7697	-0.098859005
195	0xbd87f3f9	-0.06638331
196	0xbd5032ae	-0.050829582
197	0xbd56e72a	-0.05246655
198	0xbe77ef64	-0.24212414
199	0xbdb0557d	-0.086100556
200	0xbead6e59	-0.3387325
201	0xbd240dd1	-0.04005224
202	0xbd9aeb75	-0.07564441
203	0xbc0e5257	-0.008686624
204	0x3ccf66f4	0.025317647
205	0xbee832c8	-0.45351243
206	0xbd09fa07	-0.03368571
207	0xbda0c601	-0.07850266
208	0xbe4b1c50	-0.19835019
209	0xbed40197	-0.41407463
210	0xbee5d613	-0.44889888
211	0xbe90ab93	-0.282559
212	0xbdd77482	-0.10520269
213	0x3d58e36c	0.05295126
214	0xbdde3eea	-0.10851844
215	0x3e5454a0	0.20735407
216	0x3de6feed	0.11279092
217	0xbf390ec6	-0.7228817
218	0xbe9050f4	-0.28186762
219	0xbea3257c	-0.31864536
220	0xbe4f4888	-0.20242512
221	0xbead7955	-0.33881631
222	0x3df05053	0.11734071
223	0x3df6a945	0.12044004
224	0xbe452848	-0.19253647
225	0xbed4a902	-0.41535193
226	0xbf404941	-0.75111777
227	0xbdfa6aa0	-0.12227368
228	0xbe0beede	-0.1366534
229	0xbe258c8d	-0.16166897
230	0xbe2cf45e	-0.16890094
231	0x3d2c99ec	0.04213898
232	0x3e4eb16e	0.20184872
233	0xbe40ba1a	-0.18820992
234	0xbefcb836	-0.49359292
235	0xbe1b93b4	-0.15193063
236	0xbd886200	-0.06659317
237	0xbe931af8	-0.28731513
238	0x3c24d8d2	0.01006146
239	0xbe9fe87c	-0.3123206
240	0xbd93b55e	-0.072123274
241	0xbeaf8e3a	-0.34288198
242	0xbea8c9e6	-0.32966536
243	0xbea2d848	-0.31805634
244	0xbe19ee05	-0.15032203
245	0xbd3b218f	-0.0456863
246	0xbdf77b0d	-0.12084017
247	0x3e0002a7	0.12501012
248	0x3d5dcac1	0.05414844
249	0xbc9a2c4b	-0.018819949
250	0xbe00cb16	-0.12577471
251	0x3a9daf24	0.0012030345
252	0x3dc3a2db	0.095525466
253	0xbd0bd7a1	-0.034141187
254	0x3e76bf8d	0.24096508
255	0x3db9e25c	0.09076378

neural_networks.1.linear_relu_stack.4.weight f4 [16]
0	0xbc5a4e8a	-0.013324389
1	0x3e6b4a8a	0.22977653
2	0x3e1bd5e2	0.15218309
3	0x3e512be9	0.20426907
4	0x3c75e441	0.015008033
5	0x3e39e5bb	0.18154041
6	0x3f03ae1c	0.51437545
7	0x3e4bf40b	0.19917314
8	0x3eac1583	0.33610162
9	0x3eacb866	0.33734435
10	0x3e54f7fa	0.2079772
11	0x3e9c94a7	0.30582163
12	0x3ebcc7f3	0.368713
13	0x3e2a1060	0.16607809
14	0x3d843863	0.064560674
15	0x3ec4a80c	0.3840946

neural_networks.1.linear_relu_stack.4.bias f4 [16]
0	0xbf0a70c9	-0.54078346
1	0xbf3311ba	-0.69948924
2	0xbf612fff	-0.8796386
3	0xbf54b1ff	-0.830841
4	0xbf589c24	-0.8461325
5	0xbf0a28a2	-0.5396825
6	0xbdf3d423	-0.11905696
7	0xbf31b4aa	-0.69416296
8	0x3d5df948	0.05419281
9	0xbf39ab6f	-0.7252721
10	0xbf48840c	-0.7832649
11	0xbf27240b	-0.6528937
12	0xbf33ba4a	-0.7020613
13	0xbf690609	-0.91024834
14	0xbf614fa6	-0.8801216
15	0xbf08ffa4	-0.53515077

neural_networks.1.linear_relu_stack.4.running_mean f4 [16]
0	0xc159d596	-13.614645
1	0xc08f78ec	-4.483511
2	0xc0cd3ad0	-6.4134293
3	0xc0e2ee64	-7.0916004
4	0xc0a3e3c3	-5.121553
5	0xc1178a87	-9.47132
6	0x4245d59c	49.458603
7	0xc11c184a	-9.75593
8	0x42954667	74.637505
9	0xc0e42103	-7.1290298
10	0xc13c5169	-11.769876
11	0xc103b634	-8.231983
12	0xc0c81c63	-6.253465
13	0xc0bcadd3	-5.896219
14	0xc0ad65e0	-5.418686
15	0xbfb96651	-1.448435

neural_networks.1.linear_relu_stack.4.running_var f4 [16]
0	0x40d28228	6.578388
1	0x3fc1a3dd	1.5128132
2	0x408becc0	4.37265
3	0x40439db7	3.0565012
4	0x40a2f234	5.092066
5	0x4114a5de	9.290495
6	0x45181984	2433.5947
7	0x4150cbde	13.049772
8	0x450bb61d	2235.382
9	0x3f8f248d	1.118303
10	0x40aff328	5.498432
11	0x3f8204dc	1.0157733
12	0x3f97872a	1.1838124
13	0x414ce346	12.805487
14	0x40029253	2.040181
15	0x3fac56e1	1.3464013

neural_networks.1.linear_relu_stack.6.weight f4 [1, 16]
0	0xbb9b28fc	-0.0047351103
1	0x3dbc42b7	0.09192412
2	0xbdf71f92	-0.120665684
3	0xbe0f288b	-0.1398031
4	0x3e1b71cb	0.15180127
5	0xbdeed926	-0.116625115
6	0xbe3df267	-0.185495
7	0x3b950707	0.004547957
8	0x3e07091b	0.13187067
9	0xbd5358dd	-0.05159842
10	0xbbd057fe	-0.0063581457
11	0xbe160b67	-0.14652787
12	0x3cf8c5e5	0.030367801
13	0x3d859fa2	0.06524588
14	0xbd2b73ab	-0.041858356
15	0xbae46443	-0.00174249

neural_networks.2.linear_relu_stack.0.weight f4 [16, 1]
0	0xc087981f	-4.2373195
1	0x3ba98cfa	0.0051742764
2	0xbfbdd558	-1.4830732
3	0xbfa79dbc	-1.3095012
4	0x391ae66e	0.00014772426
5	0xbfc49410	-1.5357685
6	0xc08c8a69	-4.391896
7	0xaa4cc1f5	-1.8186132e-13
8	0x3fba0968	1.453412
9	0x4110f1a2	9.058992
10	0xbe3a9c71	-0.1822374
11	0x3fad6f23	1.3549541
12	0x4080237a	4.0043306
13	0x3b8a4b88	0.00422043
14	0xc082801b	-4.078138
15	0x34d9963e	4.0528715e-07

neural_networks.2.linear_relu_stack.1.weight f4 [16]
0	0x402a6f06	2.6630263
1	0x3f4894fc	0.7835233
2	0x402292dd	2.5402138
3	0x401484e6	2.3206115
4	0xb89599f9	-7.133553e-05
5	0x3fea53bd	1.8306805
6	0x3fee7af4	1.8631272
7	0xaa130356	-1.305738e-13
8	0x405c9d90	3.4471169
9	0x4053f014	3.3115282
10	0xbbab8ed5	-0.0052355328
11	0x402202ea	2.5314279
12	0x408b2aff	4.3489985
13	0x3f582cf6	0.84443605
14	0x400a11f7	2.1573465
15	0xb46d2a66	-2.208777e-07

neural_networks.2.linear_relu_stack.1.bias f4 [16]
0	0xbeb2ffc6	-0.34960765
1	0xbe213052	-0.15741089
2	0x40d3b7a9	6.6161695
3	0x40ae5b86	5.4486723
4	0x401269b3	2.2877014
5	0x407affcc	3.9218626
6	0x408b2a01	4.3488774
7	0x400689fb	2.1021717
8	0x4180a9db	16.082937
9	0x40055948	2.0835743
10	0x3ff535c6	1.9157035
11	0x40deb810	6.9599686
12	0x4023525c	2.5519018
13	0xbdc6d008	-0.097076476
14	0xbeb29474	-0.34878886
15	0x3ff106a4	1.8830152

neural_networks.2.linear_relu_stack.1.running_mean f4 [16]
0	0xc19bd040	-19.476685
1	0x3cc36afe	0.023854729
2	0xc0da3ec4	-6.820162
3	0xc0bfffa8	-5.999958
4	0xb8935ffe	-7.027386e-05
5	0xc0e1ed4b	-7.0602164
6	0xc1a21b69	-20.263384
7	0xab768c02	-8.7591056e-13
8	0x40d600af	6.6875834
9	0x422711f2	41.767525
10	0xbf58139e	-0.84404933
11	0x40c778bd	6.2334886
12	0x41938ce0	18.443787
13	0x3c9f64d1	0.019457253
14	0xc1968d5a	-18.81902
15	0x35f2e772	1.8097764e-06

neural_networks.2.linear_relu_stack.1.running_var f4 [16]
0	0x3b845626	0.00403859
1	0x31d028fb	6.0582557e-09
2	0x3a01d0d0	0.0004952075
3	0x39c8f155	0.0003832678
4	0x2c571ef3	3.0570518e-12
5	0x3a0b1d86	0.00053068285
6	0x3b8f3dcc	0.0043713804
7	0x0f6bf96e	1.1634433e-29
8	0x39f9a0ec	0.00047612877
9	0x3c982619	0.018572854
10	0x36fe8650	7.585426e-06
11	0x39d8e167	0.00041366668
12	0x3b6d58d0	0.0036216266
13	0x318a7ce5	4.0305275e-09
14	0x3b771a0b	0.0037704732
15	0x2422bebe	3.5289715e-17

neural_networks.2.linear_relu_stack.3.weight f4 [16, 16]
0	0xbeb99c35	-0.3625199
1	0xbe47c2cf	-0.19507907
2	0xbd72b794	-0.059257105
3	0xbdf3c4c6	-0.11902766
4	0xbe8bc6b6	-0.27300042
5	0x3da04f57	0.07827633
6	0xbeb77497	-0.35831138
7	0xbf34be8a	-0.7060324
8	0xbf08eff4	-0.5349114
9	0xbec4a188	-0.3840449
10	0xbcccde14	-0.025008239
11	0xbefce021	-0.49389747
12	0xbedf3b7e	-0.43600076
13	0x3e2df33c	0.16987318
14	0x3df083ee	0.117439136
15	0xbec10c22	-0.3770457
16	0xbe7b1ebd	-0.24523444
17	0xbce8c9ef	-0.028416602
18	0x3e855fe8	0.26049733
19	0xbea4b152	-0.32166535
20	0xbea565ef	-0.32304332
21	0xbe0e6996	-0.13907465
22	0xbec6252c	-0.38700235
23	0xbe02718e	-0.1273863
24	0x3d522574	0.05130525
25	0xbe1c295f	-0.15250157
26	0xbf13a6d6	-0.57676446
27	0xbe13d0a8	-0.14435065
28	0xbec19667	-0.3781006
29	0x3d05ec87	0.032696273
30	0xbf094210	-0.5361643
31	0x3ce0e2b9	0.02745186
32	0xbfa4a91b	-1.2864107
33	0x3caaf1c0	0.020867229
34	0x3d955481	0.072915085
35	0xbf5722f4	-0.8403771
36	0xbf981f30	-1.1884518
37	0xbf670270	-0.90238094
38	0xbf223f0f	-0.6337747
39	0xbd17e506	-0.03708365
40	0xbe8d2638	-0.2756822
41	0xbe032034	-0.12805253
42	0xbf2ca9c4	-0.6744654
43	0xbe9cff83	-0.3066369
44	0xbe830872	-0.2559238
45	0xbe8e4392	-0.27785927
46	0xbf6b3a09	-0.9188543
47	0xbe183c9e	-0.14866874
48	0xbe9c0d2e	-0.30478805
49	0xbaee4e6f	-0.0018181334
50	0xbd5f56b5	-0.05452605
51	0xbd39f8a5	-0.04540314
52	0xbe74ac9b	-0.23893969
53	0xbd1ee80b	-0.038795512
54	0x3d8a4a64	0.0675247
55	0xbe74aa93	-0.23893194
56	0x3d5f8e9a	0.054579355
57	0xbe8c8b95	-0.27450243
58	0xbeb64def	-0.35606334
59	0xbd93fa94	-0.07225528
60	0xbdec41b4	-0.115359694
61	0xbe7486c2	-0.23879531
62	0xbe543646	-0.20723829
63	0x3d080fff	0.03321838
64	0xbe9e2282	-0.30885702
65	0xbcaccf79	-0.021095024
66	0x3d9f9e63	0.07793882
67	0xbe896f69	-0.26842812
68	0xbdd631f8	-0.104587495
69	0xbd84187f	-0.06449985
70	0xbe9a1cf9	-0.3010023
71	0xbf1356ba	-0.5755421
72	0xbdd9c9cf	-0.10634195
73	0xbeee716d	-0.46570912
74	0xbd0147b4	-0.031562522
75	0xbe5f102c	-0.21783513
76	0xbf2e61ef	-0.68118185
77	0x3db051fb	0.086093865
78	0xbe6e82c7	-0.23292075
79	0xbed577df	-0.41693017
80	0xbdf8fc69	-0.121575184
81	0xbec48ee0	-0.38390255
82	0x3dba6a9b	0.09102365
83	0xbe3722b5	-0.17884333
84	0xbda145bf	-0.07874631
85	0xbc879308	-0.016549602
86	0x3d10cdf9	0.03535268
87	0xbf05c97d	-0.5226057
88	0xbe2a1fd5	-0.16613705
89	0xbeb99fc0	-0.36254692
90	0xbe80766e	-0.25090355
91	0xbdbd953e	-0.09256981
92	0xbf0cd772	-0.55016243
93	0x3d8a496c	0.06752285
94	0xbd9be2f8	-0.0761165
95	0xbee3d162	-0.44495684
96	0xbd9379f9	-0.07200999
97	0x3dedb7f1	0.1160735
98	0x3e22c577	0.1589564
99	0xbe902bef	-0.2815852
100	0xbebd5814	-0.3698126
101	0x3d84e10a	0.06488235
102	0xbec99b66	-0.39376372
103	0xbd0345e9	-0.032049093
104	0xbdea4f34	-0.11440888
105	0xbe9787a3	-0.2959567
106	0xbded3e3e	-0.115841374
107	0xbe0bcc67	-0.13652192
108	0xbea17f0a	-0.31542236
109	0xbe3545ed	-0.17702456
110	0xbdff4cf7	-0.12465852
111	0xbdd35ea7	-0.10320788
112	0xbe90de27	-0.2829449
113	0xbeba730c	-0.364159
114	0xbbfa286e	-0.007634214
115	0xbd80c253	-0.062870644
116	0xbd281691	-0.041037146
117	0xbe2a1a1f	-0.16611527
118	0xbe18ed15	-0.1493419
119	0xbea28f7b	-0.31750092
120	0xbc8eb7f6	-0.017421704
121	0xbefe179b	-0.49627385
122	0xbe919a5c	-0.2843808
123	0xbdc5bed5	-0.09655539
124	0xbf161cf3	-0.58637923
125	0x3d9af4cf	0.07566225
126	0xbe7cf173	-0.2470148
127	0xbf197c1e	-0.5995501
128	0xbf57f664	-0.8436034
129	0x3e3e8ed4	0.18609172
130	0xbe8f1cc1	-0.27951625
131	0xbe21ac40	-0.15788364
132	0xbe678960	-0.22610998
133	0xbe7230b6	-0.23651394
134	0xbf371827	-0.7152123
135	0xbccade11	-0.024764093
136	0x3e427401	0.18989564
137	0xbe817f4d	-0.25292435
138	0xbf74130a	-0.9534155
139	0xbe13830e	-0.14405462
140	0xbe2ad59d	-0.1668305
141	0xbe5c23b2	-0.21497992
142	0xbf4ef357	-0.8084006
143	0x3d4ae5b6	0.049535476
144	0xbcd5ac90	-0.02608326
145	0x3cc92482	0.024553541
146	0xbe103960	-0.14084387
147	0xbe612c19	-0.21989478
148	0xbdd69ef7	-0.10479539
149	0xbef5383b	-0.47894463
150	0xbe14f1c8	-0.14545357
151	0x3dbcc1df	0.092166655
152	0xbe057709	-0.1303369
153	0xbef42717	-0.47686073
154	0xbe849d85	-0.25901428
155	0x3e443234	0.19159776
156	0xbee4e09e	-0.4470262
157	0xbda7e234	-0.08197442
158	0xbedd9b9b	-0.4328278
159	0xbe050701	-0.12990953
160	0xbf405726	-0.7513298
161	0x3d7823ea	0.060581125
162	0x40e1c802	7.055665
163	0x40a43159	5.131024
164	0xbce77c9a	-0.028257657
165	0x403dec00	2.9675293
166	0x404f9297	3.2433221
167	0x3e14f533	0.14546661
168	0xc0c1d7b1	-6.0575795
169	0xc02a0332	-2.656445
170	0x3dfd8f51	0.12380851
171	0x3f4f8499	0.810617
172	0xc06e3bed	-3.7224076
173	0x3d401dd4	0.046903446
174	0xbf17e803	-0.59338397
175	0x3e1e2a9b	0.1544594
176	0xbebc6f43	-0.36803636
177	0xbe3f0a60	-0.18656301
178	0x3d275ba1	0.04085887
179	0xbe6716db	-0.22567312
180	0xbd3b0346	-0.04565742
181	0xbe0731b1	-0.1320255
182	0xbe9a9ccd	-0.30197755
183	0xbe28f1ae	-0.16498443
184	0xbcd971bf	-0.026543496
185	0xbda2148d	-0.07914076
186	0xbd959988	-0.073046744
187	0xbec2ee93	-0.38072643
188	0xbc9925a4	-0.018694706
189	0xbdb22958	-0.08699292
190	0xbd4aa9e2	-0.04947842
191	0xbed6f1a2	-0.41981226
192	0xc0368e2f	-2.8524282
193	0xbd361dad	-0.044461895
194	0xbfaed4f2	-1.3658736
195	0xbf9527bc	-1.1652751
196	0x3d8fa7c6	0.07014422
197	0xbf8cf9fb	-1.1013788
198	0xbf5d5886	-0.864632
199	0x3c9a2d66	0.018820476
200	0x414317b0	12.193283
201	0xbfbff902	-1.4997866
202	0x3ad99380	0.0016599745
203	0x4100abb2	8.041918
204	0xc00680c7	-2.10161
205	0x3ce465e3	0.027880615
206	0xc01a9305	-2.4152234
207	0x3e006a2f	0.12540506
208	0x3d6ed6b6	0.058310233
209	0xbdbb5ee6	-0.0914896
210	0xbdb16c55	-0.08663241
211	0xbdea96e3	-0.114545606
212	0xbda6a701	-0.08137322
213	0xbe10c884	-0.1413899
214	0xbd999b6e	-0.07500349
215	0xbe91f9cb	-0.2851089
216	0xbe2288af	-0.15872453
217	0xbe43461a	-0.1906971
218	0x3dbade73	0.0912446
219	0xbe14bd4b	-0.14525335
220	0xbed4b0b6	-0.4154107
221	0xbe888022	-0.26660258
222	0xbe809950	-0.25116968
223	0xbd547fe6	-0.051879786
224	0xbe82ec54	-0.2557093
225	0x3db9c0ea	0.090699986
226	0xbe2fc85a	-0.17166272
227	0xbe75e111	-0.24011637
228	0xbd8ad9e8	-0.067798436
229	0xbe65a001	-0.22424318
230	0x3d96cce8	0.073633015
231	0xbea6bb89	-0.32564953
232	0xbe2f60cb	-0.17126767
233	0xbe9b3913	-0.30316982
234	0xbcd0e9a3	-0.025502032
235	0xbccb539d	-0.024820143
236	0xbeb5fc33	-0.35543975
237	0xbe213b4b	-0.15745275
238	0xbe97cf2d	-0.2965025
239	0xbecbd11a	-0.3980797
240	0xbf025c1b	-0.5092179
241	0xbd936d04	-0.071985275
242	0x3e9e886a	0.3096345
243	0xbd8a6b19	-0.067587085
244	0xbcb0a621	-0.021563591
245	0xbe814d46	-0.25254267
246	0xbd61cd03	-0.055127155
247	0xbefaca4f	-0.48982474
248	0xbdd4d6df	-0.10392546
249	0xbef02591	-0.4690366
250	0xbf4d4a94	-0.8019192
251	0xbe109bf7	-0.14121996
252	0xbea1cf30	-0.31603384
253	0x3d1be18b	0.03805689
254	0xbe39d100	-0.18146133
255	0xbe8b5dfc	-0.27220142

neural_networks.2.linear_relu_stack.4.weight f4 [16]
0	0x3e2be547	0.16786681
1	0x3e7ff173	0.2499445
2	0x3e2aea95	0.16691048
3	0x3ec67bfc	0.38766468
4	0x3e85cab9	0.26131228
5	0x3e68a829	0.22720398
6	0x3e8fb086	0.28064364
7	0x3e4cc21b	0.1999592
8	0x3e201348	0.15632355
9	0x3e8a46db	0.27007183
10	0x3f183f64	0.59471726
11	0x3e344a9c	0.17606586
12	0x3ed437f0	0.41448927
13	0x3e42c990	0.19022202
14	0x3e8a30d3	0.26990375
15	0x3e992552	0.29911286

neural_networks.2.linear_relu_stack.4.bias f4 [16]
0	0xbf596563	-0.8492033
1	0xbf21d0fe	-0.6320952
2	0xbf0ac552	-0.54207337
3	0xbf31b85c	-0.69421935
4	0xbf2c11c7	-0.67214626
5	0xbf2de41a	-0.6792618
6	0xbf175ea9	-0.59128815
7	0xbf2a30f1	-0.6648093
8	0xbf5030ec	-0.8132465
9	0xbf58f943	-0.84755343
10	0xbebcdf27	-0.36889002
11	0xbf3e2106	-0.7426914
12	0x3dd7cb36	0.10536806
13	0xbf18d209	-0.5969549
14	0xbf25214e	-0.64503944
15	0xbf47fd26	-0.7812065

neural_networks.2.linear_relu_stack.4.running_mean f4 [16]
0	0xc19f2dbe	-19.897335
1	0xc0d809fc	-6.751219
2	0xc1c2b731	-24.339449
3	0xc05222c8	-3.2833729
4	0xc13f3629	-11.950723
5	0xc1121669	-9.130471
6	0xc1009281	-8.035768
7	0xc10c0ef7	-8.753654
8	0xc118de68	-9.554298
9	0xc1140e89	-9.253549
10	0xc12e4f61	-10.89438
11	0xc0fc8ece	-7.892432
12	0x4355e60c	213.89862
13	0xc1059e40	-8.351135
14	0xc11fb82b	-9.982463
15	0xc1032621	-8.196809

neural_networks.2.linear_relu_stack.4.running_var f4 [16]
0	0x418e6854	17.800941
1	0x3f9da0d5	1.2314707
2	0x41aa03fd	21.251947
3	0x3f1cf33f	0.61308664
4	0x410a9742	8.661928
5	0x4126a0a9	10.414224
6	0x401e6756	2.4750571
7	0x40c97f46	6.2967863
8	0x4184c17f	16.59448
9	0x3fc1d2ac	1.5142417
10	0x45b5aee4	5813.8613
11	0x3eb2039d	0.34768382
12	0x458d21c4	4516.2207
13	0x404e9f9c	3.2284918
14	0x3fc7058b	1.5548567
15	0x40c3e033	6.121118

neural_networks.2.linear_relu_stack.6.weight f4 [1, 16]
0	0x3da53385	0.08066467
1	0x3e0e276b	0.13882224
2	0xbddd9f7a	-0.10821433
3	0xbe05f6d7	-0.13082443
4	0x3dfe3721	0.12412859
5	0x3c23b620	0.009992152
6	0x3df69c06	0.12041478
7	0xbd4eaeb6	-0.050459586
8	0x3d468992	0.04847104
9	0x3d86db3f	0.065847866
10	0xbe7052e3	-0.23469119
11	0x3e054084	0.13012892
12	0x3e7d7121	0.24750187
13	0xbe1e933b	-0.15485851
14	0xbe06a8f2	-0.13150385
15	0xbd3a3b95	-0.045466978

neural_networks.3.linear_relu_stack.0.weight f4 [16, 1]
0	0xbea0fe0e	-0.31443828
1	0x3fb3e139	1.4053108
2	0x4010df38	2.2636242
3	0xbfdd51c0	-1.7290573
4	0x3fdad71d	1.7096897
5	0x3f5a8334	0.8535645
6	0xc03809c4	-2.875596
7	0xbeb6eea1	-0.35728934
8	0x3a81a968	0.0009892406
9	0xc0660f79	-3.5946944
10	0xc001b2f2	-2.026547
11	0x40878ab3	4.235681
12	0xbf18e01e	-0.59716976
13	0x40608426	3.5080657
14	0x40256da2	2.5848165
15	0x3fb87cb9	1.4413062

neural_networks.3.linear_relu_stack.1.weight f4 [16]
0	0x3d651470	0.055927694
1	0x3fc222c6	1.5166862
2	0x3fd3e419	1.6553985
3	0x3e1ae863	0.15127711
4	0x3fe0b07f	1.7553862
5	0x3fcb515b	1.5884203
6	0x4005ee96	2.0926871
7	0x3c93330b	0.017968675
8	0x3f56795a	0.8377892
9	0x406d3c48	3.7068043
10	0x3fe4a158	1.7861738
11	0x3fa3ef1c	1.2807345
12	0x3e035ab7	0.12827574
13	0x3fc01023	1.5004925
14	0x3fc39168	1.527875
15	0x3f954b72	1.1663649

neural_networks.3.linear_relu_stack.1.bias f4 [16]
0	0xbe99f3d3	-0.30068836
1	0x40af4338	5.4769554
2	0x40c3abfe	6.114745
3	0xbf7b38e4	-0.98133683
4	0x40a81b8c	5.2533627
5	0x40b58747	5.6727633
6	0x40326254	2.7872515
7	0xbf42b761	-0.76061064
8	0xbd6ee019	-0.058319185
9	0x3fc5fee5	1.5468413
10	0x4086efd1	4.2167745
11	0x40966f95	4.701121
12	0xbf4d9c56	-0.80316675
13	0x40885ab4	4.261072
14	0x408f954d	4.486975
15	0x408c0d34	4.3766117

neural_networks.3.linear_relu_stack.1.running_mean f4 [16]
0	0xbfb98bcb	-1.4495786
1	0x40cf2f8a	6.474553
2	0x41272168	10.445656
3	0xc0ff12e0	-7.971054
4	0x40fcb54c	7.897131
5	0x407c5060	3.9424057
6	0xc15433b9	-13.262628
7	0xbfd2d4fd	-1.6471249
8	0x3b956fe3	0.004560457
9	0xc1849bae	-16.576015
10	0xc113a0db	-9.226771
11	0x419bfc3c	19.498161
12	0xc03030f2	-2.7529874
13	0x41811e94	16.13993
14	0x413efc73	11.936633
15	0x40d4b1aa	6.6466875

neural_networks.3.linear_relu_stack.1.running_var f4 [16]
0	0x380d31f3	3.366354e-05
1	0x3a300c85	0.0006715733
2	0x3ae51fca	0.0017480787
3	0x3a856b43	0.0010179061
4	0x3a82f64c	0.0009991615
5	0x39828f2e	0.0002490221
6	0x3b38adeb	0.0028179835
7	0x38364d10	4.346395e-05
8	0x2fb72c6e	3.3319075e-10
9	0x3b903ee5	0.004402029
10	0x3ab2b3eb	0.0013633942
11	0x3bc791fe	0.0060904017
12	0x38fea20a	0.00012141846
13	0x3b88be14	0.0041730497
14	0x3b159a93	0.002282773
15	0x3a398995	0.0007077691

neural_networks.3.linear_relu_stack.3.weight f4 [16, 16]
0	0xbe01f9a6	-0.1269289
1	0xbe93fd8e	-0.28904384
2	0xbf283829	-0.65710694
3	0xbe167fa7	-0.14697133
4	0xbe6671f5	-0.22504409
5	0xbf1a757d	-0.6033552
6	0x3b1d5240	0.0024005324
7	0xbd99da22	-0.07512309
8	0xbe85e26b	-0.26149306
9	0x3e0a211f	0.13489197
10	0xbd9a6624	-0.07539013
11	0xbf176947	-0.59145015
12	0xbdb5560a	-0.08854301
13	0xbf0eca1c	-0.55777144
14	0xbefcd023	-0.49377546
15	0xbed16440	-0.40896797
16	0x3de8799b	0.113513194
17	0xbe26828b	-0.16260736
18	0xbe9944af	-0.29935214
19	0xbd6c2a70	-0.05765766
20	0xbe126ff1	-0.14300515
21	0x3e4d6c83	0.20060925
22	0x3d1cb828	0.038261563
23	0xbea9c4c9	-0.33157948
24	0xbd9b68ef	-0.07588374
25	0xbd9184f6	-0.071054384
26	0xbd8b8f94	-0.06814495
27	0xbddf0dc8	-0.108913004
28	0xbeca64ef	-0.3953013
29	0x3e0c25eb	0.1368634
30	0xbe22f632	-0.15914229
31	0xbeacf4d7	-0.33780548
32	0xbf02a615	-0.5103467
33	0xbe90ed7b	-0.28306183
34	0x3ebaa1bf	0.36451527
35	0xbece6ec0	-0.4031887
36	0xbe601dfa	-0.21886435
37	0x3ee3b36f	0.44472834
38	0xbe648e41	-0.2231989
39	0xbef0ce4c	-0.47032392
40	0xbda6b912	-0.08140768
41	0xbf2b276e	-0.6685704
42	0x3ae9fb9d	0.0017851476
43	0xbed111d2	-0.40833908
44	0xbe902a0a	-0.28157073
45	0xbe4bf142	-0.19916251
46	0xbe868f5c	-0.2628125
47	0xbde47306	-0.111547515
48	0xbd562242	-0.052278765
49	0x40f6b985	7.7101464
50	0x411665a3	9.399814
51	0xbeeab622	-0.4584208
52	0x40b7718e	5.7326117
53	0x411b90ee	9.722883
54	0xbedbc8a9	-0.4292653
55	0xbced2ba3	-0.028951472
56	0xbde409e1	-0.11134697
57	0xc01ab963	-2.417565
58	0xbfa6daec	-1.303556
59	0x4052f341	3.296097
60	0xbe181a14	-0.14853698
61	0x40a98fcd	5.298804
62	0x40921902	4.5655527
63	0x40a353db	5.1039863
64	0xbfa41136	-1.2817752
65	0xbeed2201	-0.46315005
66	0xbf0bfe85	-0.5468524
67	0xbf76f164	-0.9646208
68	0xbed0843b	-0.40725884
69	0xbf1c276f	-0.6099767
70	0xbf78538f	-0.970025
71	0xbfc19adf	-1.5125388
72	0x3e02c084	0.12768751
73	0x3d4623e4	0.04837407
74	0x3dc6ca2a	0.097065285
75	0xbf232d72	-0.6374122
76	0xbfc3e2e1	-1.5303613
77	0xbeb38ecd	-0.35069886
78	0xbe85884d	-0.26080552
79	0xbe7a8603	-0.24465184
80	0xbf39ffbe	-0.72655857
81	0xbe08247c	-0.13295168
82	0xbdc16985	-0.094439544
83	0xbf6f0fb9	-0.93383366
84	0xbedae046	-0.42749232
85	0x3cb05bc4	0.021528132
86	0xbf215a61	-0.6302853
87	0xbf0342e5	-0.5127395
88	0xbcb37a49	-0.021908896
89	0xbf0b8cf4	-0.5451195
90	0xbe8b5993	-0.27216777
91	0xbe9f56b5	-0.3112084
92	0xbf1fb301	-0.62382513
93	0xbda25b08	-0.07927519
94	0xbe04b47f	-0.12959479
95	0xbe5d7962	-0.21628335
96	0xbf0dc14a	-0.5537306
97	0xbe916316	-0.2839591
98	0xbe61db2a	-0.2205626
99	0xbef2c1af	-0.47413394
100	0xbe268132	-0.16260222
101	0xbe99f334	-0.30068362
102	0x3bbfa02e	0.0058479523
103	0xbeae391a	-0.3402794
104	0xbe49684c	-0.19668692
105	0xbe11e3e5	-0.14247091
106	0xbeb8fc1f	-0.36129853
107	0xbe1eedc3	-0.15520386
108	0xbf1f19a1	-0.6214848
109	0xbea71a9e	-0.32637495
110	0xbe601d4c	-0.21886176
111	0xbe4114fc	-0.18855661
112	0xbef2ee6a	-0.4744752
113	0xbda1634d	-0.07880268
114	0xbe32e73d	-0.17471023
115	0xbf427612	-0.7596141
116	0x3dc7572c	0.097334236
117	0x3e3faee5	0.1871906
118	0xbeea8037	-0.45800945
119	0xbf0e45cd	-0.5557526
120	0xbe829aa5	-0.2550861
121	0xbe838f16	-0.25695103
122	0xbe5d7017	-0.2162479
123	0xbebc5126	-0.3678066
124	0xbf2cdd7d	-0.67525464
125	0xbe6586ae	-0.22414657
126	0x3dfa254c	0.12214145
127	0x3e5808c8	0.210971
128	0xbc99b1ce	-0.018761542
129	0xbf08c14d	-0.53419954
130	0xbee83965	-0.4535629
131	0xbf1f9cd7	-0.62348694
132	0xbea91425	-0.33023182
133	0xbe98c9a6	-0.29841346
134	0xbe08eaeb	-0.13370864
135	0x39113e75	0.00013851545
136	0xbe763fb8	-0.24047744
137	0xbe51a6a8	-0.2047373
138	0xbe6089c5	-0.21927555
139	0xbf4474ce	-0.7674073
140	0xbe700439	-0.23439111
141	0xbf18c4c0	-0.59675217
142	0xbea3bada	-0.31978494
143	0xbe97135e	-0.29506963
144	0x3dac4e4a	0.0841337
145	0x3dca010e	0.098634824
146	0xbc9d085b	-0.019169023
147	0xbea99cd6	-0.3312747
148	0x3ddf7943	0.10911801
149	0x3e51eabb	0.20499699
150	0xbe852f9a	-0.2601288
151	0xbe20bf50	-0.1569798
152	0xbdedcbfd	-0.11611173
153	0xbe8ddd9c	-0.27708137
154	0xbe0f69a4	-0.14005142
155	0xbf1e26a5	-0.61777717
156	0xbe4ad955	-0.19809468
157	0xbe2d6c03	-0.16935734
158	0x3d3606c1	0.044440035
159	0xbd121031	-0.035659973
160	0xbec067b4	-0.3757912
161	0x3c12ee07	0.008967883
162	0xbce30a6f	-0.027714936
163	0xbedc4c8c	-0.4302715
164	0xbdf77bf0	-0.12084186
165	0x3eff219c	0.4983033
166	0xbf006700	-0.50157166
167	0xbf321c13	-0.6957409
168	0xbe4f99af	-0.2027347
169	0xbe671b7a	-0.22569075
170	0xbef503c4	-0.47854435
171	0xbed2b212	-0.41151482
172	0xbf3d14e0	-0.7385998
173	0xbee8714a	-0.45398933
174	0x3c0d536f	0.008625849
175	0xbe7a4152	-0.2443898
176	0xbe4d953f	-0.20076464
177	0x3d60d9fc	0.054895386
178	0x3d9e338e	0.07724677
179	0xbe6efc43	-0.23338418
180	0xbe5a97d4	-0.2134698
181	0x3e959531	0.29215387
182	0xbee29a34	-0.44258273
183	0xbe8fdc65	-0.28097835
184	0xbe5222de	-0.20521113
185	0xbef14dd6	-0.47129697
186	0xbed061aa	-0.40699512
187	0xbf0b5b6d	-0.5443638
188	0xbdacf2a2	-0.08444716
189	0x3e1577cb	0.14596479
190	0xbee12a50	-0.43977594
191	0xbd94defd	-0.07269094
192	0x3e1d8ffc	0.15386957
193	0xc091d4e6	-4.5572386
194	0xc137168b	-11.443004
195	0xbe82ce28	-0.2554791
196	0xc040a7ec	-3.0102491
197	0xc0f011a5	-7.502154
198	0xbec2c5eb	-0.38041624
199	0x3da27643	0.07932713
200	0x3df52678	0.11970228
201	0xbff6ca00	-1.9280396
202	0x3ebc1a0a	0.36738616
203	0xbfb3e5aa	-1.4054463
204	0x3d16abe2	0.036785014
205	0xbfdc579c	-1.7214236
206	0xc03a7ba7	-2.9137971
207	0xbfc3a6b6	-1.5285251
208	0x3d8425b9	0.064525075
209	0xbea06884	-0.3132974
210	0xbe58d5cd	-0.21175309
211	0xbe003f6d	-0.12524195
212	0xbe7cc101	-0.24683
213	0xbdfe2155	-0.12408701
214	0xbd0d9dbc	-0.034574255
215	0xbe8a6312	-0.2702871
216	0x3ce50028	0.027954176
217	0xbe2b5abd	-0.16733833
218	0xbe55134d	-0.20808144
219	0xbf222f78	-0.6335368
220	0xbf073ba5	-0.52825385
221	0xbe88fd4a	-0.26755744
222	0xbe184605	-0.1487046
223	0x3a809837	0.0009810989
224	0x3df2483b	0.11830183
225	0xbebca81c	-0.36847007
226	0xbf34490e	-0.7042397
227	0xbe80bac3	-0.25142488
228	0x3eb5d5a5	0.3551456
229	0xbf58a6a4	-0.84629273
230	0xbda8f453	-0.08249726
231	0xbe2514c3	-0.16121201
232	0xbe18e1a5	-0.14929827
233	0xbec02839	-0.37530687
234	0xbe60abcd	-0.21940537
235	0xbef706c1	-0.4824734
236	0xbe47b692	-0.19503239
237	0xbf2f5825	-0.6849387
238	0x3dcec51d	0.1009619
239	0xbf225d82	-0.6342393
240	0xbec69780	-0.3878746
241	0x3e202298	0.15638196
242	0x3e5d472f	0.21609186
243	0xbe0eb362	-0.13935617
244	0x3d555b32	0.052088924
245	0x3f120843	0.57043856
246	0xbed8e160	-0.42359447
247	0xbeb16531	-0.34647515
248	0x3d75fbe2	0.060054667
249	0xbf68ca5f	-0.90933794
250	0xbecd7a5d	-0.40132418
251	0x3d35711e	0.04429733
252	0xbf00f73f	-0.5037727
253	0xbc2e6988	-0.010645278
254	0xbe6020c7	-0.21887504
255	0x3c4596c1	0.012059868

neural_networks.3.linear_relu_stack.4.weight f4 [16]
0	0x3e283278	0.16425502
1	0x3e176ec2	0.14788345
2	0x3e40d652	0.18831757
3	0x3ef2ca05	0.47419754
4	0x3de1d436	0.11026804
5	0x3d9225e9	0.07136137
6	0x3e2077ef	0.15670751
7	0x3de25963	0.110522054
8	0x3d92e80c	0.07173166
9	0x3dcc6506	0.09980206
10	0x3d5f83cf	0.05456906
11	0x3df86770	0.12129104
12	0x3eefb3c8	0.4681685
13	0x3deabfdd	0.11462376
14	0x3dbcdfa2	0.09222342
15	0x3e2a3456	0.16621527

neural_networks.3.linear_relu_stack.4.bias f4 [16]
0	0xbf44263d	-0.76620847
1	0xbf338173	-0.701194
2	0xbf5a2dfe	-0.8522643
3	0x3c2bd923	0.010488781
4	0xbf0b23c7	-0.54351467
5	0xbed75e30	-0.42064047
6	0xbf6c9009	-0.9240728
7	0xbf373648	-0.715672
8	0xbf3f8a40	-0.7482033
9	0xbf452625	-0.7701133
10	0xbf349e5c	-0.7055414
11	0xbf5747e3	-0.84094065
12	0x3c42ad5f	0.011882155
13	0xbf261dab	-0.6488902
14	0xbf8017df	-1.0007285
15	0xbf708cfc	-0.93965125

neural_networks.3.linear_relu_stack.4.running_mean f4 [16]
0	0xc19af202	-19.368168
1	0xc099c873	-4.805719
2	0xc0936054	-4.605509
3	0x437db115	253.69173
4	0xc1a3c9ee	-20.473598
5	0xc1304337	-11.01641
6	0xc133f794	-11.247944
7	0xc07eabe9	-3.9792426
8	0xc19e7940	-19.809204
9	0xc05af31a	-3.4210877
10	0xc0da9bbc	-6.8315105
11	0xc0e12048	-7.0351906
12	0xc33f4975	-191.28694
13	0xc132ccab	-11.174968
14	0xc196a689	-18.831316
15	0xbe1c2868	-0.15249789

neural_networks.3.linear_relu_stack.4.running_var f4 [16]
0	0x420a703e	34.60961
1	0x3f862a3f	1.0481642
2	0x4004cba3	2.074929
3	0x45e9fbfb	7487.4976
4	0x415d42e9	13.8288355
5	0x3fc7ade5	1.5599943
6	0x4051e244	3.2794352
7	0x40295aaf	2.64616
8	0x418a12ac	17.259117
9	0x3f9bda80	1.2176056
10	0x400b6000	2.1777344
11	0x4067defd	3.6229851
12	0x451301b4	2352.1064
13	0x40856407	4.1684604
14	0x4122d788	10.17762
15	0x41d7b989	26.965593

neural_networks.3.linear_relu_stack.6.weight f4 [1, 16]
0	0x3dcecc45	0.10097555
1	0xbdc692ec	-0.09695992
2	0x3d911208	0.07083517
3	0x3e7eef02	0.24895862
4	0x3dc0c604	0.094127685
5	0xbe0fa5cb	-0.14028089
6	0xbba19791	-0.004931398
7	0xbd81271b	-0.06306287
8	0x3d897f44	0.06713727
9	0xbe180d59	-0.14848842
10	0x3df87f22	0.12133624
11	0x3de7d821	0.1132052
12	0xbe84d042	-0.25940138
13	0xbdd32fd2	-0.103118554
14	0x3dd3bd7e	0.10338877
15	0x3c8c85de	0.017153677

neural_networks.4.linear_relu_stack.0.weight f4 [16, 1]
0	0x3fb5a1e7	1.4190034
1	0x3f4a4a13	0.7901928
2	0xbfe966ad	-1.8234459
3	0x412193cc	10.098583
4	0xba0ef44a	-0.0005453272
5	0xc0564879	-3.3481734
6	0xc04f958e	-3.243503
7	0x40a067e9	5.0126843
8	0xbfd1bcef	-1.6385783
9	0xbf6c6f3e	-0.9235724
10	0xbf4e9e8f	-0.8071069
11	0xbb31afdc	-0.0027112877
12	0x3a9a4f47	0.0011772894
13	0x3a9dfe3b	0.0012053916
14	0xc0ab42f2	-5.351922
15	0x40b52631	5.660912

neural_networks.4.linear_relu_stack.1.weight f4 [16]
0	0x3feb2597	1.8370847
1	0x3f4fae56	0.8112539
2	0x400f714b	2.2412899
3	0x40186ab0	2.3815117
4	0x3e60b010	0.21942163
5	0x40a678eb	5.2022605
6	0x400ef9f0	2.234005
7	0x4016041d	2.344001
8	0x401963c5	2.3967144
9	0x3fb35429	1.4010059
10	0x3fd12915	1.6340662
11	0xbbcabc29	-0.006186981
12	0x3f35f26b	0.71073025
13	0x3f5d2c76	0.86395967
14	0x3fea9454	1.8326516
15	0x40254b8a	2.5827355

neural_networks.4.linear_relu_stack.1.bias f4 [16]
0	0x4102f429	8.184609
1	0x40a402c6	5.1253386
2	0x408144c8	4.039646
3	0x40d6f066	6.7168455
4	0xbd2c4444	-0.04205729
5	0x3f8c68f5	1.096953
6	0x40819889	4.04987
7	0x40d0e501	6.5279546
8	0x408b6a0d	4.3566957
9	0x40dcfb9c	6.905714
10	0x40fe39b8	7.9445457
11	0x4087771b	4.2332892
12	0xbe1ca354	-0.1529668
13	0xbd276206	-0.040864967
14	0x4090320e	4.50611
15	0x409c91bc	4.89279

neural_networks.4.linear_relu_stack.1.running_mean f4 [16]
0	0x40d0d0b4	6.5254765
1	0x406a3d31	3.6599848
2	0xc106b6b5	-8.419606
3	0x423a59b0	46.587585
4	0xbb24bfd0	-0.0025138743
5	0xc1772ab3	-15.447925
6	0xc16edfd3	-14.929645
7	0x41b8ac51	23.084139
8	0xc0eeea73	-7.4661193
9	0xc08754f4	-4.2291203
10	0xc06b200b	-3.6738307
11	0xbb9dabd0	-0.0048117414
12	0x3bb1d602	0.005427123
13	0x3bb614b9	0.0055566696
14	0xc1c55630	-24.667084
15	0x41d04b00	26.036621

neural_networks.4.linear_relu_stack.1.running_var f4 [16]
0	0x3a7809d8	0.0009461916
1	0x399c1988	0.0002977366
2	0x3ace7ee2	0.0015754367
3	0x3d458f33	0.04823227
4	0x2f1a68e9	1.404349e-10
5	0x3badc695	0.005303214
6	0x3ba24d02	0.0049530277
7	0x3c4202aa	0.0118414555
8	0x3aa2523c	0.0012384127
9	0x39d05978	0.0003973951
10	0x399d3540	0.00029985048
11	0x30b68b81	1.3281892e-09
12	0x3033ea36	6.5452654e-10
13	0x303c9b4c	6.861469e-10
14	0x3c5d88c2	0.013521375
15	0x3c76cd32	0.015063571
