saved_models/black_scholes_deep_hedging/deep_hedger_bs.pth (torch, 201079 bytes, 330 tensors)

neural_networks.0.linear_relu_stack.0.weight f4 [16, 2]
00000000: e8e7 c63e 409e 133f f9a4 2dbc 17c6 1e3e
00000010: 369d ef3e 5b65 793e 1f98 6f3e 9876 1dbf
00000020: 3667 d4be 00b8 a0be 3447 04bf 34df 4abe
00000030: 4cd1 a3be 6851 b73e 5a99 6c3c 558f 09bc
00000040: 9695 db3e dc85 283f 55ee e93e 8c44 fcbd
00000050: 6f46 ebbd e819 c0be 2acb 883e 6ae0 18be
00000060: a77c 38bd 63cb cbbe afa3 1d3f 9dbd 073f
00000070: 6976 bf3e 31a9 31bf ac4c 03be f8e7 233f
0.38848805 0.57663345 -0.010598415 0.15505253 0.4679963 0.2435507 0.23397873 -0.61509085
-0.41484994 -0.3139038 -0.5167115 -0.19811708 -0.31995618 0.35804296 0.014440859 -0.008395989
0.42887563 0.65829253 0.45689645 -0.12317762 -0.114880435 -0.37519765 0.26717502 -0.14929357
-0.045040753 -0.3980361 0.61577886 0.530237 0.37395027 -0.6939879 -0.12822217 0.6402583

neural_networks.0.linear_relu_stack.1.weight f4 [16]
00000000: 0000 803f 0000 803f f682 833f 0000 803f
00000010: 4aed 873f 0000 803f 0000 803f 0000 803f
00000020: 4d50 783f 0000 803f 3d54 783f 0c1a 733f
00000030: d7a7 853f ef17 843f d80f 7e3f 0000 803f
1.0 1.0 1.0274341 1.0 1.061929 1.0 1.0 1.0
0.9699753 1.0 0.9700354 0.9496162 1.0441846 1.0319804 0.99242926 1.0

neural_networks.0.linear_relu_stack.1.bias f4 [16]
00000000: 0000 0000 0000 0000 c087 dcbc 0000 0000
00000010: 17d1 ebbc 0000 0000 0000 0000 0000 0000
00000020: 3efc f5bc 0000 0000 42fc f5bc 2e82 a73d
00000030: 1f51 77bc b10b a4bc d54b 87bb 0000 0000
0.0 0.0 -0.0269202 0.0 -0.028786225 0.0 0.0 0.0
-0.030027505 0.0 -0.030027512 0.08179127 -0.015095024 -0.020025106 -0.004128913 0.0

neural_networks.0.linear_relu_stack.1.running_mean f4 [16]
00000000: c4ff e43f 52ea 47bd e4ee 0940 f6eb 893f
00000010: ea89 f4bf 6e4a 18c0 0a9a bcbf 8432 883d
00000020: 36ce fc3f 5ea9 0640 6e6f 07bf 4c7d 9d3f
00000030: fb65 54be 1a7d 3540 f86d dc3f fe29 17bf
1.7890553 -0.04880745 2.1552057 1.0775135 -1.9104588 -2.3795428 -1.4734509 0.0665026
1.975043 2.1040874 -0.52904403 1.2303863 -0.20742027 2.8357606 1.722106 -0.5904845

neural_networks.0.linear_relu_stack.1.running_var f4 [16]
00000000: 3035 b52c 3035 b527 0c11 912d 0c11 912c
00000010: c4c8 c82d c4c8 c82c c4c8 c82c 8680 8025
00000020: 8d90 102d c4c8 c82c 8d90 102a 8680 8029
00000030: 0400 0000 dee1 612e dee1 612c 7c80 8029
5.1502344e-12 5.0295258e-15 1.6492162e-11 4.1230405e-12 2.2826525e-11 5.7066313e-12 5.7066313e-12 2.2291551e-16
8.217549e-12 5.7066313e-12 1.283992e-13 5.706637e-14 6e-45 5.1359687e-11 3.2099805e-12 5.7066304e-14

neural_networks.0.linear_relu_stack.3.weight f4 [16, 16]
00000000: 9ccd 43be bc24 163e 49d5 033e 4c3e d0bd
00000010: d428 82be 6a3e 42be 26c4 2bbe 98d8 34be
00000020: 3cf0 f43d 047b ce3d 47c3 013e a5e8 5cbe
00000030: db76 493d 950e 00bd 15f9 01be aa40 4cbe
00000040: 58be 00be 10cf e3bc ffd0 c9bd 9a70 443e
00000050: ebe3 013d 5c94 073e 7870 13bd 4034 b9bb
00000060: d271 60be 8889 243e 1440 a13d 15bb 3fbe
00000070: 16dd 3fbd ef5e 3abe 7c7d e73d e65d 143e
00000080: 1cfd 94bd 182b 25bd 007c 923b 08f1 abbd
00000090: 64f2 073e 8827 34bd 38d5 273e 70a3 c7bc
000000a0: 35b5 823e 94cf 2abe 7f61 6f3e bcc3 853d
000000b0: 6dca 23be 4d8e 7dbc d9d9 85be 5874 7bbd
000000c0: e047 6d3c d807 9cbd d439 80be 28c3 1f3d
000000d0: ae61 0fbe 888e a13d 7082 36be d283 01be
000000e0: c36a c9bd 0451 f43d 0a2e 8bbe 0a38 253c
000000f0: d96b 15be 9d4f 21be be0e 433e aca5 c3bd
00000100: 2812 c3bd 1098 fbbd 0d5f d73c 805a afbb
00000110: e7d0 5fbe 726e 07be 3cf8 aebd 5e5d 223e
00000120: 2a12 353e c40b 613e 30fe c5bd 891b 2b3e
00000130: a8d0 a1bd a1aa f43b f538 0b3e 4490 e6bd
00000140: 6c71 273e a008 d33c ab7b 9b3b f070 0f3e
00000150: 08f2 813e 3c7b c0bd 0ee2 4d3e 1232 263e
00000160: f807 4fbd 20f7 3b3d 02b8 07be feb7 bd3d
00000170: d554 0cbd d261 08bd 9b64 883e aaf4 253e
00000180: 402b a93c bc0b 44be 2892 5b3e c095 47bd
00000190: 045f b1bc 10aa 69bd 9ccf e3bd a80e 5e3d
000001a0: 23e4 8bbd e610 69be e01f 2d3b 04d2 903e
000001b0: 938a 65bc 1df6 b13c 9167 503e dec5 53be
000001c0: 04de e7bd 2059 fb3c 4dca 693e f07a a0bc
000001d0: fb40 b73c 827d 633e d0fa b83c b08a f7bd
000001e0: b406 5f3e 1294 033e d28f 293e dd8c ed3e
000001f0: ef82 9c3d b1c8 21be 1f3c 5e3e 44c8 5fbe
00000200: 4014 b1bb 8a05 2b3e 91a1 0b3e 64aa e83d
00000210: a3e4 37be cea3 0fbe 18ff 6bbd a0a5 ce3c
00000220: 7087 223e 607a 623e a40c 7d3e e5f6 85be
00000230: 586f 71bd 0bb5 153b 4b87 17be 7499 3dbe
00000240: f892 543e 04ad e4bd a674 04bd c62e 023e
00000250: cf79 03be 8093 c53b 18d7 fb3d f48a 013e
00000260: 87e8 16be 68ef 4abd bb35 de3c 15d5 9e3e
00000270: 9d3b a33c 3fce 8f3d 0539 e83c 923f 44be
00000280: e84e 0fbe a28e 3bbe ba69 cb3d f031 993d
00000290: d06d d9bd 747b ac3d a49c c4bd 68de 25bd
000002a0: bc83 8fbd 8e59 7c3e b095 e33c c185 04bd
000002b0: 6d28 553e 7aa9 843e c704 ebbd f434 94bd
000002c0: 28ae 4cbe 9e30 1cbe e51f 2d3d a062 fc3c
000002d0: 4f42 b03c 7496 f33d 6c73 b33d 882c 67bd
000002e0: 1823 3bbe dc2d 1fbe 38c2 423e e103 edbc
000002f0: e4fd 563e 29c3 dcbd 3619 153d 18d3 6e3e
00000300: 28a3 773d f4bd 513e 1713 08be 603a 053d
00000310: 736d 5fbd 388b 7bbe 6e0a 183e c0b3 c4bd
00000320: e8b7 b0bd 2895 3dbe 4028 5e3c d65e 003e
00000330: 74c0 43be a6e7 63bd ff3b 31be c4db 4dbe
00000340: d852 3bbd 10bd 343d 70cc 3e3e 6ec9 05be
00000350: ee1e bb3b 2a4e 623e a642 3abe c06a 6ebd
00000360: 8469 703e 62fd 6fbe 2e1c 39be 4c13 53be
00000370: 5ede 4d3e 8cf7 363e 775c 3bbc e032 913d
00000380: 502e 5cbd 38b6 913d d460 7dbe 589b 473e
00000390: 9a3b c6bd 3039 b1bc f4bc adbd b406 78be
000003a0: 12de 153c 480e b5bd 580d d23d 0ba1 72be
000003b0: 93b2 37be 2df4 52be 3b2e 23be 1ed5 5ebe
000003c0: 6082 6ebc 5814 7d3d 998b 6a3e f817 d1bd
000003d0: 9e65 86be 50ae 3fbd 9a7d 02be 9c5c 67be
000003e0: c6ca 0f3e dafc 10be 8609 3c3e e5d8 923e
000003f0: 442e c53d a15f 5bbe 6819 3cbe 00d5 49bb
-0.19121403 0.1466245 0.1287433 -0.10168132 -0.25421774 -0.18969122 -0.16774043 -0.17660749
0.119598836 0.10082057 0.12672149 -0.21573122 0.049185615 -0.031263907 -0.12692674 -0.19946542
-0.1257261 -0.027808696 -0.09854316 0.19183579 0.0317115 0.13240188 -0.03599593 -0.0056519806
-0.21918419 0.16068089 0.0787355 -0.1872371 -0.046841703 -0.18200277 0.11303231 0.14488944
-0.07274839 -0.0403243 0.0044703484 -0.083955824 0.13276058 -0.043983012 0.1638993 -0.024369925
0.25528875 -0.16680747 0.23377036 0.06531474 -0.15995188 -0.015475822 -0.26142767 -0.06139025
0.014482468 -0.076186836 -0.2504412 0.039004475 -0.14002106 0.07888514 -0.17823195 -0.12647942
-0.09834816 0.11929515 -0.27183563 0.010084162 -0.14591922 -0.15753026 0.19048592 -0.09553084
-0.095249474 -0.12284863 0.026290441 -0.0053513646 -0.21857034 -0.13225725 -0.08543441 0.1585593
0.1768271 0.21977144 -0.09667623 0.16709723 -0.07901126 0.0074666296 0.13595946 -0.11257985
0.16351861 0.025760949 0.004744967 0.14007926 0.25379968 -0.09398505 0.20105764 0.16230038
-0.05054471 0.045889974 -0.13253787 0.09263609 -0.03426059 -0.033296414 0.26639256 0.16206613
0.020650506 -0.19145101 0.21442473 -0.048726797 -0.021651752 -0.05704695 -0.11123583 0.054213196
-0.06830623 -0.22760352 0.0026416704 0.2828523 -0.014010089 0.021723801 0.20352007 -0.20680949
-0.11321643 0.030682147 0.22831078 -0.019589871 0.022369852 0.22215846 0.022580534 -0.120869994
0.21779901 0.12849453 0.1655877 0.46396533 0.07642161 -0.15799214 0.21702622 -0.21853739
-0.0054040253 0.16701332 0.13635851 0.113606244 -0.17958312 -0.1402733 -0.057616323 0.02522546
0.15871978 0.22116995 0.24711853 -0.26164928 -0.058944076 0.0022843506 -0.14797704 -0.18515569
0.20759189 -0.111658126 -0.032337807 0.12713155 -0.12839435 0.0060295463 0.12296885 0.12650663
-0.1473714 -0.04954472 0.02712523 0.31021944 0.019925887 0.0702176 0.028347502 -0.19164875
-0.13994944 -0.18316129 0.09932275 0.07480228 -0.10616648 0.08421984 -0.09600189 -0.040495306
-0.07007548 0.24643537 0.027781337 -0.03235412 0.20816202 0.2591055 -0.114755206 -0.072366625
-0.1998831 -0.15252921 0.042266745 0.030808747 0.021515993 0.11893931 0.08762249 -0.056438953
-0.18275106 -0.15544838 0.19019401 -0.028932514 0.20995289 -0.10779411 0.036400996 0.23322713
0.060458332 0.20482618 -0.13288532 0.032526374 -0.05454774 -0.24564826 0.14847729 -0.09604597
-0.08628827 -0.1851393 0.013559401 0.12536177 -0.19116384 -0.05564084 -0.17308043 -0.20103365
-0.045733303 0.044125617 0.18632674 -0.1306512 0.005710474 0.2210013 -0.18189487 -0.058207273
0.23477751 -0.23436502 -0.18077156 -0.2061283 0.20104358 0.17867869 -0.01143562 0.07089782
-0.053755105 0.071148336 -0.24743968 0.19492853 -0.09679337 -0.021633714 -0.084833056 -0.24221307
0.009147184 -0.088406146 0.10256451 -0.23694246 -0.17939214 -0.20600958 -0.15935604 -0.21760985
-0.014557451 0.06178698 0.22904815 -0.1020965 -0.26249403 -0.046797097 -0.12743226 -0.22593921
0.14042196 -0.14158955 0.18363008 0.28681102 0.09627965 -0.21423198 -0.18369067 -0.0030797124

neural_networks.0.linear_relu_stack.4.weight f4 [16]
00000000: 12fb 853f d152 833f e58d 7c3f d337 833f
00000010: 6164 7c3f ce7d 823f 134f 873f f45e 853f
00000020: be8e 833f 2e0b 513f 4d32 293f 9106 873f
00000030: f86b 403f a007 793f 1d75 873f 722c 8a3f
1.0467246 1.0259649 0.98654014 1.0251411 0.98590666 1.0194643 1.0571007 1.0419602
1.0277936 0.81657684 0.6609238 1.0548879 0.7516475 0.9727726 1.0582615 1.0794814

neural_networks.0.linear_relu_stack.4.bias f4 [16]
00000000: 110f e3b7 b743 b0b7 42fc f5bc 42fc f5bc
00000010: 2ab1 e3bc f231 40b7 e2b9 21b8 fd01 8eb8
00000020: 32b1 e3bc d184 dcb7 29fe 38b7 82c3 75b6
00000030: f729 1cb7 35b1 e3bc 0d37 71b8 164e 0cb8
-2.7067525e-05 -2.1012367e-05 -0.030027512 -0.030027512 -0.02779444 -1.1455721e-05 -3.8558508e-05 -6.771458e-05
-0.027794454 -2.6287891e-05 -1.1026431e-05 -3.6621645e-06 -9.308095e-06 -0.02779446 -5.7510148e-05 -3.3451324e-05

neural_networks.0.linear_relu_stack.4.running_mean f4 [16]
00000000: 2165 90bc c7a5 7abc 48de ae3b 06fd 573a
00000010: eaaf 5f3c 2e04 f83b 4a52 bd3c fe45 1b3d
00000020: 1c21 afbc c6a3 cf3c b03e 2dbb 52ec 1abb
00000030: 0ed1 273c e0f7 89bc ea97 9ebc c0f8 bf3c
-0.017626347 -0.015298313 0.0053365566 0.00082393026 0.013652781 0.0075688576 0.023110528 0.037908547
-0.021378092 0.025346648 -0.002643507 -0.0023639393 0.010242714 -0.016841829 -0.019359548 0.023434043

neural_networks.0.linear_relu_stack.4.running_var f4 [16]
00000000: b6b9 9927 eef2 d226 7c80 8024 9690 1020
00000010: 1a1e fe26 0c11 9124 3035 b526 9ea2 a227
00000020: dade be27 eef2 f226 9ea2 a222 7c80 8022
00000030: c0c4 4425 8d90 1027 b6b9 9927 7c80 8026
4.266738e-15 1.4637523e-15 5.572881e-17 1.2245114e-19 1.763295e-15 6.2912605e-17 1.2573814e-15 4.5140342e-15
5.297721e-15 1.685797e-15 4.4082366e-18 3.4830508e-18 1.7066952e-16 2.0062376e-15 4.266738e-15 8.91661e-16

neural_networks.0.linear_relu_stack.6.weight f4 [1, 16]
00000000: 2e0b 0236 1527 1e35 cf6a 95bd b951 3bbe
00000010: 493e ab3c 9fe3 6db7 4fef 5e38 82e2 3237
00000020: f994 86be 2b48 f336 c4e6 4db7 6749 f835
00000030: 0285 a036 84b5 afbd 69dd d4b8 1fe7 65b7
1.9378017e-06 5.891646e-07 -0.07295763 -0.18292893 0.020903723 -1.4179298e-05 5.3151798e-05 1.0662365e-05
-0.26285532 7.250366e-06 -1.22726815e-05 1.8498803e-06 4.7838557e-06 -0.08579543 -0.000101501886 -1.3703276e-05

neural_networks.1.linear_relu_stack.0.weight f4 [16, 2]
00000000: 92c0 463f db1a eebf da8a 2a3f 969d 04c0
00000010: 934f 053f bcf9 bcbf 9e28 22bf 7b34 ee3f
00000020: 4ae0 8e3f d23d 803f 1ed4 0540 db25 523e
00000030: 11ef 80c0 0011 8bbf 5c97 14c0 303b 8ebf
00000040: 0167 10bc 2a37 a23e dcc8 963f 550e 62be
00000050: 5aa2 b23b 2cec cd3d db74 6ec0 be27 a5bf
00000060: 356b b6be e12e 0840 f8ec 57c0 6e3e 0dc0
00000070: 5368 b2bf 85eb dc3e 8039 9dbf 8a24 9b3f
0.7763759 -1.8601946 0.6661812 -2.0721183 0.52074546 -1.4763713 -0.63343227 1.8609766
1.1162198 1.0018866 2.0910716 0.20522253 -4.029183 -1.0864563 -2.3217382 -1.1111813
-0.008813621 0.31682712 1.1780047 -0.2207578 0.0054514827 0.10054812 -3.7258823 -1.2902753
-0.35628667 2.1278613 -3.3738384 -2.2069354 -1.3938087 0.43148437 -1.2283173 1.2120526

neural_networks.1.linear_relu_stack.1.weight f4 [16]
00000000: 0e56 a23f 1565 8c3f 9480 623f fbad 7f3f
00000010: 23e3 893f 70fa d33f b0c4 de3f cc42 ad3f
00000020: 2181 1c3f 1c88 9a3f 2335 1e3f 6542 d13e
00000030: 8165 c63f 5ed1 c43f 0543 f73f 8349 8a3f
1.2682512 1.0968348 0.88477445 0.9987485 1.0772442 1.6560802 1.7403774 1.353601
0.61134535 1.2072787 0.6179983 0.40870968 1.5499727 1.5376394 1.9317328 1.0803684

neural_networks.1.linear_relu_stack.1.bias f4 [16]
00000000: cf42 9240 2ee9 8340 7186 4340 7647 8840
00000010: 7a60 8340 ec7f 0240 b6ff 6e3e 4086 ff3f
00000020: 47e5 debd 7d38 9940 0bfe 8fbd b176 08c0
00000030: d8ad 8940 3a05 df40 9c2e ab40 cf80 3c40
4.5706553 4.1222143 3.0550807 4.2587233 4.105527 2.0390577 0.23339733 1.9962845
-0.10883575 4.7881455 -0.07030877 -2.1322443 4.302471 6.969388 5.3494396 2.9453619

neural_networks.1.linear_relu_stack.1.running_mean f4 [16]
00000000: 49dd 2740 a64e 0040 fbe7 d13f ba5c fbbf
00000010: 08de b440 10ba 1b41 93e4 98c1 a920 34c1
00000020: 2bcd f83d 1bff a940 0cc1 9c3d 9a8b 8ec1
00000030: fff0 0dbf 824a 85c1 a057 c6c0 2032 a1c0
2.6228812 2.0048003 1.639892 -1.9637673 5.6521034 9.732925 -19.111609 -11.257974
0.12148508 5.312391 0.07654008 -17.818165 -0.55445856 -16.66138 -6.1981964 -5.037369

neural_networks.1.linear_relu_stack.1.running_var f4 [16]
00000000: dbb4 8b38 e47d 4d38 7903 fb37 5301 3a38
00000010: 5274 1039 737d fd39 5a60 eb3a 7a3c 1c3a
00000020: 249b 1332 eff2 2039 4ae2 6131 0441 c93a
00000030: 4c2f 6c37 9bee a43a f754 6139 0a08 2f39
6.6617235e-05 4.8993053e-05 2.9923149e-05 4.434709e-05 0.00013776243 0.00048349387 0.0017957792 0.00059599394
8.591801e-09 0.00015349289 3.287044e-09 0.0015354459 1.4077708e-05 0.0012583317 0.00021489324 0.00016692295

neural_networks.1.linear_relu_stack.3.weight f4 [16, 16]
00000000: 6f6d dd40 7bdb 3940 0775 ab3f d622 d5bf
00000010: 5b26 8940 121e b33f 7041 bdbf 4620 03c0
00000020: a485 863d 5a32 bf40 9b05 37bc 0fea 33c0
00000030: efbb 3ac0 11ee 55c0 0fd4 49c0 944e debf
00000040: ae46 37bf bac1 79bf e962 37bf 8f52 aa3e
00000050: 9a8d 0bbf 545e 6fbf 087c cbbd 6347 073f
00000060: b4fe ae3b 36cd 19bf 10c7 a93b f6ac f4ba
00000070: 3970 c33e aad4 003f 136e 993e 01e2 fd3d
00000080: 4151 93be c33b f5be 69fd 85be 0d53 90be
00000090: ca0f ddbd dce8 8fbe 9505 febd 597f ba3d
000000a0: 6ba5 463d 952b f03d 43ed 35be 2989 cbbd
000000b0: 7d80 503e 318b 20bd 1001 fabd 61c1 75bd
000000c0: acb0 d2bd 8db3 8abd faef 2dbe 9aba 3dbf
000000d0: a621 b6be 0eb6 26be ea82 a8be 9477 a1be
000000e0: 6023 313e 258f b6be 531d b9be 877f 26bf
000000f0: 0fc0 b7be e4ec 84be 745d 5a3e c35c 93be
00000100: a541 9bbe 7cae 81be 6cd7 87bd 3ccf cebe
00000110: a85c 6fbe 6dca 343d b8b8 1ebe 875f d1be
00000120: bc87 9f3d e20e 5dbe 3f71 9c3d 4dac 84bd
00000130: 02a9 3bbd 0da5 183c 7940 193d 67f6 8cbe
00000140: e6a4 31be 4192 00bf 88f0 08bf 1494 e8bd
00000150: fe39 a8be e128 d7be 91ff d2be d4fe e43d
00000160: a958 a93c bd4d 9abe ba9a 0f3d ad34 043d
00000170: d2a2 23bc 5471 a03d ba79 88be 9aab 953d
00000180: 2b7f 9fbe 65c9 30bf b2cc e1be a0ba 38be
00000190: f822 ccbe 4e26 8ebd 32e2 8bbe c179 bbbe
000001a0: a234 84be 708f e6bc 5127 81bd 306c bbbe
000001b0: 3b9c f8bd 547b 4ebe 544b efbe e96a cfbe
000001c0: f9bf 97be c9e0 88be 77ec d1be 10e1 b23d
000001d0: f6ab 98be 4aaf fe3d 9e2d 68be 13b7 d8be
000001e0: eaec 14bd e81e 88be 79c3 85be a335 c63d
000001f0: dd08 3ebe 79a4 b7bd a033 21be 8a2b a3be
00000200: 40d0 b2be 9d6f 94be 9442 edbe 3024 69bd
00000210: 7405 59be c30f 49be 8287 24be 9eed a9be
00000220: 2281 413e ef01 41bd bd6e 3f3d dc47 d33c
00000230: ab02 9fbe 6d48 353d 283c 9ebe 9236 57be
00000240: f642 91bc 991a ad3e 7b54 6b3e 34ac 11be
00000250: b0af f1bd b709 a13e 292c 803e ecd5 6f3e
00000260: 37ed 30be 95fe ccbd a1c6 a3bd cac0 2ebe
00000270: e179 293d 5605 e73d 6042 26be ae11 d8bd
00000280: 5244 313e d1d0 d5bd e21c fcbd 4908 3fbf
00000290: 57b6 39be 248e 4abe ab3d d4be a40e 2ebf
000002a0: b158 34be dae0 b3bd a162 bbbe ff19 0bbf
000002b0: 2733 0cbf 63d4 b4be 0c9a b7be b9d4 44bf
000002c0: b999 b4bf e4d5 17bf f4c7 bfbe 0285 8540
000002d0: 2c4c e6bf 380f 0bc0 5bc9 43bf 77db ba3e
000002e0: f635 5bbe 75b0 8dbf 5972 783c cf57 013f
000002f0: 72db c540 17af ff40 0af7 0341 96ef 3a40
00000300: f5ed 31be 8d96 cbbd aaac a2bd 216c bebe
00000310: f182 abbd 263e aabe e809 f6be 2f78 9fbe
00000320: 485e 86bd 105d 81be 33ff 33be 7602 b2be
00000330: 5c65 0cbf ddc1 8b3c 3326 463e ebb4 83be
00000340: 6634 01bb e0c5 93be f42d 96be 1ffb 99be
00000350: c6b6 b83d 37b4 14bd 00de 083d 9f2d e4bd
00000360: 75f9 fcbd 3b49 05be c74e aa3d 1815 993d
00000370: eaaa babe d183 9fbe b8c1 4abd b766 9cbd
00000380: d77b 2dbe c10d 06bf 852f 13bf ffd1 59be
00000390: fe8b 94bd f1f8 a5be 4b06 94be 9fba fcbc
000003a0: a9ef 2cbe 48aa 5dbe 0b4d 0d3e 19dc f5bd
000003b0: 2d20 e9be 0aa2 88be 180f 37bd baf9 59be
000003c0: 07a3 143e 4f22 4dbd dc95 25be a36b 12bf
000003d0: cf0c 2abe ab50 c4bd 679e 8bbe c3ed 15bf
000003e0: 275d 53bd bb52 9e3e a786 b63d ba2a fdbc
000003f0: 75e4 d9be 6248 5dbe 442f 1dbf c832 f3be
6.9196086 2.904021 1.3395089 -1.6651256 4.285932 1.3993552 -1.4785595 -2.0488448
0.06568459 5.9748964 -0.01117077 -2.8111608 -2.9177206 -3.3426554 -3.153568 -1.736773
-0.71592224 -0.9756123 -0.716353 0.33266112 -0.5451294 -0.9350331 -0.099357665 0.528433
0.0053404216 -0.6007875 0.005181201 -0.0018667269 0.38171557 0.503245 0.29966792 0.123966224
-0.2877293 -0.47897157 -0.261699 -0.28188363 -0.10794027 -0.28107345 -0.124034084 0.09106321
0.0484976 0.117270626 -0.1776629 -0.099382706 0.20361514 -0.039195243 -0.12207234 -0.059998874
-0.10287604 -0.06772528 -0.16986075 -0.74112856 -0.35572547 -0.16280386 -0.3291238 -0.31536543
0.1729865 -0.35656086 -0.36155185 -0.6503834 -0.35888717 -0.25961983 0.21324712 -0.2878171
-0.3032352 -0.25328434 -0.06632885 -0.40392482 -0.2337519 0.04413836 -0.15500152 -0.40893194
0.07789561 -0.21587709 0.076387875 -0.06478176 -0.045815475 0.009316695 0.037415 -0.2753174
-0.1734806 -0.50223166 -0.5349202 -0.11356369 -0.32856745 -0.42023376 -0.41210607 0.11181417
0.02067216 -0.30137435 0.035059668 0.032276798 -0.00998755 0.078341156 -0.2665537 0.07308121
-0.3115171 -0.69057304 -0.44101483 -0.18039942 -0.3987043 -0.069409 -0.2732101 -0.36616328
-0.25821406 -0.028144568 -0.06306327 -0.36605978 -0.121391736 -0.20164233 -0.46737158 -0.40511253
-0.2963865 -0.26733997 -0.4100072 0.087343335 -0.29818696 0.124357775 -0.22673652 -0.42327175
-0.03635875 -0.2658608 -0.26125696 0.09678199 -0.18558069 -0.089669175 -0.1574235 -0.31869155
-0.34924507 -0.28991404 -0.46339858 -0.056919277 -0.21193486 -0.19634919 -0.16067317 -0.331891
0.18896917 -0.047120985 0.046736468 0.025791101 -0.31056723 0.044258524 -0.3090527 -0.2101691
-0.017732125 0.33809355 0.22981445 -0.14225847 -0.11801088 0.31452724 0.25033692 0.23421448
-0.1727799 -0.10009495 -0.0799687 -0.1706573 0.041376 0.112803146 -0.16236258 -0.10550247
0.17311218 -0.10440219 -0.123101965 -0.7462202 -0.18135963 -0.19780785 -0.414533 -0.6799109
-0.17611958 -0.087831214 -0.36598685 -0.5433654 -0.5476555 -0.35318288 -0.35859716 -0.7688709
-1.4109412 -0.59310746 -0.3745724 4.1724863 -1.7991996 -2.1728039 -0.7647912 0.36495563
-0.21407303 -1.1069475 0.015163981 0.5052461 6.1830378 7.9901233 8.247812 2.9208732
-0.1737593 -0.09940825 -0.07943089 -0.3719187 -0.083745845 -0.3325054 -0.48054433 -0.3114638
-0.065609515 -0.25266314 -0.1757782 -0.34767503 -0.5484216 0.017060215 0.1935051 -0.25723967
-0.001971507 -0.28861904 -0.29331934 -0.30074403 0.09019236 -0.03630468 0.03341484 -0.11141514
-0.12352268 -0.13016216 0.08315807 0.074747264 -0.36458522 -0.31155255 -0.04950115 -0.07636779
-0.16941772 -0.52364737 -0.57494384 -0.21271513 -0.07253264 -0.3241649 -0.2891105 -0.030850707
-0.16888298 -0.21646988 0.13798921 -0.12004871 -0.4553236 -0.26686126 -0.04469213 -0.2128667
0.14515315 -0.050081547 -0.16170448 -0.5719549 -0.16606449 -0.09585699 -0.2726929 -0.5856592
-0.05160251 0.30922493 0.08912402 -0.030904163 -0.4255711 -0.21609643 -0.61400247 -0.4749968

neural_networks.1.linear_relu_stack.4.weight f4 [16]
00000000: 97c7 df3e 2853 243e 50b0 013e a46d 863e
00000010: a85d 9d3e 6ee4 403e 6bff 863d d1fc 163e
00000020: 09a2 d43d 79a0 d03a a4ed 213e ea94 b63e
00000030: b514 673e fc20 af3d 9fb7 fe3d 8a73 eb3d
0.43706962 0.16047347 0.12664914 0.26255524 0.30735517 0.18837139 0.06591686 0.1474488
0.10382468 0.0015916965 0.15813309 0.35660487 0.22566493 0.08551213 0.12437367 0.11496647

neural_networks.1.linear_relu_stack.4.bias f4 [16]
00000000: a426 00be 51dc 4abf 1b0d 03bf 4ba9 2bbf
00000010: c178 40bf f18e 25bf 5f2e 2cbf 0803 2ebf
00000020: d830 3dbf de3b dcbe 0c69 58bf 5e26 c13d
00000030: b209 36bf 70cd 17bf 4d69 3abf c3c8 69bf
-0.1251474 -0.79242426 -0.5119187 -0.67055196 -0.75184256 -0.64671236 -0.67258257 -0.67973375
-0.73902655 -0.43014425 -0.8453529 0.09431146 -0.71108544 -0.5929785 -0.72816926 -0.91321963

neural_networks.1.linear_relu_stack.4.running_mean f4 [16]
00000000: a88c d441 fbc4 e1c0 9028 bdc0 b585 3ec1
00000010: b284 fec0 03b3 17c1 b24e 6ec1 c61f 1dc1
00000020: b01a 21c1 3207 ca3f 2902 78c1 d124 fb42
00000030: f171 04c1 2229 02c1 dc9d 49c1 ed00 35c1
26.56868 -7.0552955 -5.9112015 -11.907643 -7.953698 -9.481204 -14.894213 -9.820257
-10.0690155 1.5783446 -15.500527 125.57191 -8.277818 -8.135042 -12.60104 -11.312726

neural_networks.1.linear_relu_stack.4.running_var f4 [16]
00000000: 13fa 0c45 372e 7342 452f 8a3f 2858 243f
00000010: 8d06 613d c7f8 4740 139f 093f 2bb3 e23d
00000020: 6d8b 273d cc70 973e fefc 8241 6af6 1f45
00000030: 74b7 ba3e 39ce 323f 8e99 b63d 362f 8441
2255.6296 60.79513 1.0795676 0.64197016 0.054937888 3.1245592 0.53758353 0.1106933
0.04090445 0.29578245 16.373531 2559.401 0.3646809 0.6984592 0.08916007 16.523052

neural_networks.1.linear_relu_stack.6.weight f4 [1, 16]
00000000: f472 2e3e a324 fcbd 12d0 8dbc 9ad6 8bbd
00000010: 7424 1abe 72b1 fb3d bc95 e3bb 991e 103e
00000020: 3a53 093d 00a3 97bd ab85 5bbb 0819 52be
00000030: 352f acbc 4e7b b73d dbd6 de3d 5caf 2e3e
0.17036039 -0.123116754 -0.01731113 -0.068280414 -0.15052968 0.122897044 -0.00694534 0.14074172
0.033526637 -0.07404137 -0.003349642 -0.20517361 -0.021018604 0.089590654 0.10880824 0.17059082

neural_networks.2.linear_relu_stack.0.weight f4 [16, 2]
00000000: f387 5841 8f3b 3fbc 9f4e fa3e 95d2 3c3f
00000010: 55de aec1 3167 adbd 11f6 7241 02ff 0c3e
00000020: e3af cd41 6080 3cbc ae39 d741 a8d6 86bc
00000030: 3b04 4bba 13aa 323f d508 ddc1 7d82 f13d
00000040: f294 72c0 eb15 a0bb eb32 ea3e 5007 f43e
00000050: 5ce8 c5bf e7aa 74bd 7553 adbe fa53 283f
00000060: 9fd9 4b3f aaf2 14bf b564 0342 91a3 323d
00000070: 9d10 523e 8414 4abf e9e0 833e 855e 6dbf
13.533191 -0.011671915 0.48888108 0.7375882 -21.85856 -0.08466948 15.185075 0.13769153
25.710882 -0.011505216 26.903164 -0.016459778 -0.0007744466 0.6979076 -27.629313 0.11792467
-3.790341 -0.0048854253 0.45741972 0.4766183 -1.5461535 -0.059733298 -0.33852735 0.6575314
0.7962894 -0.58182776 32.848347 0.04361302 0.2051415 -0.78937554 0.2575753 -0.9272235

neural_networks.2.linear_relu_stack.1.weight f4 [16]
00000000: d7be c53e 7850 523d 994a dd3f e10b a83f
00000010: a7aa c53f eb07 973f 4573 863d 7d19 b63f
00000020: a2b0 3d3d aee4 af3d e88c 243c a994 673d
00000030: 4803 0bbd d0a7 e93f a363 31ba 68d6 d23c
0.38622162 0.051346272 1.728839 1.3128625 1.5442704 1.1799291 0.06564955 1.4226528
0.04631103 0.08588539 0.01004336 0.056538258 -0.033938676 1.8254337 -0.0006766861 0.025737002

neural_networks.2.linear_relu_stack.1.bias f4 [16]
00000000: 6362 fc3f 5fb0 97be 30d9 1640 0e87 9d3f
00000010: 43b2 5040 9429 9e40 1c63 cfbe 1801 5540
00000020: 307d 6ebf 5df0 fdbe 9041 39bf d3a5 a2be
00000030: 23b6 27bf 830d d640 6ffd 57bf c552 71bf
1.9717525 -0.29626748 2.357006 1.230684 3.2608802 4.9425755 -0.40505302 3.3281918
-0.9315977 -0.49597445 -0.72365665 -0.3176714 -0.65512294 6.6891494 -0.84371084 -0.9426692

neural_networks.2.linear_relu_stack.1.running_mean f4 [16]
00000000: 7e45 7942 9041 2840 d969 c9c2 2500 8c42
00000010: 8aca ec42 e2c5 f742 a11c b53e 435b fec2
00000020: 63a9 8bc1 c16e 1640 29d4 e4c0 fa75 9cbf
00000030: baa0 5740 0d4b 1743 cd63 0a3f 8e23 363f
62.317863 2.6290016 -100.70673 70.00028 118.395584 123.88649 0.35373405 -127.178246
-17.457708 2.35051 -7.1508985 -1.2223504 3.369185 151.29317 0.54058534 0.71148

neural_networks.2.linear_relu_stack.1.running_var f4 [16]
00000000: eee1 203d df3f 633b 81e9 d83d 09f3 583d
00000010: 2292 113e 1233 1f3e c68a 283b 18aa 233e
00000020: 2dea 4c3b a82c ce3a 1e8a 303a 4e52 013b
00000030: 0ae7 a03a 0a8c 703e 484f 483b f77c 893b
0.039277963 0.0034675521 0.10591412 0.05296615 0.14215901 0.15546826 0.002571748 0.15982854
0.003126751 0.0015729861 0.0006734448 0.0019732895 0.0012275886 0.2349092 0.0030564833 0.004195805

neural_networks.2.linear_relu_stack.3.weight f4 [16, 16]
00000000: d5ad b2be 05fd 71bd f542 fa3d 4a79 8dbf
00000010: f633 2ac0 7970 a2bf 0b4c c3bc bb33 8740
00000020: 654c 9a3d c142 183d bd45 343d aef2 66bc
00000030: 896b f4bd 9f5d 00c1 7733 8b3b a3b9 d3bd
00000040: a1a6 42be 1a49 2bbe ac2c 43bd ca75 dbbe
00000050: 144b 7abe 5849 0bbe 7fbc 193b d689 d93d
00000060: 13d4 96be c38c 3dbe 6a31 593d 2ef2 ebbc
00000070: 171d 753d 2a96 96be 2368 ac3c acc1 8f3d
00000080: 7715 5dbe 1f24 e9be f8d4 50bd 5ad8 dbbe
00000090: 883e 11be 843c e13d 20d2 43be da94 143e
000000a0: dd47 9cbe 65c7 d7be f889 75bd 9a73 edbd
000000b0: 56f2 eb3d 5583 4cbe 9e70 aabd d7c4 1e3d
000000c0: f91d b4be d51c 12bd 2c51 8e3d 48ec 69be
000000d0: 02bd 98be 8701 fdbe 1193 483d d6d8 993e
000000e0: 596f ecbd 3dcb 04be 092d 2f3d 0d32 93be
000000f0: ae43 04be 6de0 32be 7230 17be 344c ed3d
00000100: dffb fabe 4814 59be 446a b4be cdca cebe
00000110: ea45 953d 49ca b2be 615b dfbc 15b8 d8be
00000120: 569d 193e 6000 af3d 49dd aa3c 64fc 593d
00000130: 8367 f1bd 9832 ecbc ecc1 17be b830 a7bc
00000140: d310 8cbe 177d f2be edfb ccbd 9722 dcbe
00000150: 3b0d c1be 0f1c ecbe 9363 43bd 4169 8539
00000160: 707f 4ebe 400e d0bd 45cd 51be 1226 9bbb
00000170: 1c24 7b3c 5368 37be 5257 a8be e6d0 28bd
00000180: d057 e2bd 8147 a8bb 930e 79be ca2c 123e
00000190: 401c 983e 8336 1b3f 5adb dbbc 3c59 9ebd
000001a0: 1c88 e9bd 4f2c 9abc 9cbc 16be 7a74 413e
000001b0: 5305 98be de72 183f 4269 6fbe 4c2a 02bf
000001c0: e17a c2be 2631 61be 7d71 f03d 56c6 fdbd
000001d0: bae0 72be 12dc e0bd b28f f9bc 5424 88be
000001e0: 44c5 e83d d9e2 3d3c 4aae 63bd da56 133e
000001f0: bd37 09be 2fe7 fabd 5f9f 0ebe 2412 94be
00000200: c7aa 013f 7ad1 baba 7d0a f8bf 7e75 673b
00000210: 1b8a 7c40 d083 b73f 090e 8a3b 9387 10c0
00000220: 6f14 a1be e438 203b 11e6 61be 1f9c 36bc
00000230: 48f4 e0bc 4890 d940 2346 9f3d 9286 ad3c
00000240: 1773 6dbe 6c9f 813d c036 a7be f948 9dbe
00000250: 4604 1bbd 3d67 b1be 32e5 aebe b3b4 c3be
00000260: 1208 d0be 62b0 c0bc a079 c1be 4f26 9abd
00000270: 95ce 1cbf 7943 78be 021b a8be e3f8 c8be
00000280: 782b debe 6f4f d3bd 31a9 5fbc be7d debe
00000290: 5600 0e3e e41f 0a3e bf68 6b3c 1888 a1be
000002a0: 5ce6 51be 45ae aebe 70ed 173d 7e83 29be
000002b0: 645a d7bc 9857 7b3d a57c cbbd 974b 803e
000002c0: 7c5c f83d 074e 9cbd b31f c3be 339e e1bd
000002d0: 82e9 edbb 0f61 af3e 6134 b4be 9163 21be
000002e0: 103a 87be c136 47be cf9d 64be 800b a4be
000002f0: ca3a 38be d1a3 5b3e 26ef dc3b e5af 4a3d
00000300: febe b3be e139 72be 5f95 debc 35ae afbe
00000310: 193c 0fbe 1830 25be dbf9 09bf 103a dfbd
00000320: fd3a 063d 65da a9be 6381 4f3e 6a11 f8be
00000330: 2310 e6bc b762 b63e 4331 e4ba faab 1d3e
00000340: e880 b3be 6ed3 2ebe dc95 88bb a4cc eabe
00000350: dd86 21be f812 f03d d726 33be db40 fbbd
00000360: e677 9bbc 7c84 5dbb 0993 0f3e 167a 763d
00000370: 5c84 533d 5e23 d53d 64d4 10be 653b 32be
00000380: dd12 cabd 5f70 433e 4166 5fbf 1236 dbbe
00000390: 5c3f 833d 4f2a 9abd 3adf c8bb 9a7e 18bf
000003a0: 0a07 02bf 34e3 673c 85a1 66be 1e01 133b
000003b0: 50c4 14be a0c0 5d3d 109a e33c 1e8d e1be
000003c0: 6e82 86be 89aa adbb 676e a2bd 0b38 4dbe
000003d0: ce1b 153d 83ca 1e3e 7bdb 12bc 4553 d33c
000003e0: dc2c a23d 697a c8be e9ad bebd 8688 bebe
000003f0: 7b84 4abe 465c 93bd e762 0dbe 730a 1f3e
-0.34898248 -0.05907919 0.12219802 -1.105264 -2.6594214 -1.2690574 -0.023839971 4.2250648
0.07534102 0.037173036 0.04401182 -0.014095945 -0.11934573 -8.022857 0.0042480784 -0.10338142
-0.19008876 -0.16727105 -0.047650024 -0.42863303 -0.24442703 -0.13602197 0.00234583 0.10621993
-0.29458675 -0.18510728 0.05302564 -0.028802004 0.059842195 -0.2941144 0.02104575 0.07019362
-0.2159022 -0.4553537 -0.050984353 -0.429385 -0.1418401 0.109978706 -0.19123125 0.14509907
-0.30523577 -0.42144313 -0.05994603 -0.11594315 0.11520831 -0.19971974 -0.08322261 0.03876194
-0.35179117 -0.035672028 0.06949076 -0.2284404 -0.29831702 -0.49415228 0.04896838 0.30048245
-0.115446754 -0.12968154 0.04276756 -0.28749123 -0.12916443 -0.17468424 -0.14764574 0.115868
-0.49020287 -0.21199143 -0.35237324 -0.403891 0.07288726 -0.34919956 -0.027265253 -0.42327943
0.15001425 0.085449934 0.02085747 0.053219214 -0.117873214 -0.028832719 -0.14820069 -0.020408973
-0.27356586 -0.4736106 -0.100089885 -0.4299514 -0.37705407 -0.46115157 -0.047702383 0.00025446157
-0.20165801 -0.10158968 -0.2048846 -0.004734763 0.015328433 -0.1791089 -0.3287912 -0.041214846
-0.11051905 -0.005135477 -0.24321966 0.14274898 0.29709053 0.60630053 -0.026837993 -0.07731864
-0.11402914 -0.018819956 -0.14720386 0.18892089 -0.29691562 0.59550273 -0.23379996 -0.5084579
-0.37984374 -0.21991405 0.11740396 -0.12391345 -0.23718539 -0.10979475 -0.030464027 -0.26590216
0.113657504 0.011589729 -0.055586137 0.143886 -0.13400169 -0.12251126 -0.13927983 -0.2892009
0.5065121 -0.0014253103 -1.9378201 0.0035317834 3.9459293 1.4337101 0.004213099 -2.2582748
-0.31460902 0.0024447972 -0.2206042 -0.011145621 -0.027460232 6.7988625 0.077770494 0.021182332
-0.23188435 0.063292354 -0.32658958 -0.30719736 -0.037845872 -0.34649077 -0.34159237 -0.382238
-0.40631157 -0.023521606 -0.37788105 -0.07526838 -0.6125272 -0.24244489 -0.32833105 -0.39252385
-0.4339254 -0.10317885 -0.013651178 -0.4345531 0.13867316 0.13488728 0.014368235 -0.31549144
-0.20498031 -0.34117332 0.037091672 -0.16554067 -0.026288219 0.061362833 -0.099358834 0.2505767
0.12127015 -0.0763207 -0.38110122 -0.11016502 -0.0072605023 0.34253737 -0.35196212 -0.15760638
-0.26411486 -0.1945448 -0.22325824 -0.32040024 -0.17991176 0.2144921 0.006742376 0.049484152
-0.35106653 -0.23654892 -0.027170835 -0.34312597 -0.13987769 -0.16131628 -0.53896874 -0.108997464
0.0327711 -0.33174434 0.20264201 -0.48450786 -0.028083866 0.35622188 -0.0017409701 0.15397635
-0.35059285 -0.17072842 -0.0041682553 -0.45859253 -0.15774103 0.11722368 -0.17495285 -0.122682296
-0.01897807 -0.003380089 0.14020933 0.060175024 0.0516399 0.104071364 -0.1414352 -0.1740547
-0.09866879 0.19085835 -0.872654 -0.4281469 0.06408569 -0.07527601 -0.0061301263 -0.5956818
-0.5079199 0.014153291 -0.22522552 0.0022431086 -0.14528012 0.05413878 0.027783424 -0.44052976
-0.26271385 -0.0052998704 -0.07931214 -0.2004091 0.03640347 0.1550694 -0.008963461 0.025796542
0.079187125 -0.39155892 -0.093105145 -0.37213534 -0.197771 -0.07195334 -0.1380726 0.1553133

neural_networks.2.linear_relu_stack.4.weight f4 [16]
00000000: fa1f ee3e 5595 873d c094 2a3e bb3f 1a3e
00000010: dcbe a23e f6a5 003e 5d5b 1b3e 5f08 ba3c
00000020: 2641 e93e e787 da3d 6494 833e 1916 2e3e
00000030: b87b 153e 1e77 4a3d 69e6 c13d 22df 973e
0.4650877 0.0662028 0.16658306 0.15063374 0.3178624 0.12563309 0.15171571 0.02270907
0.45557517 0.106704526 0.2569915 0.17000617 0.14597976 0.049430005 0.094677754 0.29662424

neural_networks.2.linear_relu_stack.4.bias f4 [16]
00000000: 57b5 033c 93af 3abf 1f3d 0ebf e625 23bf
00000010: 3039 70bf d98e 4cbf 3f69 64bf 7d1c 36bf
00000020: d63c e4bb d2fc 2bbf 13e1 43bf ba5d 2cbf
00000030: 6bb7 46bf 63c3 23bf 8e6a 40bf a3c0 21bf
0.00803884 -0.72924155 -0.55562013 -0.63729703 -0.9383726 -0.7990547 -0.8922309 -0.7113722
-0.00696526 -0.6718265 -0.7651531 -0.67330515 -0.77623624 -0.6397001 -0.7516259 -0.63184565

neural_networks.2.linear_relu_stack.4.running_mean f4 [16]
00000000: 91bb 61c2 a6f1 84c0 c080 f3bf a662 8dc0
00000010: 49b3 aec0 3952 c2c0 637b e240 0ce3 69c0
00000020: bff9 5842 b7b7 ccc0 5928 7fbf 6021 df3f
00000030: 60db e9be bc4b 78bf 14b7 95c0 a1a0 fbbe
-56.43317 -4.154498 -1.9023666 -4.418292 -5.4593854 -6.072537 7.077562 -3.6544828
54.243893 -6.397426 -0.9967094 1.743206 -0.45675182 -0.9699056 -4.6785984 -0.49145988

neural_networks.2.linear_relu_stack.4.running_var f4 [16]
00000000: 7dad 4044 f857 3840 ba35 a63f e0b9 a640
00000010: b6a1 6d3d bb24 6140 2f91 0341 14d0 273f
00000020: 7617 3144 0aef d13d d5ae dc3d c6d1 1740
00000030: 7856 7e3c efd6 1f3e e844 5940 8d16 a33c
770.71075 2.8803692 1.2985146 5.21019 0.058015548 3.5178668 8.222945 0.6555188
708.3666 0.10250671 0.10775534 2.3721786 0.015523545 0.15609334 3.3948307 0.019908214

neural_networks.2.linear_relu_stack.6.weight f4 [1, 16]
00000000: 01d4 63be c28f a83c fefc a63d 7e6e c93d
00000010: 58f6 643d 2ff7 853d f22d 63bd 0720 043e
00000020: 96bb 563e 7f81 04be a194 20be 3c61 93bd
00000030: c107 a8bd 02d1 cd3d c4db eabd 3e13 003c
-0.22248842 0.020576362 0.08153723 0.09835528 0.055898994 0.06541287 -0.05546374 0.12902842
0.20969996 -0.12940024 -0.15681697 -0.0719628 -0.08204604 0.10049631 -0.11467698 0.007817088

neural_networks.3.linear_relu_stack.0.weight f4 [16, 2]
00000000: df88 f2bf 81cb 263d 9b61 1940 4585 a43d
00000010: b1fb f4be 8a84 123f 044b a23f 8e4c 3c3e
00000020: 230f c6bf b291 1d3f 787b d5be cc23 35bf
00000030: c54f 9a41 9830 743e 3fb2 eb41 2771 963c
00000040: 1fc8 4fbf 297a f23e 3508 16c1 2378 1e3e
00000050: 4c0a 8bbd 42d2 28bf 75bc f4c1 7db8 0bbc
00000060: febc 84bf 0a38 15be 888e 2a3f c4f9 04bf
00000070: 5d0c 30c0 a486 053e 2c9a 05bf b787 193f
-1.894802 0.04072142 2.3965824 0.08033232 -0.47848275 0.5723349 1.2679143 0.18388578
-1.5473369 0.6155044 -0.41695762 -0.70757747 19.28895 0.23846662 29.462034 0.018364502
-0.81164736 0.47358826 -9.377004 0.15475516 -0.06789073 -0.6594583 -30.59202 -0.008527872
-1.0370176 -0.14572158 0.66623735 -0.5194361 -2.7507546 0.13039643 -0.5218837 0.5997271

neural_networks.3.linear_relu_stack.1.weight f4 [16]
00000000: dbe1 f23d 4efe d43d b995 5c3d dbdb 1a3e
00000010: 8a66 b33d 1ac5 cf3d 0567 a93f 338c df3f
00000020: ecd2 5dbd f757 163d 4abd d13d 2022 df3f
00000030: 8169 663d d2fe 2e3d 2c2b 393e 9181 093e
0.11859485 0.10400067 0.053853724 0.1512293 0.08759792 0.10145016 1.3234564 1.746466
-0.05415623 0.036704984 0.10241182 1.7432289 0.05625296 0.042723484 0.18082875 0.13428332

neural_networks.3.linear_relu_stack.1.bias f4 [16]
00000000: 30db 54bf a58d 3dbf 8353 25bf d629 7fbf
00000010: f58a f2be aaa6 eebe 1bc2 943f bdd0 5a40
00000020: 5db2 1abf e46e 4e3f 9371 0dbf 6df2 7940
00000030: 08f9 b9be d9fd 52bf a521 95bf ae94 5cbf
-0.83146954 -0.7404426 -0.64580554 -0.9967321 -0.4737164 -0.4661153 1.1621736 3.4189904
-0.6042841 0.80637956 -0.55251426 3.9054215 -0.36322808 -0.8241859 -1.1650892 -0.8616437

neural_networks.3.linear_relu_stack.1.running_mean f4 [16]
00000000: 8e48 0bc1 d03e 3141 91a5 f4bf 8cda bd40
00000010: 7ef8 d9c0 7303 12c0 06e7 b142 e6ae 0743
00000020: d0be 5fc0 e66c 2cc2 523c 26bf dee2 0cc3
00000030: 1a34 9bc0 c863 3340 df9e 49c1 5538 06c0
-8.705214 11.077835 -1.9113027 5.932928 -6.8115835 -2.2814605 88.95122 135.6832
-3.4960213 -43.106346 -0.6493579 -140.8862 -4.85011 2.8029652 -12.601287 -2.0971882

neural_networks.3.linear_relu_stack.1.running_var f4 [16]
00000000: d6d7 7b3a 9cd7 233b b207 253b 1d1c ca3a
00000010: 2ca9 e43a bfba c03b bb95 0a3e 45b3 913e
00000020: c2da ab3a bc12 ca3c 598b 913b dc9a 9c3e
00000030: 468a 833a 3583 ec3a e8a6 cf3a fc4a 333b
0.0009607052 0.002500034 0.0025181589 0.0015419755 0.0017445437 0.005881637 0.1353368 0.28457084
0.001311146 0.024667136 0.0044416604 0.30586898 0.0010035716 0.0018044474 0.0015842589 0.0027357927

neural_networks.3.linear_relu_stack.3.weight f4 [16, 16]
00000000: 666c 513e 1ba0 8cbe c208 92bd 0b86 6bbe
00000010: e5ca 65bd 9071 c63c abb7 19bf 0b52 bfbf
00000020: 1518 343e 1bbd 253d 1f15 d0bc 0e9e 9d40
00000030: 5130 0e3d f666 8dbc 60f6 d93d d8e1 0b3e
00000040: 1a4a ea3d 3de7 3fbe cabf 2c3e 7bb5 813d
00000050: 1d08 c23d b5d8 0cbe 3bda 26be 2b86 1e3e
00000060: 7865 ebbd f098 acbe 39b5 0cbe 7c74 55be
00000070: efa8 e13d ce7c 82be 1bc3 5dbe a9d0 8bbe
00000080: 921e 2abc 8767 0dbc 82be 75be 1425 77bd
00000090: 5836 00bf 223f b4bd d790 20bf 67d6 cdbe
000000a0: c043 efbd bb36 a5bd 8d08 66be 13ae 113c
000000b0: 3152 bebd 36c4 833a 498a d6bd 5667 f7be
000000c0: ecb7 b9be 0ef0 bfbe a12e babd 30d4 aabd
000000d0: 6b54 e5be 9696 23be 03ce 90be 7c0c d4be
000000e0: 7758 0abf 9079 a6be b6f9 93be 5c9e 20bd
000000f0: 3d10 353e 7d66 16be 4df6 16bf d33b 0a3e
00000100: 1d82 eebe d4f2 86be 3416 82be 95a7 9abe
00000110: 797f 86be abca 3fbe 38eb 5fbd 850c 923d
00000120: ef56 cd3d 8d9e 12bf e986 73be 9e5e 2ebf
00000130: 032e 563d 8818 ef3d 29c3 21bf 68ea 70bd
00000140: c789 70be e2e4 a1bd 0697 86be 43d7 12be
00000150: a68c c3bd 8774 65be b129 43be 6eb6 23bf
00000160: 33e7 22be 1826 383e e983 18be ef26 283e
00000170: cc10 8cbe 56c0 6abd 76d1 29be 06e8 2fbd
00000180: 6c61 8abe 1e9c cb3d 4d85 7abe 5068 40bc
00000190: 6feb 9abd e4fd 30bd 2fdb d33e ae99 5840
000001a0: 1282 02be a8fa 09be 6334 31bd 27f3 0bc0
000001b0: bae1 483b ea9a d43c 9de0 e2be 057f 85bd
000001c0: 49cd 9fbe d001 59be ff22 af3e be3f 0c3e
000001d0: 6f9b 00bf c96f 09bf 9f19 533e e443 b93e
000001e0: 9e1f 09bf d97b e1be 8fbb ccbd 3c6a acbd
000001f0: 0ebb cabe ae57 bdbe f738 32bf bbb6 d33d
00000200: e83d 53be 7b12 a2be 7f47 a73d 485f a3be
00000210: 2159 b8be 4e4e 1c3e 7b34 acbe 9338 bcbd
00000220: 1fad 09bd 0beb 0b3d a0f8 5ebe b4b1 d9bd
00000230: 7365 efbe 531c c3bc 804a 59be 07a8 8dbe
00000240: 5523 c1be 8406 2d3e 5f83 a2be be68 893e
00000250: 3c40 97be dc57 a2be f940 053d e368 753f
00000260: a00c f0be a019 00bf a06e 81bd 2043 89be
00000270: ed22 3e3d b71a 4abd f973 01bf 6112 81be
00000280: 40d7 68be e209 35be 6572 1ebe 864a 3cbd
00000290: f3b4 efbe 1121 1e3d 633c a5bd 6bbc 113e
000002a0: c2fa 16be b12b cbbe 2983 01be bc2f 93bf
000002b0: a312 d73c 5714 793e 23d0 b0be 28c6 f73d
000002c0: 8b30 6cbd 5def 14bf c1bd 8a3d 7fb0 39bf
000002d0: 7724 d4bc 5631 ca3d 27ee 3ebf 04e0 9dbf
000002e0: 50f6 3fbe 70b0 05bc 9f51 d5bc 256e d23d
000002f0: 8ad6 e43e 946f edbe 433a a83b eccf b13d
00000300: 59fd b6bd ec7f 25bf a52d d3be cd36 ebbe
00000310: 9657 a7bd 66e4 023e b0f9 83be 38a7 7abe
00000320: da23 f43c b562 5bbe 6025 843d 3730 9d3c
00000330: dfd7 c03d be2a da3b 5ef1 0e3b 3afb 53be
00000340: 0f10 56bc d2f5 b8be b242 053c 1a09 91be
00000350: 4ee9 54be 14e5 19be d6f9 88bd b5fd 45be
00000360: dc5d 58bd ba3f cbbc 9ac4 b73d 75df 24be
00000370: cae7 cebe e7e0 493e fe2d b0be 5fca afbd
00000380: fb45 2dbe 1677 86be bdff f4be 41bf 7bbe
00000390: 4a95 9cbe de4b cf3d cdad 72be 3ba7 d33e
000003a0: cdde a93d 17e4 5dbc 0f35 1dbe eab3 4fbf
000003b0: 7075 d9be 48c3 373f d010 0fbf 7da6 19bf
000003c0: 2dc3 16be 3d6a 0e3e 9ab9 85bc ecf0 ca3c
000003d0: b56d 14bf 01de bd3c 9e84 40be e899 80bd
000003e0: 781a a83c e3e0 02bf 0000 b1be 44da f8be
000003f0: 9d04 5bbe f5e2 80be 7991 f7be 17a8 d1bd
0.20451507 -0.274659 -0.07130577 -0.23000352 -0.0561017 0.024224073 -0.6004588 -1.4946913
0.17587312 0.04046355 -0.025400696 4.925544 0.034714047 -0.01726101 0.106426954 0.13660371
0.11439915 -0.18740554 0.16870037 0.06333443 0.09474204 -0.13754542 -0.16294186 0.15480869
-0.11493963 -0.33710432 -0.13741006 -0.20845217 0.1101855 -0.25485843 -0.21656458 -0.27307633
-0.010383265 -0.00863064 -0.23998454 -0.060338095 -0.5008292 -0.08801104 -0.6272101 -0.40202639
-0.11682844 -0.0806708 -0.224642 0.0088916 -0.092930205 0.0010052982 -0.104755946 -0.48321027
-0.36273134 -0.37487835 -0.09090925 -0.08341253 -0.44790968 -0.15975413 -0.28282174 -0.41415775
-0.54041237 -0.3251462 -0.28901452 -0.039213523 0.17681976 -0.14687534 -0.58969575 0.13499384
-0.46583644 -0.26357138 -0.25407565 -0.3020598 -0.2626913 -0.18729655 -0.05466768 0.07131294
0.10026347 -0.5727318 -0.23781933 -0.68113124 0.052289974 0.11674601 -0.63188416 -0.058817297
-0.23490058 -0.07904984 -0.26287097 -0.14339928 -0.09548311 -0.22407733 -0.19058873 -0.6395024
-0.15908508 0.17983282 -0.1489407 0.16421102 -0.27356565 -0.057312332 -0.1658381 -0.042945884
-0.27027452 0.09941886 -0.24464913 -0.01174362 -0.07564437 -0.04321088 0.4137816 3.3843799
-0.1274493 -0.13474524 -0.04326285 -2.1867158 0.0030652122 0.025952775 -0.4431199 -0.06518368
-0.31211308 -0.21192098 0.34206387 0.1369619 -0.5023717 -0.53686196 0.20615242 0.3618461
-0.5356387 -0.440398 -0.099967115 -0.084187 -0.39595836 -0.36980957 -0.6961817 0.103375874
-0.20629084 -0.31654724 0.08167934 -0.3190863 -0.360055 0.15264246 -0.3363379 -0.09190478
-0.033612367 0.0341597 -0.2177453 -0.10629597 -0.46757087 -0.023817217 -0.21219826 -0.27667257
-0.3772227 0.16897017 -0.31740853 0.26837724 -0.29541194 -0.31707656 0.032532666 0.9586317
-0.46884632 -0.500391 -0.06319928 -0.26809025 0.046420027 -0.049341884 -0.50567585 -0.25209334
-0.22738361 -0.17679551 -0.15473326 -0.04596951 -0.4681774 0.038605753 -0.080681585 0.14232032
-0.14744094 -0.3968177 -0.1264769 -1.1498942 0.026254004 0.24324165 -0.34533796 0.12098342
-0.05766348 -0.5817774 0.06774474 -0.72534937 -0.025896294 0.09872691 -0.7458214 -1.2333989
-0.18746305 -0.008159742 -0.026039897 0.10274915 0.4469493 -0.4637419 0.0051338985 0.08682236
-0.08935041 -0.6464832 -0.41245762 -0.45940247 -0.081710026 0.1278244 -0.25776434 -0.24477851
0.029802252 -0.21424372 0.06452441 0.01918803 0.09416174 0.0066579273 0.0021811347 -0.20701304
-0.013065352 -0.36125046 0.008133577 -0.28327256 -0.20792124 -0.15028793 -0.066882774 -0.19335063
-0.052823886 -0.02481066 0.08973046 -0.16100867 -0.40411216 0.197147 -0.3441009 -0.08583521
-0.16921227 -0.2626273 -0.47851363 -0.24584676 -0.3058265 0.101218924 -0.23699112 0.41338524
0.08294449 -0.01354315 -0.15352271 -0.811339 -0.4247241 0.7178235 -0.5588503 -0.60019666
-0.14722891 0.13907714 -0.016323853 0.024773084 -0.579799 0.023177149 -0.1880059 -0.06279355
0.020520434 -0.511244 -0.34570312 -0.48604023 -0.21388479 -0.25173154 -0.48353174 -0.10237139

neural_networks.3.linear_relu_stack.4.weight f4 [16]
00000000: ba37 d23e 6ade 883d 55e1 6f3e 01ae 5e3e
00000010: 9e1a 423d d2ec c53d c0c3 1f3f 1614 a63d
00000020: 56cb 273d a4bc b53d 7293 173e 40ac cfbc
00000030: 42f8 013e 72cf a53c 822a a53d e132 6b3e
0.4105814 0.06683047 0.23425801 0.21746065 0.047388665 0.096643105 0.62408066 0.081093
0.0409654 0.08873871 0.1480234 -0.02535069 0.12692359 0.02024052 0.08064748 0.22968628

neural_networks.3.linear_relu_stack.4.bias f4 [16]
00000000: bc8a ad3e ddd9 b3be 0c79 3fbf fcff 27bf
00000010: 089c 2dbf aa34 30bf e9e7 00bf 7144 55bf
00000020: 42e2 20bf c5dd 00bf e6fa 1fbf ee47 04bf
00000030: d366 47bf e6e4 05bf e248 21bf 5a55 22bf
0.33894908 -0.35127154 -0.7479408 -0.65624976 -0.6781621 -0.6883036 -0.50353867 -0.8330756
-0.6284524 -0.50338393 -0.62492216 -0.51672256 -0.7789127 -0.52302396 -0.63001835 -0.63411486

neural_networks.3.linear_relu_stack.4.running_mean f4 [16]
00000000: 0321 5641 c494 44bf 5b76 0ec0 d721 0dc0
00000010: e202 3dc0 a7ed d3bf 217a 5f40 9363 533f
00000020: a513 92bf b8bd f03f 72f1 8dc0 04e0 99c0
00000030: 79f7 a2bf 1e4c b3bf 47c6 04c0 198b 31c0
13.3830595 -0.767895 -2.2259738 -2.2051904 -2.953301 -1.6556901 3.4918292 0.82573813
-1.1412245 1.8807898 -4.4357233 -4.8085957 -1.2731773 -1.4007604 -2.074602 -2.7741148

neural_networks.3.linear_relu_stack.4.running_var f4 [16]
00000000: 3a5c 0943 3706 5c3e e7d8 f83f ea74 633f
00000010: 3174 cb3f 24c4 2240 d94d c942 d7db 813f
00000020: 2aeb 003e d65d 9540 1d04 9540 b0d4 1a41
00000030: 7208 083f 64e4 8d3c 8356 5c40 db61 9c3e
137.36026 0.21486746 1.9441193 0.8885027 1.5894834 2.5432215 100.65205 1.0145215
0.12589708 4.6677046 4.656752 9.676926 0.53137887 0.01732082 3.4427803 0.30543408

neural_networks.3.linear_relu_stack.6.weight f4 [1, 16]
00000000: 6aa4 9cbe 34ac 88bd 6908 033e 853a a23d
00000010: 819f 033e d9fa bbbd 16ce 333e c88d f3bd
00000020: 926b 0abe fac3 a93b 76fd 583d fcd7 0abe
00000030: df03 393e 1f8e 1a3e 0058 63bd 1a3b 2d3b
-0.30594188 -0.0667347 0.12796177 0.07921318 0.12853815 -0.09178705 0.17559084 -0.11892277
-0.13517597 0.005180833 0.052976094 -0.13558954 0.18067883 0.15093277 -0.055503845 0.0026432932

neural_networks.4.linear_relu_stack.0.weight f4 [16, 2]
00000000: 736d abc1 fff5 58bc 59b8 fb41 7f89 fcbd
00000010: 5375 a441 44e1 e83d 7dd9 c1c1 b996 e23b
00000020: de83 e2c1 60dc cb3d 8353 ce41 77de 313e
00000030: 6b36 d141 6904 c23e 4418 ad3e 5734 9dbe
00000040: 2770 afc1 0880 ecbc 6a4f 543f 928d afbe
00000050: 614b 9f3e 5dca 2cbf 4cda fc41 926a 053e
00000060: 5035 c13e 15f7 133f 0026 43bd f533 d33e
00000070: 7648 e641 8003 ad3c 8446 0142 be69 8abd
-21.428442 -0.013242244 31.465014 -0.12330913 20.557287 0.11371091 -24.231195 0.00691494
-28.314388 0.099541426 25.790777 0.1737002 26.151571 0.3789399 0.33807576 -0.30703995
-21.929762 -0.028869644 0.82933676 -0.34287697 0.31112197 -0.6749628 31.60659 0.13028935
0.37735987 0.5779889 -0.04764366 0.41250578 28.785381 0.021119833 32.318863 -0.0675845

neural_networks.4.linear_relu_stack.1.weight f4 [16]
00000000: 3645 833f aae3 b63f 6750 d83f 4f34 b93f
00000010: 1818 0a40 7c09 693f 22a6 ef3f 44b4 4b3d
00000020: b28c e53f 7b37 e03d ed15 9f3d bbe4 da3f
00000030: 7761 953e 029b e83d 87c7 9e3f 4040 c13f
1.0255497 1.4288228 1.6899537 1.4469088 2.1577206 0.91030097 1.8722575 0.04973246
1.7933562 0.10948082 0.07767854 1.7101053 0.29175922 0.113576904 1.2404641 1.5097733

neural_networks.4.linear_relu_stack.1.bias f4 [16]
00000000: 208e 2340 162a 8c40 4c13 9b3f 724c 5640
00000010: 3691 5040 49c2 2f40 bacf 1b40 7f52 7fbe
00000020: 10ff c03f 124d 2dbf 2635 09bf 05d4 5a40
00000030: bade a6bf f439 17bf d74c 7940 eb25 3940
2.5555496 4.3801374 1.2115264 3.3484159 3.258863 2.7462332 2.4345536 -0.24933814
1.5077839 -0.67695725 -0.53596723 3.4191906 -1.3036721 -0.59072804 3.895315 2.8929393

neural_networks.4.linear_relu_stack.1.running_mean f4 [16]
00000000: ae60 c5c2 6ed8 1043 de75 bd42 dc2c dfc2
00000010: e158 02c3 eeb6 ed42 973e f142 2541 b33f
00000020: 3003 cac2 1a40 6940 cc5c 8b3f d89d 1143
00000030: 5b13 0240 7012 16bc 1d92 0443 f7ce 1443
-98.68883 144.84543 94.73021 -111.587616 -130.34718 118.857285 120.622246 1.4004256
-101.006226 3.6445374 1.0887694 145.61658 2.0324314 -0.009159669 132.57076 148.80846

neural_networks.4.linear_relu_stack.1.running_var f4 [16]
00000000: 7473 513e f181 d73e d881 4a3e e8ad 843e
00000010: 0e3b af3e 384f a13e aefc b23e aba0 853a
00000020: 24ea 5c3e 085d 553a 5bef c53b b303 ec3e
00000030: b02c c93b e640 243b f22d bd3e 35b6 e73e
0.20454198 0.42091325 0.19776094 0.2591393 0.34224743 0.31505752 0.34958404 0.0010194978
0.21573693 0.0008139168 0.0060404963 0.46096572 0.0061393604 0.0025063097 0.36949116 0.452562

neural_networks.4.linear_relu_stack.3.weight f4 [16, 16]
00000000: a784 9d3e 2e84 70bc 9b96 6fbe 44bf 49be
00000010: 9632 8fbd 7fec fbbb 2fb3 88be 44b0 debd
00000020: 250d 0dbe 4d30 cd3d cb58 41be 157b 6b3d
00000030: 3333 85be b441 4cbe c36e 3abe 91a1 6dbe
00000040: f12b 7abe 6701 c63c 885d 2dbe fccd 66be
00000050: 6baa 0fbe 1050 a9be b03c a3bd a368 a8be
00000060: 7154 3fbe 5b8a 76be 7d0d 6fbe 302b 92bc
00000070: 58ec 17be 4f47 fdbd eb34 873d 5af2 fdbd
00000080: fda6 d43d e409 03bf b11c a7be 893d 6e3d
00000090: fec8 eb3e 1154 043d 8bc0 e4be 4a54 1bbf
000000a0: 4bb6 75bd 53c1 a1be feaa 38be 0396 ecbe
000000b0: d697 b53d d930 583e a21d 143d 3ec0 54be
000000c0: 9aff 12bd bd62 e9be e1f9 a93d de16 b8be
000000d0: 5d12 76be a372 1fbf 57f0 12bf cc1b 8fbd
000000e0: 2299 27be 114f 88be d88a 653d 5fee 553d
000000f0: a38e c7be 6d5d 0ebd 67cb 593e 79ec 2dbf
00000100: d241 47be b92e c43d 340f 58be 6e41 84be
00000110: 9201 5f3e de56 fcbb 7e4b 893d 7f59 50be
00000120: bf16 24be 5679 a9be f390 3dbd 9be6 d13d
00000130: a1c5 0abe 3dc0 de3d fb12 77be b05c 7b3d
00000140: 2383 093f 9638 abbe 326e dcbd d820 f63e
00000150: f97d 0940 5907 d9be 7fe6 12bf 48a9 913d
00000160: 6972 793f 9e25 03bd 9a5c 86bd 06f8 abbd
00000170: c8d8 97be 6300 e2bd 1997 bfbf 8f05 ffbe
00000180: f6d8 79be 5de7 a1be bb3a 353d 27b9 21bc
00000190: b481 88be 1b29 d9be c0e3 f9be 9362 c1bd
000001a0: 3a9f bebd 006a e63d 0501 b63d c44a b9be
000001b0: a7d6 bcbe 8d4a 013e 1ad2 e13d f43a 62be
000001c0: b248 48be 9598 f0be 3c3f 3fbe c34b 89be
000001d0: ab9b f93e 32c1 b0bd 70c7 86be 74a7 1fbf
000001e0: 3266 363e 18c1 26bf ffea adbe 6835 20be
000001f0: c535 8d3d 7af8 15be fe21 1ebf ec0d e1be
00000200: 6ebc b6bc 7675 10bf d03f c1be f3c1 723e
00000210: 883b 673e 8b21 2fbf 2a15 47bf 1d10 f63d
00000220: 09e7 283e 2d16 42be e5bd 543d 5a27 3abf
00000230: 6a8f 99bd 82df 7bbe eeed d3bd c261 41bf
00000240: 5011 0fbe ac7d bc3a 7e44 b3bd 8aea aebe
00000250: 9dc3 41be 75bf 9abe 56c5 c6be 6e2e 6abd
00000260: 82d3 9dbe 4e6a 343e 5ba9 9d3d 1c78 be3c
00000270: a2f0 a9bd 35f9 bdbd 797c bc3c d4bd 3b3e
00000280: edc5 3ebe bb9e 90be 28cb a73e 79c0 a6bc
00000290: 2b7a 07be d68e 2fbd fa2f a0be c89b bfbd
000002a0: 619d abbe b19f 063d bb26 58bc 9d56 493e
000002b0: 45ca 98be 9d20 0ebe e741 ab3e f483 21be
000002c0: 69ed f5bf f54e 1340 5d3e 483e 4b7b 61c0
000002d0: 5c20 4bc0 e173 6a3f 31c5 ab3f 8467 0f3d
000002e0: fe1e b4bf 024b 09be 51a5 993d ab1c 3540
000002f0: 47f3 5bbe 9b86 02bd ab7a 6940 6a7f 3840
00000300: 6d22 0f3d 3385 eebe 0cd8 e7bc 7ca6 993d
00000310: 3884 673d 183c a2be 2b06 2abf d7e8 003e
00000320: 3678 32be 4ca2 47be 43d3 4dbd a64c d5be
00000330: 8bfe c5be f91a 8cbe 0e41 013e e5a4 a7be
00000340: cc1d ea3f 2465 49c0 9f4d b9bf 04c6 5b40
00000350: c684 7f40 0122 8abf 0814 0cc0 6b9b d1bd
00000360: dad4 273f 8910 0c3d 6678 41bd 6d2b 30c0
00000370: cd61 ab3e de23 753c e6a3 3ac0 5b40 3bc0
00000380: 24e9 3abd 97d7 85bd 993f 643b 1ae2 82be
00000390: 8b68 4cbe c5a8 c33a 829f 14be ddfa d83d
000003a0: 1afe 38be f3cd d23d 89ba 323e 4c8a ae3e
000003b0: de2e 39be 93bf 6abe 6021 6a3e 751f 11be
000003c0: 9bd8 953d 4021 bbbc 7735 093e 3020 933b
000003d0: 6ecc 7b3c 1208 88be 8df9 93be a0cc 033c
000003e0: 7c45 d6be 49c0 9d3d e5fd a03c 2501 bfbd
000003f0: 43fa 43be 0ed3 39be 3067 08be 0776 86be
0.30765268 -0.014679952 -0.23397295 -0.19701868 -0.069920704 -0.0076881046 -0.26699206 -0.10873464
-0.13774545 0.10018978 -0.18881528 0.057490427 -0.26015624 -0.19946939 -0.18206315 -0.23206164
-0.24430825 0.02417059 -0.1693021 -0.22539514 -0.14029853 -0.33068895 -0.079705596 -0.3289233
-0.18684556 -0.24076216 -0.23344989 -0.017842859 -0.14836252 -0.12367117 0.0660189 -0.123997405
0.10383413 -0.51186967 -0.32639077 0.058164153 0.46051782 0.032306734 -0.4467815 -0.6067549
-0.0599883 -0.31592807 -0.18033978 -0.462082 0.08866851 0.21112384 0.036161073 -0.2077646
-0.035888292 -0.45583144 0.08299614 -0.35954946 -0.24030443 -0.62284297 -0.5739798 -0.06987724
-0.1636701 -0.26622823 0.056040615 0.05222928 -0.3897601 -0.034757067 0.21268998 -0.67938954
-0.19458702 0.09579224 -0.2109955 -0.2583117 0.21777943 -0.007700785 0.06703852 -0.2034664
-0.16024302 -0.33100384 -0.046280812 0.10249063 -0.13551952 0.1087651 -0.24128334 0.06136769
0.53715724 -0.3344161 -0.107632056 0.48071933 2.1483138 -0.42388418 -0.5738296 0.07112366
0.974402 -0.032018296 -0.06560631 -0.08396916 -0.29657578 -0.1103523 -1.4967986 -0.49808928
-0.2439917 -0.3162183 0.044245463 -0.009870804 -0.26661456 -0.42414173 -0.48806572 -0.0944263
-0.09307714 0.11250687 0.08886913 -0.36189854 -0.36882517 0.12626095 0.11026402 -0.22092801
-0.19558981 -0.4699141 -0.18676466 -0.26815614 0.48751578 -0.08630599 -0.26324034 -0.6236489
0.17812422 -0.6513839 -0.3396835 -0.15645373 0.06895021 -0.14645568 -0.6177062 -0.43955934
-0.022306647 -0.5642923 -0.37743998 0.23706798 0.22581303 -0.6841056 -0.7776667 0.12014792
0.16494383 -0.18953772 0.05193891 -0.72716296 -0.07498057 -0.2459698 -0.10348116 -0.7553979
-0.13971448 0.0014380715 -0.08753298 -0.34163314 -0.18922277 -0.30224195 -0.3882243 -0.057173185
-0.3082543 0.17618677 0.076983176 0.023250632 -0.0829785 -0.09276048 0.023008572 0.18334132
-0.1863019 -0.28246102 0.32772183 -0.02035545 -0.13230197 -0.04286083 -0.31286603 -0.09355885
-0.33518508 0.032867137 -0.013192828 0.19661947 -0.2984182 -0.13879628 0.33448717 -0.15772992
-1.9213077 2.3016942 0.1955504 -3.5231502 -3.17385 0.9158307 1.3419553 0.03501083
-1.4071958 -0.1340752 0.07502235 2.8298748 -0.21479522 -0.03186665 3.648112 2.8827767
0.03494494 -0.46585998 -0.028301261 0.075024575 0.056522578 -0.31686473 -0.6641566 0.12588821
-0.1742867 -0.19495505 -0.050250303 -0.4166004 -0.38670763 -0.27364329 0.12622473 -0.32742992
1.8290343 -3.1467981 -1.4476813 3.433961 3.9924788 -1.0791627 -2.1887226 -0.10234722
0.6555916 0.034195457 -0.04723396 -2.7526505 0.33473054 0.014962165 -2.9162536 -2.925803
-0.045632496 -0.06535261 0.0034827946 -0.25563127 -0.19961755 0.0014927617 -0.14513972 0.105947234
-0.18065682 0.10293188 0.1745397 0.34089887 -0.18084285 -0.22924642 0.22864294 -0.14172156
0.07316705 -0.022843003 0.13399301 0.004489921 0.015368564 -0.26568657 -0.2890133 0.008044392
-0.41849887 0.07702691 0.019652316 -0.0932639 -0.19138436 -0.18146917 -0.13320613 -0.26261923
