saved_models/black_scholes_deep_hedging/risk_averse_hedger_bs.pth (torch, 200953 bytes, 330 tensors)

neural_networks.0.linear_relu_stack.0.weight f4 [16, 2]
-0.38063544 0.21078718 0.12341719 0.03344125 -0.5353417 0.07451335 0.34950256 0.019404072
0.57040143 0.6230716 0.5924802 0.23695202 -0.56220865 0.6326499 0.3364167 0.6171436
-0.040017687 0.2801308 0.43211213 -0.4796652 -0.08590868 0.17780903 -0.6997276 0.70380396
-0.6554566 0.0008920802 -0.24408622 0.21957825 0.516215 0.11252534 0.58894646 0.6057289
00000000: a6e2 c2be 98d8 573e 27c2 fc3d b1f9 083d
00000010: 270c 09bf 759a 983d 00f2 b23e 4af5 9e3c
00000020: d405 123f 9f81 1f3f c8ac 173f 8da3 723e
00000030: e8ec 0fbf 58f5 213f cf3e ac3e 1ffd 1d3f
00000040: 96e9 23bd 4e6d 8f3e cd3d dd3e ad96 f5be
00000050: e4f0 afbd 9213 363e 5921 33bf 7f2c 343f
00000060: 01cc 27bf 7dda 693a bdf1 79be 1fd9 603e
00000070: ab26 043f af73 e63d 32c5 163f 0d11 1b3f

neural_networks.0.linear_relu_stack.1.weight f4 [16]
1.0155826 0.96997255 1.0 1.0 0.9699725 0.9960045 1.030027 1.0311652
0.96997255 0.95182765 1.0 1.0 1.0808424 1.0 0.9777517 0.9699725
00000000: 9cfe 813f 1f50 783f 0000 803f 0000 803f
00000010: 1e50 783f 27fa 7e3f edd7 833f 39fd 833f
00000020: 1f50 783f faaa 733f 0000 803f 0000 803f
00000030: 0b59 8a3f 0000 803f ef4d 7a3f 1e50 783f

neural_networks.0.linear_relu_stack.1.bias f4 [16]
0.04070175 -0.030027514 0.0 0.0 -0.030027514 -0.008485162 -0.030027522 -0.00948325
-0.030027514 -0.02455736 0.0 0.0 -0.026713971 0.0 0.030470192 -0.030027516
00000000: e1b6 263d 43fc f5bc 0000 0000 0000 0000
00000010: 43fc f5bc 5905 0bbc 47fc f5bc a25f 1bbc
00000020: 43fc f5bc 842c c9bc 0000 0000 0000 0000
00000030: 42d7 dabc 0000 0000 a09c f93c 44fc f5bc

neural_networks.0.linear_relu_stack.1.running_mean f4 [16]
-1.752892 0.5683583 -2.4653325 1.6095197 2.626791 2.7284708 -2.589067 1.5492561
-0.18428811 1.989953 -0.39562273 -3.222355 -3.0184917 -1.1240561 2.377257 2.7122002
00000000: c45e e0bf ee7f 113f 02c8 1dc0 be04 ce3f
00000010: 581d 2840 449f 2e40 46b3 25c0 064e c63f
00000020: 06b6 3cbe c8b6 fe3f 108f cabe 103b 4ec0
00000030: f82e 41c0 12e1 8fbf fb24 1840 b094 2d40

neural_networks.0.linear_relu_stack.1.running_var f4 [16]
2.4110538e-12 8.0249555e-13 3.5666477e-11 2.4110538e-12 1.4608991e-11 5.706637e-14 2.0543892e-12 3.5666473e-13
4.369143e-14 1.3710191e-11 1.5728913e-12 7.812385e-11 1.1185006e-11 4.123045e-12 6e-45 6.9050286e-12
00000000: afa9 292c e6e1 612b e2dc 1c2e afa9 292c
00000010: 8680 802d 8680 8029 9690 102c cec8 c82a
00000020: cac4 4429 3631 712d 625d dd2b d1cb ab2e
00000030: cac4 442d 1611 912c 0400 0000 f8f2 f22c

neural_networks.0.linear_relu_stack.3.weight f4 [16, 16]
0.07361592 0.03844735 0.1267789 0.16194731 -0.06474611 0.26624742 0.13322139 0.012455594
-0.10149625 0.19653018 -0.18699965 -0.15096736 0.011723816 -0.0083221495 -0.09178304 0.08724144
0.18700597 0.18206234 0.21879756 0.10858223 -0.107673965 0.16344666 0.13413495 -0.09262912
-0.13551266 -0.27914703 -0.16172445 0.14263749 0.06507541 -0.13628331 0.27801165 0.09312787
-0.0910982 -0.05055222 0.09400952 -0.06668788 0.06292468 -0.09457822 -0.052787304 0.06463372
0.111376494 -0.26606375 0.10242808 0.014169395 0.10003383 0.021901041 0.22096448 0.12197575
-0.12492344 0.04824314 -0.09812778 -0.07707986 0.1572642 0.1637697 0.110227816 -0.09114685
-0.18490076 -0.1470236 -0.16976559 0.030950546 -0.24771662 -0.057429045 -0.07484624 -0.0031966777
-0.0197187 0.12975135 0.014753282 -0.13137102 0.066536754 -0.015413976 0.115247786 -0.023390733
-0.16733882 -0.0473015 -0.10252482 0.22969833 0.17575136 -0.03875497 0.045912176 0.005708039
-0.0026978804 0.036143314 -0.04107195 0.22500217 -0.016268114 -0.04691083 -0.0908049 0.0027527877
0.19837904 -0.037800606 -0.12794176 0.08020568 0.015670994 0.08206472 -0.20811 -0.061011545
0.21887013 -0.19268994 0.09755191 0.16162181 0.19741175 -0.19489108 -0.17106241 -0.13604236
-0.13396284 -0.013703829 0.15294111 0.108617395 0.08454476 -0.10117072 0.08830372 0.05848015
0.2917343 -0.20342612 -0.12808368 0.15488449 0.11707728 0.03482639 0.03286994 0.027177334
-0.10498844 0.19064707 -0.07825261 0.0054113567 -0.19572708 -0.06431866 0.08774417 -0.09679193
-0.1593618 -0.13902104 0.060836136 0.1220108 0.12454137 -0.065595634 -0.036695063 -0.2674121
-0.10317093 0.23700914 0.07351333 -0.17093587 -0.046833646 -0.1908207 -0.014571816 0.012750685
0.12110796 0.21431836 0.21150246 -0.018760115 0.09335455 -0.109914355 -0.071232766 0.12851238
0.10660553 -0.20941614 -0.2014055 0.24640167 0.07842521 0.12102017 0.100314245 -0.1934874
0.19270805 -0.22061726 -0.06794688 0.007215053 -0.016419588 -0.15686092 -0.0992799 0.0011775712
-0.044428714 -0.17266047 0.095781416 -0.17257026 -0.1280142 -0.08572924 0.07246425 0.045872115
-0.12499623 0.02979821 0.1951761 0.23985127 0.054483473 0.14105357 0.10838291 -0.15304585
0.19189408 -0.2256504 0.08923179 0.22998095 -0.019518845 -0.17119327 -0.037427228 0.2313005
0.15572286 0.20673269 -0.025773644 0.09558159 0.17466076 0.22400756 -0.024171539 -0.2880944
0.06688543 0.033267614 -0.029462993 0.06358966 -0.24718963 -0.12863672 0.09716771 0.055390775
0.25702387 -0.19206108 0.19421148 -0.11376929 0.15274936 -0.14970501 0.21394959 0.19607215
-0.24414502 0.28154665 -0.1691517 0.15087175 0.22468977 -0.19716981 -0.26033276 -0.16103795
-0.29149488 0.26792887 -0.10917163 -0.24681088 -0.20776519 0.14322583 -0.16838183 0.1550232
-0.18266833 0.26363245 0.04680562 0.20975766 0.13818598 -0.11848894 -0.3014927 -0.012793968
-0.13078424 -0.14253773 0.19670722 0.099624515 0.09240629 0.16945373 0.27521136 -0.12241904
0.067070656 0.2070098 0.22583291 0.020568043 0.032273997 -0.0976333 0.2637821 -0.2084244
00000000: f2c3 963d f87a 1d3d 54d2 013e 84d5 253e
00000010: 9c99 84bd 9551 883e 306b 083e 8c12 4c3c
00000020: 44dd cfbd 353f 493e d67c 3fbe 3097 1abe
00000030: 4015 403c a059 08bc bff8 bbbd a4ab b23d
00000040: 7e7e 3f3e 8d6e 3a3e 780c 603e 5c60 de3d
00000050: 2b84 dcbd 905e 273e ac5a 093e 56b4 bdbd
00000060: d5c3 0abe 5cec 8ebe 189b 25be 900f 123e
00000070: 4246 853d da8d 0bbe 8b57 8e3e d3b9 be3d
00000080: b191 babd d80f 4fbd 1088 c03d a893 88bd
00000090: a8de 803d 3ab2 c1bd 8037 58bd af5e 843d
000000a0: 5c19 e43d 8239 88be d0c5 d13d c026 683c
000000b0: 89de cc3d d069 b33c 8344 623e 6cce f93d
000000c0: dcd7 ffbd 999a 453d 38f7 c8bd 0cdc 9dbd
000000d0: de09 213e 3fb3 273e 1fbf e13d 33ab babd
000000e0: a056 3dbe 5b8d 16be 08d7 2dbe 008c fd3c
000000f0: 6da9 7dbe b83a 6bbd fc48 99bd 5a7f 51bb
00000100: 1c89 a1bc 8add 043e c0b7 713c 2086 06be
00000110: 6c44 883d e78a 7cbc 0807 ec3d ec9d bfbc
00000120: de5a 2bbe 38bf 41bd 88f8 d1bd 0a36 6b3e
00000130: 2af8 333e 88bd 1ebd 680e 3c3d 800a bb3b
00000140: ecce 30bb 030b 143d 103b 28bd f866 663e
00000150: b544 85bc 9225 40bd ebf7 b9bd 1d68 343b
00000160: e023 4b3e cfd4 1abd 2a03 03be e042 a43d
00000170: 7560 803c 8c11 a83d ca1a 55be 3ee7 79bd
00000180: 7e1f 603e 8350 45be 4cc9 c73d 3080 253e
00000190: 4e26 4a3e 8791 47be fc2a 2fbe b04e 0bbe
000001a0: 8e2d 09be 0686 60bc 989c 1c3e cc72 de3d
000001b0: ce25 ad3d 9832 cfbd 95d8 b43d e288 6f3d
000001c0: 335e 953e f04e 50be 5e28 03be 0a9a 1e3e
000001d0: 37c6 ef3d 1ea6 0e3d a1a2 063d 00a3 de3c
000001e0: 2e04 d7bd fc38 433e e842 a0bd c051 b13b
000001f0: ae6c 48be 80b9 83bd 37b3 b33d d93a c6bd
00000200: bd2f 23be 885b 0ebe 502f 793d cce0 f93d
00000210: 8c0f ff3d 0157 86bd 904d 16bd 3dea 88be
00000220: 484b d3bd 86b2 723e 288e 963d d009 2fbe
00000230: a3d4 3fbd 8066 43be a0be 6ebc 40e8 503c
00000240: 7307 f83d 4676 5b3e 1a94 583e d0ae 99bc
00000250: ac30 bf3d c71a e1bd 7ce2 91bd c098 033e
00000260: 0054 da3d 2f71 56be 3e3d 4ebe b850 7c3e
00000270: 669d a03d 6cd9 f73d 8e71 cd3d 9021 46be
00000280: 4255 453e 7ee9 61be bc27 8bbd 406c ec3b
00000290: 5f82 86bc 26a0 20be 4353 cbbd bc58 9a3a
000002a0: e2fa 35bd e8cd 30be 0c29 c43d 42b6 30be
000002b0: 2816 03be d092 afbd 2368 943d 66e4 3b3d
000002c0: 06fe ffbd 601b f43c 3edc 473e 929b 753e
000002d0: 102a 5f3d 5970 103e dcf7 dd3d 0db8 1cbe
000002e0: e27f 443e e610 67be 28bf b63d 2080 6b3e
000002f0: fce5 9fbc 4a4d 2fbe 4b4d 19bd 0ada 6c3e
00000300: d075 1f3e bcb1 533e 4023 d3bc 48c0 c33d
00000310: 45da 323e 3d62 653e 6403 c6bc 1c81 93be
00000320: 3afb 883d 9f43 083d 605c f1bc 4c3b 823d
00000330: 471f 7dbe 58b9 03be ddff c63d 70e1 623d
00000340: a298 833e a9ab 44be 60df 463e e0ff e8bd
00000350: 546a 1c3e 454c 19be 9a15 5b3e 23c7 483e
00000360: 2701 7abe e226 903e 1a36 2dbe 207e 1a3e
00000370: 1315 663e e2e6 49be 564a 85be 22e7 24be
00000380: d13e 95be f92d 893e 6095 dfbd febb 7cbe
00000390: 66c0 54be cba9 123e 496c 2cbe 67be 1e3e
000003a0: 680d 3bbe d5fa 863e 40b7 3f3d b6ca 563e
000003b0: a080 0d3e 54aa f2bd 405d 9abe cb9d 51bc
000003c0: 4eec 05be 69f5 11be 9e6d 493e f007 cc3d
000003d0: 823f bd3d 4785 2d3e 81e8 8c3e d5b6 fabd
000003e0: 575c 893d 61fa 533e be40 673e 507e a83c
000003f0: bd31 043d f8f3 c7bd 730e 873e 356d 55be

neural_networks.0.linear_relu_stack.4.weight f4 [16]
0.97220856 0.9699735 0.972226 1.0300264 0.97853196 0.9708036 0.94475716 1.118092
1.0090503 1.0277926 0.9699814 1.0253894 1.095397 1.0285664 0.91446525 1.0582932
00000000: a9e2 783f 2f50 783f cee3 783f e8d7 833f
00000010: 1281 7a3f 9686 783f 9bdb 713f a31d 8f3f
00000020: 8f28 813f b58e 833f b350 783f f63f 833f
00000030: f835 8c3f 10a8 833f 651a 6a3f 2776 873f

neural_networks.0.linear_relu_stack.4.bias f4 [16]
-0.027794456 -0.030027514 -0.027794452 -0.030027516 -0.026141869 -0.00020945819 -0.0008003981 -0.0008348945
-0.02865483 -0.02779446 -0.030027512 -0.025631392 -0.0011022202 -0.0010641956 -0.00049037545 -0.0005907318
00000000: 33b1 e3bc 43fc f5bc 31b1 e3bc 44fc f5bc
00000010: 7927 d6bc 01a2 5bb9 cfd1 51ba d2dc 5aba
00000020: 89bd eabc 35b1 e3bc 42fc f5bc edf8 d1bc
00000030: 5f78 90ba 7b7c 8bba 8a8c 00ba 57db 1aba

neural_networks.0.linear_relu_stack.4.running_mean f4 [16]
0.00023939746 0.0161696 0.0029728804 -0.0074263816 0.00058513985 -0.006446683 0.011707375 0.014692967
-0.0070105745 0.008044479 0.0101471 -0.0062902067 0.0093750935 0.0026660627 -0.021190185 0.0026409994
00000000: c406 7b39 1c76 843c a8d4 423b 0159 f3bb
00000010: 1264 193a b23e d3bb 4ad0 3f3c c5ba 703c
00000020: f6b8 e5bb fecc 033c 0640 263c 141e cebb
00000030: fe99 193c 1cb9 2e3b 0a97 adbc 9e14 2d3b

neural_networks.0.linear_relu_stack.4.running_var f4 [16]
5.1010295e-19 8.916621e-16 9.15551e-17 1.5869665e-16 2.1258856e-18 1.5851637e-16 3.8400667e-16 1.1920744e-15
1.5869665e-16 1.7030227e-16 8.707635e-17 1.7066952e-16 1.9592176e-16 8.2912945e-17 1.3932205e-15 2.871476e-17
00000000: 4a8e 1621 8680 8026 981c d324 fcf6 3625
00000010: d8dc 1c22 c6c1 3625 625d dd25 c8cb ab26
00000020: fcf6 3625 5c58 4425 cec8 c824 c0c4 4425
00000030: e6e1 6125 2a2f bf24 c4c8 c826 686c 0424

neural_networks.0.linear_relu_stack.6.weight f4 [1, 16]
-0.0006269581 -0.10664466 0.017043382 -0.21851702 -0.14232314 0.061496686 0.043964133 0.09998558
-0.15502244 -0.13333277 -0.18046707 -0.1990502 0.093898796 0.08249191 0.08328938 0.06998407
00000000: 725a 24ba 8468 dabd 909e 8b3c edc2 5fbe
00000010: 28bd 11be f3e3 7b3d bc13 343d 3dc5 cc3d
00000020: 34be 1ebe 6388 08be 5ccc 38be d1d3 4bbe
00000030: 034e c03d 85f1 a83d 9f93 aa3d cf53 8f3d

neural_networks.1.linear_relu_stack.0.weight f4 [16, 2]
-5.1405487 -2.9489737 -1.5196372e-07 0.92741555 0.94331867 1.0581088 -2.1114223 9.205877
0.0005479077 0.12725304 0.037264615 -0.10520551 1.4829764 -1.0731843 1.8222085 -0.3561277
-5.0358078e-05 -1.0227299 -5.5898614 -4.4133244 -1.1545379e-06 0.73303616 -4.208745 0.15319657
4.064421e-06 -0.15753835 -4.09351 -2.1506534 -0.001198397 -0.38243064 2.4877853 -5.069511
00000000: 607f a4c0 fcbb 3cc0 782b 23b4 1b6b 6d3f
00000010: 557d 713f 1c70 873f 8b21 07c0 464b 1341
00000020: 77a1 0f3a 9f4e 023e c8a2 183d fd75 d7bd
00000030: 2cd2 bd3f 1a5e 89bf 213e e93f 5f56 b6be
00000040: 9337 53b8 d0e8 82bf 25e0 b2c0 f439 8dc0
00000050: 9ff5 9ab5 42a8 3b3f 0aae 86c0 90df 1c3e
00000060: 1c61 8836 bc51 21be 09fe 82c0 4ea4 09c0
00000070: 8813 9dba f3cd c3be e037 1f40 6f39 a2c0

neural_networks.1.linear_relu_stack.1.weight f4 [16]
3.9840052 1.7841492e-06 -1.0474013 2.280397 0.6779331 0.31404728 3.1275206 1.4617996
8.462671e-05 2.2773674 -6.945902e-06 4.439935 4.8259753e-06 1.8790416 0.87071925 2.043855
00000000: f1f9 7e40 e676 ef35 3f11 86bf 06f2 1140
00000010: 068d 2d3f ceca a03e 4c29 4840 401c bb3f
00000020: 9e79 b138 63c0 1140 d810 e9b6 f313 8e40
00000030: d0ee a136 6f84 f03f 75e7 5e3f 85ce 0240

neural_networks.1.linear_relu_stack.1.bias f4 [16]
-0.7895275 1.1976933 5.148513 1.1685953 -0.020266473 -0.27247158 13.469355 6.5168066
1.245531 8.352907 1.5087107 -0.87556833 1.3761548 9.273188 -0.08673246 -0.9468043
00000000: 791e 4abf 044e 993f 9ec0 a440 8894 953f
00000010: e005 a6bc 6581 8bbe 7a82 5741 ae89 d040
00000020: 8f6d 9f3f 82a5 0541 6f1d c13f 3f25 60bf
00000030: d725 b03f fa5e 1441 caa0 b1bd c461 72bf

neural_networks.1.linear_relu_stack.1.running_mean f4 [16]
-25.134914 0.465744 4.915766 -5.028096 0.0664289 0.118774325 6.3021364 8.190916
-0.5137287 -27.979918 0.3681324 -19.309166 -0.079093546 -19.92666 -0.1975732 8.865619
00000000: 4e14 c9c1 ff75 ee3e f44d 9d40 2ae6 a0c0
00000010: e00b 883d f43f f33d 1aab c940 fe0d 0341
00000020: b983 03bf dfd6 dfc1 da7b bc3e 2c79 9ac1
00000030: ccfb a1bd cd69 9fc1 a150 4abe 93d9 0d41

neural_networks.1.linear_relu_stack.1.running_var f4 [16]
0.0028753527 9.446824e-13 9.846411e-05 0.00047964856 3.271197e-11 1.5131556e-07 0.00024016443 0.00036003362
7.0676364e-13 0.0034100204 5.3743506e-13 0.0019309872 1.7496883e-14 0.0018251347 1.5649049e-10 0.0006695931
00000000: 6a70 3c3b c5f3 842b 847e ce38 5779 fb39
00000010: 67de 0f2e 4e79 2234 a6d4 7b39 e5c2 bc39
00000020: b0ef 462b a67a 5f3b 4746 172b 2e19 fd3a
00000030: 1199 9d28 5c39 ef3a 2810 2c2f a287 2f3a

neural_networks.1.linear_relu_stack.3.weight f4 [16, 16]
-0.12944491 0.18958534 0.11440172 -0.28044766 0.105245985 0.0024939901 0.03515777 0.080571294
-0.055201624 0.012333414 -0.3165532 -0.42246523 0.14529286 0.19640182 0.028677167 -0.106218986
-0.21388933 -0.26365426 -0.4072863 -0.23410556 -0.19890147 -0.34442517 -0.24572586 -0.6946544
0.056132875 -0.3010816 -0.14338318 -0.39282015 0.12059434 -0.16464145 -0.06544532 -0.3375476
0.03496844 -0.074212775 0.17347378 0.030712951 0.21565387 0.22125189 0.20304225 0.1754404
0.20466751 -0.2315408 -0.19021891 0.17006084 -0.1996939 0.19868131 -0.11598756 0.1852822
-0.51203924 -0.34390292 -0.059777573 -0.57168895 -0.103573844 0.043797676 -0.35993466 -0.23267762
-0.42080274 -0.17877868 -0.2266177 -0.29586157 0.09196266 0.011711278 -0.06367593 -0.13373448
-0.3942963 -0.16282992 0.17640474 -0.111911766 0.16815881 0.10559504 -0.29538584 -0.11622967
-0.106128246 -0.036279123 -0.10793371 -0.3722564 0.036956213 0.14307041 -0.1775844 -0.28668958
-0.6299063 -0.2613873 -0.24666533 -0.65945876 0.15005863 -0.092097506 0.2563002 -0.015890867
-0.5404334 -0.20655172 -0.86059374 -0.43295482 0.24673416 -0.1276397 0.14548646 0.034231104
-1.3990252 0.14446893 5.040659 -0.6464653 0.11971677 -0.07535014 -1.9466736 -2.3653133
-0.13100626 11.112361 -0.03559123 -1.6324047 -0.062962234 9.831077 -0.058736395 -3.1433563
-3.6291978 -0.06803492 -1.2825686 -2.0386412 0.019531136 0.03695056 4.824613 2.07885
0.0019165417 -2.5081642 0.015958881 -3.9333217 0.011218415 -2.6033792 -0.049934264 -0.34278813
-0.24600904 -0.16540086 -0.08098229 -0.37845606 -0.29000908 0.016895859 -0.08120753 -0.3094358
-0.40690768 -0.14787681 -0.020956507 -0.39899668 -0.10530655 -0.1480831 0.046331145 -0.038743205
-0.4254554 -0.21662115 -0.5748314 -0.49060544 -0.4612596 -0.33678588 -0.63604426 -0.33653563
-0.3535538 -0.19044241 -0.47636133 -0.74915296 0.20213945 -0.6210937 -0.16124374 -0.28104228
-0.5732928 -0.3643053 -0.22030379 -0.16837637 0.2411823 0.03789123 0.024646534 -0.12170218
-0.13444105 -0.40347463 -0.0934813 -0.6384679 -0.5564301 -0.35019538 0.23328422 -0.36837828
-0.39661357 -0.16748428 -0.38524085 -0.10978316 0.03394794 -0.118324876 -0.25548443 -0.38632187
-0.32573712 0.05123232 -0.16737553 -0.2515598 -0.5990686 -0.041336417 -0.199662 -0.63102037
-0.1889302 0.22344337 0.17921518 -0.16083671 -0.27873668 -0.05175235 -0.2146116 -0.28372175
-0.28841648 -0.27168745 0.02167329 -0.35536605 -0.05523863 0.20003584 0.18634814 0.006521975
-0.1730586 0.108204655 -0.016769886 -0.2134072 0.035738453 -0.082204066 -0.36176044 -0.23904262
0.120667145 0.1784695 -0.027062662 -0.1625694 -0.1938192 -0.24002092 -0.044359166 -0.35563028
-0.41734818 0.14205594 0.074035846 -0.23254772 0.10169191 -0.16272463 -0.07542684 -0.0679911
-0.2701692 0.13012215 -0.29389063 -0.3368499 -0.022277717 -0.109229505 -0.10312261 0.00068510283
-0.30656806 -0.21333095 0.036255166 0.024458405 -0.30613235 0.036276814 -0.14911763 -0.39602438
0.011986311 -0.041440982 0.023010928 -0.120987 0.12072484 -0.33371338 -0.2194418 -0.15709984
00000000: 358d 04be a922 423e 734b ea3d d696 8fbe
00000010: 358b d73d 3672 233b 9801 103d 9002 a53d
00000020: 191b 62bd 1612 4a3c 4313 a2be 5d4d d8be
00000030: a7c7 143e 8f1d 493e 61ec ea3c 5789 d9bd
00000040: ce05 5bbe b1fd 86be d487 d0be 5eb9 6fbe
00000050: d4ac 4bbe 7f58 b0be 8f9f 7bbe dfd4 31bf
00000060: 96eb 653d 5e27 9abe 0ad3 12be b91f c9be
00000070: 2afa f63d c597 28be 3208 86bd 0ad3 acbe
00000080: 113b 0f3d defc 97bd 1ca3 313e ba99 fb3c
00000090: 5ed4 5c3e db8f 623e 4fea 4f3e a6a6 333e
000000a0: 5c94 513e 0819 6dbe bfc8 42be 6e24 2e3e
000000b0: 8f7c 4cbe 1d73 4b3e e38a edbd 9eba 3d3e
000000c0: 0115 03bf 0b14 b0be 54d9 74bd 355a 12bf
000000d0: 861e d4bd 3165 333d 5b49 b8be 0b43 6ebe
000000e0: 7573 d7be c211 37be 780e 68be 2b7b 97be
000000f0: eb56 bc3d a9e0 3f3c 8768 82bd b1f1 08be
00000100: 34e1 c9be e3bc 26be 72a3 343e ff31 e5bd
00000110: d331 2c3e 3642 d83d d03c 97be d209 eebd
00000120: c459 d9bd 6b99 14bd 590c ddbd 6498 bebe
00000130: 665f 173d 0d81 123e afd8 35be fac8 92be
00000140: 8a41 21bf 8ed4 85be d695 7cbe 4ad2 28bf
00000150: f8a8 193e 9e9d bcbd c839 833e 902d 82bc
00000160: d859 0abf 4b82 53be df4f 5cbf 41ac ddbe
00000170: e1a7 7c3e fbb3 02be 67fa 143e ea35 0c3d
00000180: 4213 b3bf aaef 133e 144d a140 c07e 25bf
00000190: 112e f53d 2d51 9abd 9a2c f9bf 4b61 17c0
000001a0: 8126 06be 3bcc 3141 1cc8 11bd a3f2 d0bf
000001b0: 58f2 80bd 174c 1d41 9395 70bd c02c 49c0
000001c0: c744 68c0 e455 8bbd 352b a4bf 1979 02c0
000001d0: c3ff 9f3c 7859 173d 3b63 9a40 e10b 0540
000001e0: 7834 fb3a c385 20c0 33bc 823c 8bbb 7bc0
000001f0: 71cd 373c c49d 26c0 df87 4cbd ed81 afbe
00000200: cbe9 7bbe d85e 29be 0bda a5bd fec4 c1be
00000210: 127c 94be 2f69 8a3c 2250 a6bd 5f6e 9ebe
00000220: 3456 d0be 056d 17be fbac abbc 4b49 ccbe
00000230: f6aa d7bd 19a3 17be bac5 3d3d 32b1 1ebd
00000240: 4ad5 d9be efd1 5dbe 2728 13bf a330 fbbe
00000250: 382a ecbe 336f acbe ccd3 22bf 664e acbe
00000260: 0105 b5be 5603 43be a2e5 f3be 7dc8 3fbf
00000270: a5fd 4e3e ffff 1ebf 141d 25be c6e4 8fbe
00000280: 51c3 12bf 3986 babe 5197 61be db6a 2cbe
00000290: 7ef8 763e d633 1b3d 87e7 c93c fe3e f9bd
000002a0: eaaa 09be 3a94 cebe 2073 bfbd a272 23bf
000002b0: 3472 0ebf cf4c b3be 0fe2 6e3e 149c bcbe
000002c0: ef10 cbbe 0081 2bbe 4a3e c5be fed5 e0bd
000002d0: ff0c 0b3d 5054 f2bd dbce 82be fbcb c5be
000002e0: 04c7 a6be fbd8 513d 7e64 2bbe 72cc 80be
000002f0: 8f5c 19bf 6050 29bd 3274 4cbe 8d8a 21bf
00000300: eb76 41be 57ce 643e 2f84 373e 61b2 24be
00000310: 93b6 8ebe 46fa 53bd 25c3 5bbe fa43 91be
00000320: 53ab 93be 9e1a 8bbe 2f8c b13c 8af2 b5be
00000330: e741 62bd 32d6 4c3e 0cd2 3e3e 4bb6 d53b
00000340: 4636 31be 679a dd3d 0061 89bc 6b87 5abe
00000350: 7c62 123d 9b5a a8bd aa38 b9be 97c7 74be
00000360: 5620 f73d b5c0 363e 84b2 ddbc 9878 26be
00000370: 8a78 46be 0bc8 75be f5b1 35bd 2c15 b6be
00000380: a9ae d5be 1d77 113e 1ba0 973d fd20 6ebe
00000390: d943 d03d 49a1 26be 6379 9abd eb3e 8bbd
000003a0: 9e53 8abe be3e 053e d578 96be 9777 acbe
000003b0: c27f b6bc b8b3 dfbd f231 d3bd 7998 333a
000003c0: 7df6 9cbe 6e73 5abe 4c80 143d fe5c c83c
000003d0: 61bd 9cbe ff96 143d 4bb2 18be b5c3 cabe
000003e0: 3b62 443c 05be 29bd 6a81 bc3c 08c8 f7bd
000003f0: 963e f73d 7bdc aabe 5ab5 60be c8de 20be

neural_networks.1.linear_relu_stack.4.weight f4 [16]
0.24452353 0.17661975 0.015630985 0.23009692 0.26468074 0.2250574 0.40042093 0.51951635
0.36468676 0.18114403 0.22781669 0.19324812 0.29250997 0.15581642 0.42425367 0.4124774
00000000: 6064 7a3e cfdb 343e 8d0c 803c 879e 6b3e
00000010: 3c84 873e 7275 663e f903 cd3e 06ff 043f
00000020: 39b8 ba3e d27d 393e c748 693e d6e2 453e
00000030: dec3 953e 578e 1f3e c737 d93e 3d30 d33e

neural_networks.1.linear_relu_stack.4.bias f4 [16]
-0.36965343 -0.81390977 -0.14381444 -0.7319272 -0.48669598 -0.76465034 -0.077297725 -0.11889545
-0.57763654 -0.79240733 -0.6010996 -0.80733055 -0.7847104 -0.5019734 -0.6572693 -0.7011889
00000000: 3743 bdbe 645c 50bf 1844 13be 955f 3bbf
00000010: 3730 f9be 20c0 43bf 454e 9ebd 757f f3bd
00000020: fddf 13bf 35db 4abf aae1 19bf 37ad 4ebf
00000030: c8e2 48bf 5481 00bf cd42 28bf 1e81 33bf

neural_networks.1.linear_relu_stack.4.running_mean f4 [16]
2.1578488 -15.591806 4.6871815 -11.221052 -4.5388446 -5.191751 161.90039 13.495214
-8.4927025 -24.668736 -11.72903 -10.855071 -5.341986 -8.208438 -2.9934278 -8.452161
00000000: 321a 0a40 0a78 79c1 64fd 9540 6e89 33c1
00000010: 373e 91c0 d322 a6c0 80e6 2143 66ec 5741
00000020: 1ce2 07c1 9259 c5c1 1baa 3bc1 5fae 2dc1
00000030: 8df1 aac0 c355 03c1 5294 3fc0 0d3c 07c1

neural_networks.1.linear_relu_stack.4.running_var f4 [16]
2.0058045 1.9157968 0.4489479 3.3748665 1.3434098 24.171284 2945.2412 2225.6533
4.0409193 9.468041 18.087065 1.4040625 0.64544195 1.0093198 2.534687 0.40371385
00000000: 1a5f 0040 d438 f53f 80dc e53e d0fd 5740
00000010: daf4 ab3f ca5e c141 dc13 3845 741a 0b45
00000020: 364f 8140 197d 1741 4fb2 9041 52b8 b33f
00000030: af3b 253f 6431 813f 5038 2240 95b3 ce3e

neural_networks.1.linear_relu_stack.6.weight f4 [1, 16]
0.0011573979 0.03327239 0.006927134 0.042817786 -0.034746643 0.0052360743 -0.17286457 0.22325538
0.008107191 0.09297312 0.052299626 -0.14221175 -0.0064387335 0.1257949 0.05750468 -0.044283204
00000000: d4b3 973a a148 083d 03fd e23b b461 2f3d
00000010: 7f52 0ebd 6093 ab3b 6903 31be 0f9d 643e
00000020: 06d4 043c b168 be3d 2238 563d f59f 11be
00000030: 03fc d2bb 61d0 003e 078a 6b3d 4e62 35bd

neural_networks.2.linear_relu_stack.0.weight f4 [16, 2]
-0.01917549 -0.9313932 -40.063374 -0.071338944 17.06137 1.3032577 0.9420533 0.29186785
0.08169642 -0.8342459 0.20845115 0.10108665 -26.313732 -0.006715967 -13.432037 -0.1497779
-21.012941 -1.3285698 26.864609 0.12856999 -0.137126 1.0668696 -1.5401931 5.7802386e-05
-0.8636155 0.19642977 -12.680153 0.45073125 -9.325767 -0.21491319 0.27202153 -0.870703
00000000: eb15 9dbc c96f 6ebf e540 20c2 271a 92bd
00000010: b07d 8841 26d1 a63f 682a 713f b46f 953e
00000020: 7450 a73d 2491 55bf 3874 553e 8406 cf3d
00000030: 8682 d2c1 9d11 dcbb a0e9 56c1 615f 19be
00000040: 811a a8c1 930e aabf b8ea d641 daa7 033e
00000050: c26a 0cbe 2f8f 883f 0c25 c5bf d770 7238
00000060: e815 5dbf e324 493e e8e1 4ac1 3fc6 e63e
00000070: 5736 15c1 3412 5cbe 6846 8b3e 64e6 5ebf

neural_networks.2.linear_relu_stack.1.weight f4 [16]
-0.04857662 1.8432049 1.9000258 -0.06726229 -0.008199478 0.05026511 1.4020671 3.0857499
-0.4771597 -2.0163603 0.08120061 0.06591122 -0.015057179 0.022645067 -0.066825174 0.04876809
00000000: 47f8 46bd 23ee eb3f 0c34 f33f d0c0 89bd
00000010: 1a57 06bc cae2 4d3d ef76 b33f ed7c 4540
00000020: 474e f4be 0c0c 01c0 814c a63d 76fc 863d
00000030: 63b2 76bc 2682 b93c a3db 88bd 0cc1 473d

neural_networks.2.linear_relu_stack.1.bias f4 [16]
-0.40308365 7.2850537 0.49143356 -0.635664 -0.33505443 -0.3838946 5.5652966 0.6316742
3.9367614 2.7821634 -0.62920785 -0.40453658 -0.14005212 5.250142 -0.33869398 -0.33900312
00000000: fb60 cebe 291f e940 2e9d fb3e e0ba 22bf
00000010: 418c abbe d58d c4be e916 b240 66b5 213f
00000020: e6f3 7b40 f70e 3240 c413 21bf 6b1f cfbe
00000030: d369 0fbe 2a01 a840 4c69 adbe d191 adbe

neural_networks.2.linear_relu_stack.1.running_mean f4 [16]
-0.5750167 -184.53671 79.22199 4.490585 -0.059745345 1.0127219 -121.17343 -61.906384
-97.51482 123.81478 -0.073941 -7.092409 -3.874218 -58.151825 -43.05656 0.7976321
00000000: 4b34 13bf 6689 38c3 a971 9e42 dfb2 8f40
00000010: 89b7 74bd dfa0 813f cc58 f2c2 23a0 77c2
00000020: 9607 c3c2 2ba1 f742 616e 97bd 04f5 e2c0
00000030: 30f3 77c0 789b 68c2 eb39 2cc2 9e31 4c3f

neural_networks.2.linear_relu_stack.1.running_var f4 [16]
0.0035921305 0.3455691 0.09812832 0.0008976994 0.0027758025 7.874267e-05 0.14769179 0.041427158
0.13735877 0.15876174 0.0044959737 0.00050547963 9.6758624e-05 0.027644727 0.02133655 0.002826154
00000000: f369 6b3b 6fee b03e 80f7 c83d 9653 6b3a
00000010: 3dea 353b a622 a538 843c 173e 86af 293d
00000020: c7a7 0c3e 7092 223e f652 933b 2a82 043a
00000030: e4ea ca38 3277 e23c fdc9 ae3c ff36 393b

neural_networks.2.linear_relu_stack.3.weight f4 [16, 16]
-0.031985242 -0.20830774 -0.07372409 -0.14218535 0.11089579 -0.21926178 -0.08643261 -0.27710557
-0.4027161 -0.4383581 -0.22591902 -0.050270207 -0.08094353 -0.2516659 -0.23464349 0.16424055
0.09952657 -0.24278158 -0.22091275 -0.047825947 0.356217 -0.2175176 -0.12975805 -0.49561027
-0.76730597 0.02291583 -0.38191676 -0.28300494 -0.25467116 -0.46633255 -1.1770617 -0.20113413
-0.24516848 -0.5027375 0.047178954 0.089326814 -0.1397812 0.14429863 -0.03955161 -0.19397353
-0.14141767 -0.14885032 -0.016481573 0.024449052 -0.08308304 -0.15580557 -0.09187556 -0.08270478
-0.3118312 -0.48362502 0.02970998 0.27999914 -0.40882406 0.04247793 -0.25529116 -0.6614633
-0.32170025 0.16719973 0.07531589 -0.20428771 -0.15760815 -0.31173223 -0.2598495 0.040515997
-0.17804258 0.36327973 -0.33277357 -0.14867745 -0.2756694 -0.010704994 0.82968557 0.041437622
0.581411 -0.047644157 0.1056862 -0.22353551 0.1555965 -0.0076531554 -0.10231253 -0.0003354549
0.063328415 0.028968425 -0.10171834 -0.04164382 0.03222583 -0.2175804 -0.14171109 -0.27634498
-0.009310326 0.14650127 0.10591773 -0.0038490563 -0.1110715 0.08751481 -0.1510048 -0.017313246
-0.25925365 -0.09661079 -0.08144739 -0.24189872 0.045483723 -0.30862957 -0.26478678 -0.09187128
-0.22850053 -0.43244475 -0.36296916 0.1872947 -0.13239288 -0.12505636 -0.053234134 0.17144254
-0.14395186 -0.16513193 0.25505567 0.2650616 0.027275832 -0.10501823 -0.23518439 -0.4190714
-0.12822928 0.13059348 -0.15638874 -0.3611363 0.10010293 -0.52350765 -0.08938474 -0.4446374
0.12169679 -0.26937047 -0.1637779 -0.21415547 -0.017438242 0.07357845 -0.09776397 -0.2801726
-0.08979904 0.17217961 -0.064186804 0.1163125 -0.3517258 -0.09547042 -0.11004131 0.16253042
0.08795393 -10.995841 -0.57651925 -0.03584065 0.053423908 -0.016473599 -7.913414 -3.4131706
-0.38192952 -1.6845325 0.038836155 -0.29972047 -0.02556424 -0.23783243 -0.19825758 -0.057927568
-0.063766755 0.03808895 -0.1413884 0.016875308 -0.32642755 -0.21694113 -0.25021333 -0.38651597
-0.4459005 -0.248161 0.08545966 0.01971779 -0.33865365 -0.36678785 -0.3961717 0.10666997
-0.53139734 -0.24788117 -0.11826161 -0.12368914 -0.8176525 -0.081528746 -0.7541946 -0.22238825
-0.24240223 0.123740956 0.003411058 -0.21543504 -0.05320561 -0.52238953 -0.42412177 -0.6157818
-0.46498924 -0.34060833 -0.21347055 -0.3051906 0.23089808 0.24252917 -0.18170595 -0.55242383
-0.5000229 -0.13157892 0.14537261 -0.4138726 -0.12461191 -0.6416917 -0.5393461 -0.46834242
-0.09358935 0.10505336 -0.3121386 -0.23340313 -0.17006394 -0.2821474 0.18373626 0.4603253
0.30308974 0.3624917 0.12576227 0.22349484 -0.17228451 -0.03486283 0.2587112 0.0022110734
0.01698222 -0.124203354 -0.17605989 -0.009637879 -0.16252439 -0.18880124 0.1464598 -0.4802141
-0.12609409 -0.2679362 -0.019897455 0.082362704 -0.0053581325 -0.44571292 -0.39491764 0.0060050525
0.1458611 13.626396 -1.7532828 -0.053867456 -0.13164161 -0.0043645697 5.189406 -0.8770604
-0.63608825 -0.029611249 -0.16029014 -0.026123276 0.09902176 0.26921412 -0.19172233 0.012774494
00000000: f502 03bd a04e 55be a8fc 96bd 0999 11be
00000010: 551d e33d 2986 60be 9503 b1bd c8e0 8dbe
00000020: ce30 cebe 7970 e0be 5157 67be 22e8 4dbd
00000030: b9c5 a5bd 5ada 80be 6246 70be ad2e 283e
00000040: 96d4 cb3d bc9b 78be f436 62be 24e5 43bd
00000050: 1362 b63e efbc 5ebe 4bdf 04be a1c0 fdbe
00000060: 2a6e 44bf fbb9 bb3c 988a c3be 06e6 90be
00000070: 4264 82be 24c3 eebe f5a9 96bf 1bf6 4dbe
00000080: 720d 7bbe 68b3 00bf b83e 413d faf0 b63d
00000090: ce22 0fbe 05c3 133e de00 22bd ffa0 46be
000000a0: cbcf 10be 386c 18be 5d04 87bc 6149 c83c
000000b0: 7127 aabd 7f8b 1fbe 4129 bcbd 2061 a9bd
000000c0: 57a8 9fbe b39d f7be 5862 f33c 0c5c 8f3e
000000d0: 6351 d1be 57fd 2d3d 86b5 82be a955 29bf
000000e0: e5b5 a4be 6836 2b3e 383f 9a3d cc30 51be
000000f0: 0864 21be 5e9b 9fbe fe0a 85be 1af4 253d
00000100: cb50 36be cdff b93e 4c61 aabe e73e 18be
00000110: 8a24 8dbe 0064 2fbc 4666 543f 7fba 293d
00000120: 5ad7 143f 8526 43bd 0272 d83d 7ee6 64be
00000130: b054 1f3e 52c7 fabb 3b89 d1bd ffdf afb9
00000140: 54b2 813d 314f ed3c b451 d0bd b692 2abd
00000150: 3bff 033d 65cd 5ebe b61c 11be 177d 8dbe
00000160: 568a 18bc 6e04 163e 65eb d83d 7340 7cbb
00000170: 7479 e3bd f73a b33d 01a1 1abe 82d4 8dbc
00000180: e5bc 84be e1db c5bd e4cd a6bd 4cb4 77be
00000190: 244d 3a3d b204 9ebe 2292 87be 0227 bcbd
000001a0: 0bfc 69be 6669 ddbe 18d7 b9be 2fca 3f3e
000001b0: 0092 07be c60e 00be 090c 5abd a28e 2f3e
000001c0: 1e68 13be 5818 29be a896 823e 27b6 873e
000001d0: 9171 df3c cc13 d7bd 2dd4 70be 8790 d6be
000001e0: 894e 03be 4cba 053e 5f24 20be dbe6 b8be
000001f0: c402 cd3d 9904 06bf 590f b7bd 83a7 e3be
00000200: 2b3c f93d edea 89be 65b5 27be 924b 5bbe
00000210: a5da 8ebc 4cb0 963d 7a38 c8bd c872 8fbe
00000220: 8fe8 b7bd da4f 303e 5f74 83bd 3f35 ee3d
00000230: 6715 b4be ff85 c3bd 575d e1bd 606e 263e
00000240: 3121 b43d f7ee 2fc1 c496 13bf a5cd 12bd
00000250: 07d3 5a3d a4f3 86bc b03a fdc0 6371 5ac0
00000260: 448c c3be c39e d7bf a912 1f3d f674 99be
00000270: 196c d1bc 588a 73be 0904 4bbe 7545 6dbd
00000280: 2598 82bd 2903 1c3d 1fc8 10be 163e 8a3c
00000290: 8321 a7be d125 5ebe f61b 80be 6ce5 c5be
000002a0: 124d e4be eb1d 7ebe 7905 af3d 3487 a13c
000002b0: 0364 adbe 9ecb bbbe 04d7 cabe c975 da3d
000002c0: a809 08bf 90d4 7dbe 2533 f2bd bb50 fdbd
000002d0: ad51 51bf 8bf8 a6bd e612 41bf bfb9 63be
000002e0: 4a38 78be e66b fd3d 0f8c 5f3b 019b 5cbe
000002f0: 20ee 59bd 52bb 05bf 7d26 d9be e0a3 1dbf
00000300: 1213 eebe 3764 aebe 0698 5abe f141 9cbe
00000310: 8c70 6c3e 9159 783e 2011 3abe a66b 0dbf
00000320: 8001 00bf a0bc 06be 8fdc 143e 1ce7 d3be
00000330: 8734 ffbd e845 24bf 9612 0abf 94ca efbe
00000340: c6ab bfbd 3726 d73d a1d0 9fbe 3b01 6fbe
00000350: 3e25 2ebe a075 90be 5c25 3c3e c2af eb3e
00000360: 942e 9b3e 8398 b93e d3c7 003e d5db 643e
00000370: 5a6b 30be 54cc 0ebd cb75 843e a8e7 103b
00000380: 4c1e 8b3c 545e febd 0b49 34be 32e8 1dbc
00000390: cb6c 26be 1d55 41be 8ff9 153e 9fde f5be
000003a0: cf1e 01be ef2e 89be fdff a2bc c7ad a83d
000003b0: 4693 afbb 7c34 e4be a532 cabe 08c6 c43b
000003c0: 9d5c 153e b805 5a41 926b e0bf 1fa4 5cbd
000003d0: 0fcd 06be aa04 8fbb 9d0f a640 0887 60bf
000003e0: aed6 22bf 4a93 f2bc 1923 24be 7b00 d6bc
000003f0: eccb ca3d 6fd6 893e dc52 44be 1c4c 513c

neural_networks.2.linear_relu_stack.4.weight f4 [16]
0.10059253 0.10473004 0.0168829 0.1906489 0.07043133 0.055036806 -0.025796391 0.16243269
0.09403382 0.6264849 0.09279371 0.03241446 0.16003104 0.07126129 0.18620452 0.32584807
00000000: 7503 ce3d b47c d63d 024e 8a3c 7739 433e
00000010: 4d3e 903d 466e 613d f452 d3bc c154 263e
00000020: ce94 c03d 5061 203f a10a be3d 06c5 043d
00000030: 2ddf 233e 70f1 913d 66ac 3e3e 8fd5 a63e

neural_networks.2.linear_relu_stack.4.bias f4 [16]
-0.5392873 -0.76113176 -0.7039823 -0.71464944 -0.54209554 -0.16155204 -0.40843225 -0.63038087
-0.56246793 -0.41261992 -0.681656 -0.7044586 -0.772621 -0.6610089 -0.73855907 0.27608225
00000000: bc0e 0abf 88d9 42bf 2f38 34bf 44f3 36bf
00000010: c6c6 0abf e66d 25be 081e d1be a460 21bf
00000020: e6fd 0fbf eb42 d3be 0281 2ebf 6657 34bf
00000030: 7dca 45bf e137 29bf 3512 3dbf a75a 8d3e

neural_networks.2.linear_relu_stack.4.running_mean f4 [16]
-6.674457 -8.908946 -5.94132 -8.386294 9.09765 -0.27904359 -5.2000914 -5.7916
-3.482201 -137.65578 -6.2649493 -9.820558 -10.302799 4.241226 -4.635652 124.174904
00000000: 2795 d5c0 0b8b 0ec1 4b1f bec0 432e 06c1
00000010: f98f 1141 cdde 8ebe 2667 a6c0 ca54 b9c0
00000020: 62dc 5ec0 e1a7 09c3 777a c8c0 0121 1dc1
00000030: 44d8 24c1 20b8 8740 4357 94c0 8d59 f842

neural_networks.2.linear_relu_stack.4.running_var f4 [16]
2.5597 1.0985813 2.6038043 4.3984327 3.761228 0.13702452 1.8026899 1.9910866
0.44941565 1608.3885 1.3833588 2.1860805 3.1740358 4.8026886 1.6216035 1115.2727
00000000: 20d2 2340 509e 8c3f bba4 2640 f6bf 8c40
00000010: f6b7 7040 2850 0c3e 8bbe e63f eddb fe3f
00000020: cf19 e63e 6f0c c944 e711 b13f bee8 0b40
00000030: 6723 4b40 a0af 9940 b490 cf3f ba68 8b44

neural_networks.2.linear_relu_stack.6.weight f4 [1, 16]
-0.1398588 0.040742308 0.01936425 0.13020109 0.087549835 0.022267502 0.0633017 -0.056603193
-0.12778072 0.21458013 -0.012829332 -0.05852142 0.13081159 -0.09428642 -0.10702106 -0.2624169
00000000: 2537 0fbe 68e1 263d c7a1 9e3c 6f53 053e
00000010: 544d b33d 566a b63c 52a4 813d c0d8 67bd
00000020: f3d8 02be e5ba 5b3e 1e32 52bc 28b4 6fbd
00000030: 79f3 053e 3d19 c1bd dc2d dbbd 825b 86be

neural_networks.3.linear_relu_stack.0.weight f4 [16, 2]
-0.3712484 0.3944477 18.63559 -0.36255783 30.440449 -0.16593681 0.079041965 -0.9987065
0.43511975 0.1343167 -9.1693125 0.3929665 0.4674506 0.8010409 0.10261355 0.67790234
-19.228106 -0.08293813 -33.182003 0.13838172 -34.15657 0.2162724 -0.274362 0.73550344
-13.258917 -0.23989467 -0.083268784 0.29619518 0.093742624 -0.5643498 -0.53635734 0.56115395
00000000: 4514 bebe 0df5 c93e b015 9541 2ea1 b9be
00000010: 0a86 f341 57eb 29be c1e0 a13d 3bab 7fbf
00000020: 04c8 de3e 518a 093e 81b5 12c1 e832 c93e
00000030: af55 ef3e 0411 4d3f 0e27 d23d 028b 2d3f
00000040: 29d3 99c1 77db a9bd 5fba 04c2 f0b3 0d3e
00000050: 54a0 08c2 8376 5d3e 2d79 8cbe f449 3c3f
00000060: 8624 54c1 f3a6 75be d388 aabd e5a6 973e
00000070: 22fc bf3d 3a79 10bf b74e 09bf c9a7 0f3f

neural_networks.3.linear_relu_stack.1.weight f4 [16]
0.042218737 2.9262967 1.8605072 0.12171728 -0.032220367 0.020331033 0.0875051 -0.00431952
2.4298067 2.3966658 2.0567496 0.046470724 0.15847492 0.034565553 -0.012751278 0.055854905
00000000: 8eed 2c3d 7248 3b40 1a25 ee3f e946 f93d
00000010: 81f9 03bd 448d a63c e035 b33d c38a 8dbb
00000020: f481 1b40 f962 1940 c9a1 0340 1658 3e3d
00000030: 4047 223e 9c94 0d3d bcea 50bc 1dc8 643d

neural_networks.3.linear_relu_stack.1.bias f4 [16]
-0.9616697 2.0622916 4.059642 -0.78329706 -0.58418995 -0.20683622 -0.57139105 -0.93668884
1.0319002 9.243835 8.2917595 -0.4401028 -0.972394 -0.24638185 -0.18066695 -0.3421855
00000000: fc2f 76bf 96fc 0340 96e8 8140 2886 48bf
00000010: 798d 15bf e0cc 53be af46 12bf d7ca 6fbf
00000020: 4e15 843f c0e6 1341 0cab 0441 2755 e1be
00000030: d0ee 78bf 864b 7cbe c200 39be f032 afbe

neural_networks.3.linear_relu_stack.1.running_mean f4 [16]
-1.5060638 85.66664 140.1092 -0.15127972 2.0729918 -42.02125 2.5658553 0.8222774
-88.606094 -152.75592 -157.20792 -0.88394856 -61.180084 -0.2306307 0.14051309 -2.1803691
00000000: b3c6 c0bf 5255 ab42 f51b 0c43 12e9 1abe
00000010: e6ab 0440 c315 28c2 f936 2440 c680 523f
00000020: 5236 b1c2 84c1 18c3 3a35 1dc3 744a 62bf
00000030: 68b8 74c2 742a 6cbe aae2 0f3e 2b8b 0bc0

neural_networks.3.linear_relu_stack.1.running_var f4 [16]
0.0011508374 0.093599126 0.28243312 0.009512589 0.00040072904 0.018254692 0.007382866 0.0046828943
0.12192193 0.3398816 0.35334834 0.0047356775 0.065681465 0.0007889768 0.0029618866 0.0023190128
00000000: b2d7 963a e6b0 bf3d 139b 903e b1da 1b3c
00000010: f118 d239 dd8a 953c f8eb f13b f772 993b
00000020: 34b2 f93d f604 ae3e 13ea b43e be2d 9b3b
00000030: 0184 863d 56d3 4e3a 361c 423b 94fa 173b

neural_networks.3.linear_relu_stack.3.weight f4 [16, 16]
-0.010145769 -0.6897367 -0.5586509 0.16680239 -0.26635844 -0.5023655 -0.14650631 -0.2390195
0.34791052 -0.36311013 -0.16718449 -0.51670927 -0.08152525 -0.31170812 -0.10694189 0.14711367
-0.14678256 -0.44309053 -0.3673625 -0.2803161 -0.35631576 0.09331822 -0.1640905 -0.48084384
-0.18944131 -0.18417515 0.013820304 -0.1935551 -0.15823713 -0.27783644 0.24543355 -0.7662823
-0.17870644 -0.38005814 0.05486608 -0.23718561 -0.35892603 -0.19883081 -0.27722514 -0.24914469
-0.33601773 -0.31850693 -0.791358 -0.4914138 -0.20515637 -0.3167659 -0.08453283 -0.061719067
0.23408543 0.14591296 -0.15516515 0.17361642 0.20459835 -0.08370188 0.034899462 0.100273
-0.39457202 -0.14933369 -0.14189655 0.1281529 0.042414803 0.29874012 -0.07070025 -0.048346315
0.034990855 -2.3307176 -0.91564447 0.030286938 -0.012404741 -0.027867075 -0.070370756 -0.05620465
-0.7433033 7.628395 9.567488 -0.011454826 -0.15921617 -0.0013731084 -0.03125257 -0.008374757
-0.22458704 -0.80646443 -0.18662511 -0.10287791 -0.42185017 -0.06286957 -0.29139572 -0.24338895
-0.14080806 0.17350507 0.12123925 -0.3718977 0.0854352 -0.013163075 -0.044068143 0.13851306
-0.11673708 0.036879353 0.066377155 -0.0031852473 -0.06072058 -0.09094015 0.2322394 -0.16875671
-0.2736222 -0.3186241 0.0064851535 0.051064055 -0.4401761 0.18376625 -0.19808248 -0.27069324
0.068422124 0.045741115 0.11411404 -0.1360697 0.047896676 -0.3049387 -0.112229005 -0.034488607
-0.32312244 -0.29603842 -0.31550136 -0.19916375 -0.28016528 0.06768694 -0.17587976 -0.19756687
-0.18584958 -1.2671105 -0.2216244 -0.07999213 -0.35115746 -0.17468925 -0.10676133 0.018887585
-0.03205312 0.1771997 0.03213316 -0.13333683 -0.0050461087 -0.03662069 -0.25685623 -0.048254676
-0.2178282 -0.118788846 -0.22618727 -0.022851799 -0.009461314 -0.36547235 -0.40663946 -0.41549587
-0.46494117 0.07534018 -0.054347143 -0.1503717 -0.5597111 -0.27723962 -0.39493266 0.18565066
-0.37276527 -0.4841409 -0.15201776 0.053090613 -0.56572646 -0.467334 -0.47063988 -0.3535291
0.15736203 0.009832462 -0.15025625 -0.32360741 -0.36227933 -0.19335288 -0.17485678 0.0017354846
-0.027150255 -0.13441063 -0.12454862 0.10456173 0.03712152 0.022635102 -0.18342908 -0.094383374
-0.2182861 -0.24764873 -0.083032735 -0.09003723 -0.19889817 0.04063023 -0.034435786 -0.20988822
-0.103776544 -0.05675481 -0.09815759 -0.10408207 -0.27311876 -0.25948307 0.22274601 0.11330737
-0.13456373 -0.2113085 -0.22085269 0.10030979 -0.26848304 0.14460202 -0.07783114 0.016201044
-0.09723733 0.25307515 3.6347077 0.008095465 0.051798917 -0.12628716 0.04022834 -0.006882626
-2.3046856 -9.361503 -10.068182 -0.017949881 -0.2903869 0.006008134 0.02255878 -0.075137325
-0.26682878 -0.5256152 -0.18765812 -0.21505468 -0.120940775 -0.07860912 -0.114877395 -0.09425826
-0.21828283 -0.15307555 -0.010894258 0.10017916 -0.07021106 -0.33795068 -0.11511327 0.020002123
0.31093743 -0.064348474 -0.3220044 0.028554484 -0.09337856 -0.13978113 -0.077628516 -0.0769585
-0.12660751 -0.09009336 0.16831827 -0.12489304 -0.35323948 0.028765677 -0.046713743 -0.1298012
00000000: 713a 26bc 9692 30bf bf03 0fbf 3fce 2a3e
00000010: 2260 88be 079b 00bf c005 16be 87c1 74be
00000020: 5421 b23e 92e9 b9be 6932 2bbe 0f47 04bf
00000030: b6f6 a6bd 3598 9fbe 5a04 dbbd f7a4 163e
00000040: 2b4e 16be c3dc e2be f016 bcbe 9885 8fbe
00000050: 056f b6be 9f1d bf3d 5707 28be 2a31 f6be
00000060: e7fc 41be 6998 3cbe 8e6e 623c 4f33 46be
00000070: ea08 22be 9440 8ebe ef52 7b3e 142b 44bf
00000080: d2fe 36be fb96 c2be 41bb 603d c9e0 72be
00000090: 27c5 b7be 4e9a 4bbe 74f0 8dbe c91f 7fbe
000000a0: 840a acbe 5713 a3be 7096 4abf 979a fbbe
000000b0: 8314 52be 242f a2be 8c1f adbd 22cd 7cbd
000000c0: 17b4 6f3e 356a 153e 9de3 1ebe 81c8 313e
000000d0: 3b82 513e e46b abbd bdf2 0e3d ee5b cd3d
000000e0: 5805 cabe eeea 18be 544d 11be 843a 033e
000000f0: 25bb 2d3d 77f4 983e 4bcb 90bd c906 46bd
00000100: 9252 0f3d 7a2a 15c0 ad67 6abf 501c f83c
00000110: 413d 4bbc 7e49 e4bc 8b1e 90bd d936 66bd
00000120: 2049 3ebf d01b f440 6e14 1941 06ad 3bbc
00000130: 9009 23be dff9 b3ba b202 00bd 4736 09bc
00000140: 25fa 65be 7474 4ebf a71a 3fbe a7b1 d2bd
00000150: bffc d7be c3c1 80bd d231 95be f43a 79be
00000160: fd2f 10be 50ab 313e 494c f83d 6069 bebe
00000170: a6f8 ae3d f0a9 57bc cc80 34bd 5ed6 0d3e
00000180: da13 efbd ce0e 173d bff0 873d 95bf 50bb
00000190: 25b6 78bd d43e babd 2ad0 6d3e 8fce 2cbe
000001a0: 3618 8cbe b322 a3be 6981 d43b 8b28 513d
000001b0: c35e e1be 382d 3c3e 22d6 4abe 4e98 8abe
000001c0: e620 8c3d 095b 3b3d 9fb4 e93d db55 0bbe
000001d0: 4e2f 443d ed20 9cbe 52d8 e5bd ed43 0dbd
000001e0: 4e70 a5be 5992 97be 6589 a1be 95f1 4bbe
000001f0: d371 8fbe 739f 8a3d d319 34be f84e 4abe
00000200: 5a4f 3ebe ad30 a2bf 82f1 62be ead2 a3bd
00000210: e9ca b3be bde1 32be afa5 dabd 23ba 9a3c
00000220: 224a 03bd d773 353e 0f9e 033d 7389 08be
00000230: d459 a5bb 94ff 15bd a982 83be b2a6 45bd
00000240: 5b0e 5fbe 9147 f3bd a39d 67be b233 bbbc
00000250: a103 1bbc 311f bbbe 0c33 d0be e0bb d4be
00000260: c50c eebe f44b 9a3d 1c9b 5ebd 0afb 19be
00000270: 3a49 0fbf 5af2 8dbe 9d34 cabe 351b 3e3e
00000280: 17db bebe 51e1 f7be 8baa 1bbe 8b75 593d
00000290: 73d3 10bf 6746 efbe b6f7 f0be c401 b5be
000002a0: 8323 213e 5618 213c c6dc 19be dfaf a5be
000002b0: ad7c b9be 4cfe 45be a80d 33be 3379 e33a
000002c0: 366a debc f1a2 09be 5913 ffbd 7624 d63d
000002d0: bc0c 183d 406d b93c d5d4 3bbe 124c c1bd
000002e0: 6486 5fbe a197 7dbe 110d aabd 7065 b8bd
000002f0: f6ab 4bbe e26b 263d 8a0c 0dbd f0ec 56be
00000300: cc88 d4bd bb77 68bd d906 c9bd fb28 d5bd
00000310: 39d6 8bbe f7da 84be 8817 643e b20d e83d
00000320: 13cb 09be 4161 58be 3527 62be 386f cd3d
00000330: 9c76 89be 8d12 143e ef65 9fbd 0db8 843c
00000340: 5e24 c7bd 1193 813e 0d9f 6840 d7a2 043c
00000350: 1a2b 543d 6c51 01be 79c6 243d a787 e1bb
00000360: f87f 13c0 b7c8 15c1 4617 21c1 a10b 93bc
00000370: 97ad 94be e2df c43b 31cd b83c 99e1 99bd
00000380: c89d 88be b88e 06bf 7329 40be 4b37 5cbe
00000390: ccaf f7bd d1fd a0bd d744 ebbd 7a0a c1bd
000003a0: 8985 5fbe d6bf 1cbe d47d 32bc bb2a cd3d
000003b0: d1ca 8fbd df07 adbe 82c0 ebbd 7edb a33c
000003c0: 3133 9f3e 22c9 83bd c3dd a4be 18eb e93c
000003d0: 423d bfbd c922 0fbe b3fb 9ebd 6b9c 9dbd
000003e0: 66a5 01be de82 b8bd a05b 2c3e ecc7 ffbd
000003f0: cedb b4be ffa5 eb3c e956 3fbd 9bea 04be

neural_networks.3.linear_relu_stack.4.weight f4 [16]
0.018998772 0.08542 0.14438558 0.17600049 0.49933589 0.08342719 0.12027455 0.030317962
0.18716265 0.27034923 0.18556802 0.22888371 0.14926241 0.43949983 0.19618735 0.21792729
00000000: 50a3 9b3c aef0 ae3d d0d9 133e 7939 343e
00000010: f4a8 ff3e e0db aa3d 8152 f63d 605d f83c
00000020: 91a7 3f3e 376b 8a3e 8b05 3e3e 7e60 6a3e
00000030: 3fd8 183e 1f06 e13e 56e5 483e 5528 5f3e

neural_networks.3.linear_relu_stack.4.bias f4 [16]
-0.5278346 -0.8157122 -0.73958194 -0.66156477 -0.10009657 -0.69260246 -0.6278869 -0.5152504
-0.8155286 -0.8815511 -0.76448333 -0.64919156 -0.69177324 0.026835997 -0.8669335 -0.5987426
00000000: 2b20 07bf 84d2 50bf 3e55 3dbf 4f5c 29bf
00000010: 6eff ccbd 654e 31bf 32bd 20bf 73e7 03bf
00000020: 7bc6 50bf 55ad 61bf 2eb5 43bf 6b31 26bf
00000030: 0d18 31bf 2ad7 db3c 5bef 5dbf 3247 19bf

neural_networks.3.linear_relu_stack.4.running_mean f4 [16]
-8.181936 -4.4781933 -10.753263 -3.442139 139.01184 -0.37450927 -2.9580607 -5.2806125
-2.1962285 -1.6963949 -2.7297757 -4.159211 -4.5347667 -158.28764 -3.9158468 -1.1034806
00000000: 36e9 02c1 5c4d 8fc0 5e0d 2cc1 014c 5cc0
00000010: 0803 0b43 aebf bfbe de50 3dc0 c7fa a8c0
00000020: 028f 0cc0 7823 d9bf a5b4 2ec0 4218 85c0
00000030: cf1c 91c0 a349 1ec3 3c9d 7ac0 da3e 8dbf

neural_networks.3.linear_relu_stack.4.running_var f4 [16]
3.8137732 1.0855968 5.0159826 1.7996275 1910.5173 7.0860467 1.9793354 4.8471823
14.350008 0.15114588 1.8446085 0.4009011 0.7760895 2942.879 0.85552716 0.45854574
00000000: dc14 7440 d6f4 8a3f ee82 a040 325a e63f
00000010: 8ed0 ee44 e5c0 e240 dd5a fd3f 1e1c 9b40
00000020: a299 6541 fcc5 1a3e 221c ec3f e942 cd3e
00000030: cdad 463f 10ee 3745 d403 5b3f 82c6 ea3e

neural_networks.3.linear_relu_stack.6.weight f4 [1, 16]
-0.11260899 -0.10138276 -0.09366076 0.0041374057 -0.21971759 0.04776501 0.07615023 0.11474796
-0.18497606 0.12286821 0.12156714 -0.10094765 0.028162684 0.25397348 0.113749005 0.039935842
00000000: 8b9f e6bd c4a1 cfbd 36d1 bfbd 1393 873b
00000010: a6fd 60be 3ea5 433d a7f4 9b3d fa00 eb3d
00000020: 5d6a 3dbe 54a2 fb3d 31f8 f83d a4bd cebd
00000030: 6eb5 e63c d008 823e 3df5 e83d c493 233d

neural_networks.4.linear_relu_stack.0.weight f4 [16, 2]
-1.0512515 -0.022491487 -15.852016 -0.29038057 -0.35418573 -0.24261507 -3.9503539 -0.038019013
28.959051 -0.42997128 -0.45017394 -0.4042686 -33.761517 0.22208034 -1.388668 0.7483982
-33.45426 0.31112513 1.583661 -0.6343139 0.88984215 0.29220068 0.9547122 0.108944125
-1.0167156 -0.26809955 -0.20641932 0.57060903 -0.34348527 -0.7555486 28.360327 -0.46849668
00000000: 698f 86bf 1140 b8bc dca1 7dc1 c3ac 94be
00000010: d557 b5be 1670 78be 99d2 7cc0 d3b9 1bbd
00000020: 23ac e741 3225 dcbe 337d e6be 4bfc cebe
00000030: cb0b 07c2 0769 633e dfbf b1bf 0697 3f3f
00000040: 2ad1 05c2 cb4b 9f3e 67b5 ca3f 6562 22bf
00000050: b2cc 633f 549b 953e 0568 743f 191e df3d
00000060: bd23 82bf 5844 89be 965f 53be 6f13 123f
00000070: 4ddd afbe a26b 41bf f3e1 e241 ccde efbe

neural_networks.4.linear_relu_stack.1.weight f4 [16]
-0.012417411 2.1079333 0.010080721 0.07729533 1.9133378 -0.0103397835 2.5473685 -0.034313664
2.07036 0.036631458 0.08903973 0.023039306 0.018919941 0.029704448 -0.0059004948 1.6633066
00000000: 6672 4bbc 61e8 0640 9c29 253c 044d 9e3d
00000010: 41e8 f43f 3268 29bc 1608 2340 7c8c 0cbd
00000020: c780 0440 de0a 163d 765a b63d edbc bc3c
00000030: fefd 9a3c be56 f33c f058 c1bb 3be7 d43f

neural_networks.4.linear_relu_stack.1.bias f4 [16]
-0.3760294 2.9896715 -0.46158963 -0.40509093 4.555947 -0.25905427 5.7576404 -0.7590182
7.347439 -0.22615261 -0.50585276 -0.12542789 -0.61550164 -0.19735064 -0.5130032 4.3431396
00000000: ed86 c0be c756 3f40 7a55 ecbe 1468 cfbe
00000010: 51ca 9140 c3a2 84be 973e b840 044f 42bf
00000020: 381e eb40 8d94 67be 917f 01bf 2b70 00be
00000030: 8491 1dbf 4916 4abe 2d54 03bf 00fb 8a40

neural_networks.4.linear_relu_stack.1.running_mean f4 [16]
-4.852374 -73.08691 -1.7552428 -18.21025 133.22827 -2.2800555 -155.38953 -6.0112624
-153.93546 6.9676123 4.2472577 4.452108 -4.819146 -0.6582541 -1.968702 130.46053
00000000: a646 9bc0 7f2c 92c2 ccab e0bf 98ae 91c1
00000010: 703a 0543 6eec 11c0 b863 1bc3 435c c0c0
00000020: 7aef 19c3 aef6 de40 89e9 8740 ab77 8e40
00000030: 7236 9ac0 5783 28bf 6dfe fbbf e575 0243

neural_networks.4.linear_relu_stack.1.running_var f4 [16]
0.00057845603 0.12884408 0.0010280791 0.0074123717 0.324216 0.002577206 0.47212178 0.0030977791
0.4526836 0.0017433682 0.002268918 0.00092220603 0.0022733265 0.0031639058 0.0073244656 0.30655712
00000000: 87a3 173a b4ef 033e 9cc0 863a 7be3 f23b
00000010: a4ff a53e 57e6 283b f2b9 f13e 1c04 4b3b
00000020: 25c6 e73e bb81 e43a 21b2 143b 33c0 713a
00000030: 17fc 143b 8859 4f3b 1202 f03b 0ef5 9c3e

neural_networks.4.linear_relu_stack.3.weight f4 [16, 16]
-0.08922642 -0.3052524 -0.34105214 -0.021728532 -0.23815855 -0.19166307 -0.029362136 0.028852763
-0.17380203 -0.8035553 -0.6931925 -0.8895111 -0.43502787 -0.67666745 -0.2877786 -0.26683104
0.11117554 -0.16517626 -0.31005004 -0.4315305 -0.001768015 -0.28534403 -0.17725584 -0.11245527
-0.12579772 0.011804673 -0.051795606 -0.00048965233 -0.05451868 -0.09386555 -0.32078314 -0.16916117
0.015970424 -0.10750635 -0.29922354 -0.062292133 -0.1548744 0.016905773 0.03090052 -0.38881063
-0.36439025 -0.76960635 -0.36317536 -0.4625872 -0.043497875 -0.45722315 -0.010128014 -0.36032352
-0.53364694 -0.3471995 -0.18938199 -0.43661672 -0.3783493 -0.468973 -0.4478865 -0.58914834
-0.18794598 -0.25632823 -0.15799044 -0.076274484 -0.3367913 -0.3198481 -0.4236129 0.04901784
-0.28574958 -0.032838486 -0.21493398 -0.02328661 -0.6853547 -0.16590294 -0.30744562 -0.11868913
0.027836008 -0.26335898 -0.21942446 -0.013623915 0.12449242 0.056133334 -0.024305277 -0.16246784
-0.21826349 -0.02426736 -0.05230658 -0.53338104 -0.20399399 -0.11246037 -0.75449055 -0.47155508
-0.4758915 -0.6446207 0.06315226 0.15415296 -0.12981571 -0.1774231 -0.19171879 -0.30239815
-0.022558829 0.5252597 -0.119117245 0.14201486 -1.8576256 -0.11035672 4.9341803 -0.075851925
7.537201 -0.08425892 -0.06319111 -0.1001508 0.1697021 -0.022294385 0.038741555 -1.3209087
0.02606616 0.09092323 -0.025460236 0.28251582 0.51050925 0.30028024 0.023191039 0.00610812
0.11566194 0.18096925 0.27034986 0.53746855 0.49456137 0.35978928 0.024116872 0.20495047
-0.5434743 -0.39380327 -0.47433156 -0.40163562 0.10446822 -0.28349864 -0.53025883 -0.27039233
-0.16412649 -0.12742053 -0.0005970933 0.05799702 -0.2222544 -0.0394562 -0.12719771 -0.26164585
-0.05134955 -2.30518 0.029635645 -0.162889 3.5286963 0.011818274 -2.7530475 0.06586606
-4.5619802 -0.0026871215 -0.009846061 -0.0107369935 -0.11975654 -0.00040454147 -0.018277902 3.0145824
-0.44302356 -0.48576653 -0.14511617 -0.3004139 -0.28367335 0.04262831 -0.883715 -0.24375321
-0.5166077 -0.14579783 0.06963664 0.1335457 -0.39377007 0.08129063 -0.074268065 0.010856052
-0.14224464 -0.14615627 0.05111144 0.26064855 0.20585936 0.18237871 -0.16191581 -0.012849564
0.24249612 0.12121735 -0.054606423 -0.2624358 0.17813906 0.04446936 -0.03260842 0.12639329
0.016517445 0.22021076 -0.28684133 -0.035795603 -1.0717002 0.109864525 0.30814508 0.0040897294
0.13971883 -0.23708063 -0.5464536 -0.33912608 -0.058354504 -0.24725738 -0.19342554 -0.6881659
-0.24952927 -0.17694105 -0.19020632 -0.20470013 0.6479776 -0.25604743 0.0472907 -0.07966357
-0.3480485 0.017896779 0.05019758 -0.3865384 -0.04228736 -0.16001564 -0.0021548003 0.2905846
-0.00085362146 -0.14460672 0.045755252 -0.53918076 -0.7371144 0.082800135 0.025667317 -0.89262044
-0.25462413 -0.16553396 -0.64443666 -0.19014163 -0.23397543 -0.11532318 -0.041193426 -0.5109719
-0.08601698 -0.18401772 -0.12773496 0.050211187 -0.019022001 -0.018330948 0.1018679 0.10835227
0.04198542 0.12210811 -0.15208182 -0.15925436 0.12978387 -0.10785707 -0.10543711 -0.053327244
00000000: 57bc b6bd 0b4a 9cbe 639e aebe 0900 b2bc
00000010: d6df 73be 5343 44be dd88 f0bc a15c ec3c
00000020: 29f9 31be cdb5 4dbf 1075 31bf 00b7 63bf
00000030: f9bb debe 143a 2dbf b757 93be 149e 88be
00000040: 00b0 e33d f723 29be e1be 9ebe 91f1 dcbe
00000050: bdbc e7ba 9d18 92be 8e82 35be f34e e6bd
00000060: 1ed1 00be 6368 413c a127 54bd 035c 00ba
00000070: fb4e 5fbd 953c c0bd b03d a4be 9638 2dbe
00000080: 68d4 823c 4a2c dcbd d433 99be 0926 7fbd
00000090: 6597 1ebe fa7d 8a3c 1623 fd3c 3012 c7be
000000a0: 5c91 babe ec04 45bf 1ff2 b9be 3bd8 ecbe
000000b0: d42a 32bd 2719 eabe f8ef 25bc 537c b8be
000000c0: 169d 08bf 22c4 b1be 5aed 41be 3a8c dfbe
000000d0: 00b7 c1be 3b1d f0be 6151 e5be 6dd2 16bf
000000e0: e974 40be 743d 83be 3fc8 21be cc35 9cbd
000000f0: e96f acbe 21c3 a3be cae3 d8be eec6 483d
00000100: c54d 92be a681 06bd a717 5cbe 90c3 bebc
00000110: 6873 2fbf 76e2 29be 8369 9dbe 4913 f3bd
00000120: 5708 e43c fdd6 86be ceb0 60be d736 5fbc
00000130: e2f5 fe3d 11ec 653d dc1b c7bc f85d 26be
00000140: 7780 5fbe 58cc c6bc 6d3f 56bd a98b 08bf
00000150: cde3 50be 9f51 e6bd 4b26 41bf ab6f f1be
00000160: 0da8 f3be dd05 25bf f955 813d 46da 1d3e
00000170: 69ee 04be 67ae 35be ee51 44be eed3 9abe
00000180: 4bcd b8bc 6b77 063f bef3 f3bd 586c 113e
00000190: adc6 edbf b402 e2bd cee4 9d40 4158 9bbd
000001a0: c030 f140 f18f acbd 576a 81bd dd1b cdbd
000001b0: 63c6 2d3e b7a2 b6bc 77af 1e3d 8913 a9bf
000001c0: b388 d53c f535 ba3d fc91 d0bc eaa5 903e
000001d0: bcb0 023f 55be 993e 22fb bd3c a026 c83b
000001e0: 2be0 ec3d 0150 393e 4c6b 8a3e 8a97 093f
000001f0: 2637 fd3e 4d36 b83e bf90 c53c 89de 513e
00000200: 2221 0bbf 95a0 c9be 96db f2be 2fa3 cdbe
00000210: 6ff3 d53d bc26 91be 0bbf 07bf dd70 8abe
00000220: c610 28be 877a 02be 4186 1cba 498e 6d3d
00000230: a896 63be d39c 21bd 1e40 02be 72f6 85be
00000240: e853 52bd 1288 13c0 74c6 f23c 60cc 26be
00000250: 29d6 6140 6fa1 413c ee31 30c0 c9e4 863d
00000260: befb 91c0 6b1a 30bb 5f51 21bc 37ea 2fbc
00000270: eb42 f5bd a318 d4b9 8abb 95bc ebee 4040
00000280: fcd3 e2be 64b6 f8be 5599 14be dacf 99be
00000290: a23d 91be 069b 2e3d 253b 62bf 719a 79be
000002a0: 6740 04bf 074c 15be a89d 8e3d 34c0 083e
000002b0: 3b9c c9be b47b a63d db19 98bd 95dd 313c
000002c0: 94a8 11be fda9 15be 3b5a 513d ba73 853e
000002d0: cccc 523e 7cc1 3a3e 42cd 25be fa86 52bc
000002e0: e750 783e cd40 f83d fcaa 5fbd fc5d 86be
000002f0: 166a 363e 8125 363d 6890 05bd 3e6d 013e
00000300: 984f 873c ee7e 613e dedc 92be 699e 12bd
00000310: 792d 89bf a700 e13d 31c5 9d3e 2303 863b
00000320: 7412 0f3e 44c5 72be 62e4 0bbf efa1 adbe
00000330: 2205 6fbd 0a31 7dbe 5811 46be a42b 30bf
00000340: 9a84 7fbe 0930 35be 72c5 42be e99c 51be
00000350: dce1 253f a618 83be e5b3 413d a726 a3bd
00000360: 6a33 b2be 449c 923c fa9b 4d3d 5ce8 c5be
00000370: 8335 2dbd 24db 23be 8d37 0dbb 81c7 943e
00000380: 91c5 5fba c913 14be dc69 3b3d c007 0abf
00000390: 88b3 3cbf 1e93 a93d 4444 d23c c682 64bf
000003a0: 185e 82be bc81 29be cdf9 24bf 7db4 42be
000003b0: 4197 6fbe 8f2e ecbd 70ba 28bd 0ecf 02bf
000003c0: ac29 b0bd 246f 3cbe f4cc 02be 3faa 4d3d
000003d0: 07d4 9bbc c92a 96bc 1ea0 d03d cce7 dd3d
000003e0: e7f8 2b3d d113 fa3d 56bb 1bbe 9313 23be
000003f0: 10e6 043e 2be4 dcbd 69ef d7bd ab6d 5abd
