saved_models/black_scholes_deep_hedging/simple_hedger_bs.pth (torch, 199033 bytes, 330 tensors)

neural_networks.0.linear_relu_stack.0.weight f4 [16, 1]
000000 16 6d 19 bf 10 a9 1e bf 38 cb 58 3f b4 4d cb 3e
       -0.59932077 -0.6197672 0.8468509 0.3970772
000010 b6 c3 e4 bd c0 29 91 be 80 da 60 bd 61 0e 4a bf
       -0.111701414 -0.28352165 -0.054895878 -0.7892819
000020 ae 54 19 bf d1 16 4e bf b3 99 f3 be e4 4c 47 3f
       -0.59894836 -0.80503565 -0.475782 0.778517
000030 0e b3 10 bf f9 34 11 be 1c 36 c2 3e 42 49 ca be
       -0.56523216 -0.14180364 0.37931907 -0.39509016

neural_networks.0.linear_relu_stack.1.weight f4 [16]
000000 00 00 80 3f 00 00 80 3f 00 00 80 3f 00 00 80 3f
       1.0 1.0 1.0 1.0
000010 15 00 80 3f 00 00 80 3f 00 00 80 3f 4c 18 80 3f
       1.0000025 1.0 1.0 1.0007415
000020 00 00 80 3f 75 d0 80 3f bb ff 7f 3f 00 00 80 3f
       1.0 1.0063616 0.9999959 1.0
000030 00 00 80 3f ec 18 80 3f 9f fd 7f 3f 63 d1 7f 3f
       1.0 1.0007606 0.9999637 0.99928874

neural_networks.0.linear_relu_stack.1.bias f4 [16]
000000 00 00 00 00 00 00 00 00 00 00 00 00 00 00 00 00
       0.0 0.0 0.0 0.0
000010 d5 b9 af bb 00 00 00 00 00 00 00 00 41 bc 08 bc
       -0.005362729 0.0 0.0 -0.0083456645
000020 00 00 00 00 01 85 12 bc c6 c6 05 bc 00 00 00 00
       0.0 -0.008942843 -0.008165067 0.0
000030 00 00 00 00 d2 af 19 bb c2 49 b6 bb d3 63 12 bb
       0.0 -0.0023450744 -0.005562992 -0.0022337332

neural_networks.0.linear_relu_stack.1.running_mean f4 [16]
000000 54 a3 30 c0 02 aa 36 c0 ef 97 79 40 ee 0f ea 3f
       -2.7599688 -2.8541265 3.8998983 1.8286111
000010 fa af 03 bf fe 1f a7 bf 94 6f 81 be 0c a0 68 c0
       -0.51440394 -1.3056638 -0.2528044 -3.6347685
000020 46 87 30 c0 f6 44 6d c0 54 3a 0c c0 fa 73 65 40
       -2.7582564 -3.707334 -2.19106 3.5852036
000030 58 97 26 c0 04 2d 27 bf 00 98 df 3f 04 e4 e8 bf
       -2.6029873 -0.65303063 1.7468262 -1.8194585

neural_networks.0.linear_relu_stack.1.running_var f4 [16]
000000 3a 35 b5 2d e2 dc 1c 2e 18 13 53 2e 18 13 53 2d
       2.0600955e-11 3.5666477e-11 4.7992804e-11 1.1998201e-11
000010 86 80 80 29 ce c8 c8 2b f8 f2 f2 29 ae a8 88 2e
       5.706637e-14 1.4266589e-12 1.0789107e-13 6.2145275e-11
000020 ca c4 44 2c 0e 13 53 2e 86 80 80 2d 96 90 10 2c
       2.7962515e-12 4.799277e-11 1.4608991e-11 2.0543892e-12
000030 a8 a2 a2 2c ca c4 44 2a 3a 35 b5 2c 86 80 80 2a
       4.6223754e-12 1.7476572e-13 5.1502387e-12 2.2826549e-13

neural_networks.0.linear_relu_stack.3.weight f4 [16, 16]
000000 48 69 81 bd 60 74 f8 3d ec 01 bf 3d a2 d8 0a 3e
       -0.06318909 0.12131572 0.093265384 0.13559201
000010 54 33 40 3e 9c c8 b4 3d c0 2c c8 bb 38 5d 71 be
       0.1876958 0.08827326 -0.0061088502 -0.23570716
000020 34 cd 2d be 59 8b a7 3d 02 8b 31 be 10 39 6d 3d
       -0.1697281 0.08180875 -0.17338184 0.057915747
000030 54 92 54 be e8 ab ce 3d 70 00 9f bc 15 6c 80 bc
       -0.20758945 0.10091382 -0.019409388 -0.015676538
000040 80 d7 63 3c 20 89 e6 3d c4 45 6f be fa c6 4f 3e
       0.01390636 0.11256623 -0.23366457 0.20290747
000050 7c 0d 7b 3d 38 f6 03 bd e0 62 24 3d 00 b9 21 3e
       0.061292157 -0.032217234 0.040133357 0.15793228
000060 b8 71 5a 3e 4d 3a be 3d cc d7 cc bd 52 94 76 be
       0.21332443 0.09288464 -0.100020975 -0.24080017
000070 28 92 a4 3d 39 78 37 be d2 9b 2c 3d 7c a5 9f 3d
       0.080356896 -0.17916955 0.04214079 0.077952355
000080 42 fd 38 be 00 6a e7 bc d8 a6 25 bd cc 56 2a 3e
       -0.1806536 -0.028248787 -0.040442318 0.16634673
000090 d6 6d 1e be 40 5a 98 3b 5a 95 05 be 44 b9 54 be
       -0.15471587 0.0046494305 -0.13045254 -0.20773798
0000a0 b8 28 dc 3d fe cf b9 bc 10 4a d8 ba 38 3d 01 3d
       0.10749954 -0.022682186 -0.0016501565 0.031552523
0000b0 60 08 7a be 2d ca 79 be 3c 6e a6 bd b1 67 25 3b
       -0.24417257 -0.2439353 -0.08126494 0.0025238807
0000c0 f4 96 05 be 78 a2 e7 bd 80 96 9d 3b 4c b8 5b 3e
       -0.13045865 -0.11310285 0.0048092008 0.21457022
0000d0 76 ab 55 be f4 9c 30 3e f4 c3 86 bd 50 ee 70 3d
       -0.20866188 0.17247373 -0.06580344 0.058821023
0000e0 ec 67 df bd d2 cf 47 3e f6 13 6a 3e 10 3e d9 3d
       -0.109084934 0.19512871 0.22859177 0.106075406
0000f0 94 8d 51 3e d0 92 9f bd f8 49 33 3d f0 c0 94 3d
       0.20464164 -0.07791674 0.043771714 0.072633624
000100 94 51 54 be 20 77 61 bd 62 61 21 3e aa bd 28 be
       -0.20734245 -0.055045247 0.15759805 -0.16478601
000110 78 5e 45 be 9c 6a 6d 3e b0 47 70 3d 70 ec 9e bd
       -0.19274318 0.231852 0.058662117 -0.077599406
000120 5c 40 cb 3d c8 5a d2 bb 48 02 77 3e 38 c0 26 be
       0.09924385 -0.0064195134 0.24121964 -0.16284263
000130 e0 da de 3d 42 42 bf bd 94 23 2d 3e aa 9b 73 3e
       0.10881591 -0.093388095 0.16908103 0.2378985
000140 92 9b 5e 3e f0 55 51 3d d0 b7 13 3d 80 e7 92 3c
       0.21739033 0.051107347 0.03606397 0.017932653
000150 e2 c1 19 3e 90 3a ad bc 4c 14 57 3e 76 ee 66 be
       0.15015367 -0.021146089 0.21003836 -0.22551903
000160 ce 00 14 be 19 ed 42 be a4 0c fc 3d 80 9a c5 bb
       -0.14453432 -0.19035758 0.123070985 -0.0060303807
000170 64 f0 d1 bd 52 f2 d0 3d 68 63 ac bd 2e a1 70 be
       -0.10250929 0.10202469 -0.08417398 -0.23498985
000180 ac ef c5 3d 30 ee 50 3e c0 c7 7c bd 88 67 7b bd
       0.096648544 0.20403361 -0.061713934 -0.061378032
000190 dd a6 e0 3d 4a 87 32 be 18 c0 21 bd ea 15 0c bd
       0.10969327 -0.17434421 -0.039489836 -0.034200586
0001a0 54 36 f4 3d b8 dd 66 3e b0 39 bf bd 00 3a 03 bd
       0.11924425 0.22545516 -0.09337175 -0.032037735
0001b0 6c 34 2a be 2e d5 8d 3c 85 6e 37 3e 2a b7 04 be
       -0.1662156 0.017313566 0.17913254 -0.12960497
0001c0 50 37 65 bd a0 29 14 3d 54 31 27 be 68 46 94 3d
       -0.055960953 0.03617251 -0.16327411 0.072399914
0001d0 1c 59 a7 bd bc 17 c2 3d b0 92 7a 3d b5 2e d3 3d
       -0.08171293 0.09477183 0.06117505 0.10311643
0001e0 72 86 2b 3e 9e 82 58 be ed ef e0 3c 42 5e 01 3e
       0.16750506 -0.21143577 0.027458156 0.12633613
0001f0 40 4a 9e 3d df 04 a2 bd b6 7b 37 3e 20 c6 34 bd
       0.07729006 -0.07911085 0.17918286 -0.04413426
000200 60 4d b3 3d 00 4c 01 be 62 12 40 be 84 de a8 bd
       0.087549925 -0.12626648 -0.18757012 -0.082455665
000210 26 b0 fa 3b 60 7f 3f bc 18 22 1f be dc df 42 be
       0.007650393 -0.011688083 -0.1554035 -0.19030708
000220 00 76 12 bb fa 39 57 bd 1b 74 90 bd d6 c5 78 be
       -0.0022348166 -0.052545525 -0.07053395 -0.24294218
000230 10 cc 61 3e 8a 0c ff 3d cb 21 e2 bd a8 ef 28 3e
       0.220505 0.124535635 -0.11041602 0.16497672
000240 e6 37 4c 3e 58 d4 13 be 48 15 82 bd 40 af 14 3c
       0.19943199 -0.14436471 -0.06351715 0.009074986
000250 fc 8c 1d 3e 50 63 42 bd 82 0d 06 3e 5a 4a 39 be
       0.15385813 -0.047457993 0.1309109 -0.18094769
000260 c0 04 f0 bd 14 08 d1 3d 19 c4 26 bd 20 ee 7b 3e
       -0.11719656 0.10206619 -0.040714357 0.24602556
000270 d6 bf 10 be b3 9f 79 3e 44 98 1d be 90 94 8c bc
       -0.1413568 0.24377327 -0.15390116 -0.017160684
000280 cc a8 a3 bd 10 a5 17 bd a2 16 48 3e 6c 58 d8 3d
       -0.0799118 -0.03702265 0.19539884 0.1056374
000290 07 4a 2a be f8 ca cc bd 48 f1 b0 bd d3 9b 21 be
       -0.16629802 -0.09999651 -0.08639771 -0.15782098
0002a0 d2 cc 6a be ea c1 5b be 41 b5 71 3e fa a5 1a be
       -0.22929695 -0.21460691 0.23604299 -0.15102378
0002b0 4c c7 d9 3d 69 a5 87 3d c1 72 31 be 19 2e b8 3d
       0.10633716 0.06623346 -0.17328931 0.089931674
0002c0 e0 1b 6a 3d 76 59 3a 3e d0 40 17 be 5a 21 1f be
       0.05715549 0.18198189 -0.14770818 -0.15540066
0002d0 ec da 4c 3e 08 31 62 be 80 26 97 3b 57 d4 c2 3d
       0.20005387 -0.22089016 0.004612744 0.09513157
0002e0 a0 63 42 3e 17 88 03 be 42 ad 7a bd 40 be a4 3d
       0.18983316 -0.12844883 -0.061200388 0.080441
0002f0 08 45 c7 bd 54 51 ce 3d a6 36 a8 3d 25 bc 25 be
       -0.097299635 0.10074106 0.08213548 -0.16185053
000300 be 81 35 3e f0 93 b4 3d b4 02 9e bd 38 0c e4 bd
       0.17725274 0.08817279 -0.07715359 -0.11135143
000310 d0 d8 57 3e 64 cc ae 3d 60 e3 c4 bd 24 5a 17 3e
       0.21078801 0.08535078 -0.09613681 0.1478048
000320 08 6b a3 3d 26 9a 4d 3e 74 2f 01 be 60 9c 26 3d
       0.07979399 0.20078334 -0.12615758 0.040676475
000330 88 eb 31 be 44 af 4b 3e 4c 4f c1 3d c0 b3 bc 3c
       -0.17375004 0.19891077 0.09438953 0.02303493
000340 f0 c4 92 bd 80 d8 37 3d 18 74 78 3d f0 34 7d 3e
       -0.07166469 0.044884205 0.06065759 0.24727225
000350 e6 e2 29 3e 0e 1a 56 be 42 02 4e 3e b2 72 2d be
       0.16590461 -0.20908377 0.20118049 -0.16938284
000360 52 ff 2f 3e c0 26 10 3e 76 1c f9 bd b4 ce 46 3e
       0.1718724 0.14077282 -0.121636316 0.19414788
000370 d8 b0 2f 3e c4 19 dd 3d 0a 3b 79 be 46 81 4f 3e
       0.17157304 0.1079593 -0.24338928 0.20264158
000380 c4 2b 07 be 8e de 12 be da 36 5e 3e 50 6e 22 be
       -0.13200289 -0.1434271 0.21700612 -0.15862393
000390 7c 13 cb bc ae 6f 71 3e f8 39 78 be b0 0b 96 3d
       -0.024789564 0.23577759 -0.24240863 0.07326448
0003a0 00 77 fb bb 22 bb 40 be ff cf f0 bc 00 84 9a 3c
       -0.007674098 -0.18821386 -0.029396055 0.01886177
0003b0 7c a6 16 be 06 a6 06 be d6 9b d7 3d b7 5f 1a be
       -0.14711946 -0.1314927 0.1052777 -0.15075575
0003c0 3c eb 46 3e 98 f6 9a 3d d0 14 f9 bd 1c 18 2f be
       0.19425672 0.07566565 -0.12162173 -0.17099041
0003d0 5e f8 5b 3e 7a 3d 42 3e 50 4e 5f bd c2 c4 75 be
       0.21481463 0.18968764 -0.054518044 -0.24000838
0003e0 ee 83 3b 3e 38 35 71 3d aa 8f fa 3c 0a 65 57 3e
       0.18312046 0.058888644 0.030586082 0.21034637
0003f0 28 c5 70 3d c4 28 27 be 7c e6 f3 bd 88 b4 24 3d
       0.058781773 -0.16324145 -0.11909196 0.04021123

neural_networks.0.linear_relu_stack.4.weight f4 [16]
000000 15 db 7f 3f d5 f7 7f 3f 01 d9 7f 3f b9 fd 7f 3f
       0.9994367 0.99987537 0.99940497 0.99996525
000010 67 f2 7f 3f 79 ec 7f 3f e3 f6 7f 3f 45 fd 7f 3f
       0.9997925 0.99970204 0.99986094 0.99995834
000020 25 fb 7f 3f 2d f7 7f 3f 73 ea 7f 3f 9f 26 80 3f
       0.9999259 0.99986535 0.99967116 1.0011786
000030 e5 e9 7f 3f 30 eb 7f 3f 01 e2 7f 3f 4e e0 7f 3f
       0.9996627 0.9996824 0.9995423 0.99951637

neural_networks.0.linear_relu_stack.4.bias f4 [16]
000000 97 8c 13 b3 57 62 77 bb c1 c9 c4 bb 2d 21 a9 bb
       -3.435397e-08 -0.0037747824 -0.0060054963 -0.0051614256
000010 43 36 af bb d6 55 ab bb c1 c9 c4 bb 28 27 b6 bb
       -0.0053470447 -0.0052287383 -0.0060054963 -0.005558867
000020 00 c3 77 bb ed 26 b6 bb c2 c9 c4 bb 7a 9a 78 bb
       -0.0037805438 -0.0055588395 -0.0060054967 -0.0037933872
000030 f4 26 b6 bb 26 27 b6 bb c5 c9 c4 bb 2d 27 b6 bb
       -0.005558843 -0.005558866 -0.006005498 -0.0055588693

neural_networks.0.linear_relu_stack.4.running_mean f4 [16]
000000 04 00 00 00 04 00 00 00 04 00 00 80 04 00 00 00
       6e-45 6e-45 -6e-45 6e-45
000010 04 00 00 80 04 00 00 80 04 00 00 00 04 00 00 80
       -6e-45 -6e-45 6e-45 -6e-45
000020 04 00 00 80 04 00 00 00 04 00 00 80 04 00 00 80
       -6e-45 6e-45 -6e-45 -6e-45
000030 04 00 00 00 04 00 00 00 04 00 00 80 04 00 00 00
       6e-45 6e-45 -6e-45 6e-45

neural_networks.0.linear_relu_stack.4.running_var f4 [16]
000000 04 00 00 00 04 00 00 00 04 00 00 00 04 00 00 00
       6e-45 6e-45 6e-45 6e-45
000010 04 00 00 00 04 00 00 00 04 00 00 00 04 00 00 00
       6e-45 6e-45 6e-45 6e-45
000020 04 00 00 00 04 00 00 00 04 00 00 00 04 00 00 00
       6e-45 6e-45 6e-45 6e-45
000030 04 00 00 00 04 00 00 00 04 00 00 00 04 00 00 00
       6e-45 6e-45 6e-45 6e-45

neural_networks.0.linear_relu_stack.6.weight f4 [1, 16]
000000 af ef 29 b3 13 61 cc bc e6 1e 67 3e 98 bd 6d bd
       -3.956637e-08 -0.024948632 0.2257038 -0.05804214
000010 7a 59 63 be dd fc 02 3e b9 85 6d 3e 8d 87 5b be
       -0.22202101 0.12791772 0.23195542 -0.21438427
000020 d1 41 67 be bc 7d cc bd 0b 88 69 3e 29 00 8b bd
       -0.225837 -0.099849194 0.22805803 -0.0678714
000030 37 b0 d5 bd 01 77 5a be f3 0a 78 3e 14 a8 67 be
       -0.10434001 -0.21334459 0.24222927 -0.2262271

neural_networks.1.linear_relu_stack.0.weight f4 [16, 1]
000000 65 4c a4 bf d9 52 7f b9 c3 9e 9d bf 23 8d 27 3f
       -1.2835814 -0.00024349558 -1.2314075 0.6544973
000010 03 7a 74 3d 88 59 a2 bf 43 b4 2f c0 06 ee 89 3f
       0.059686672 -1.2683573 -2.7453773 1.0775764
000020 d8 03 5a 3f 77 dd 86 bf 83 5d 12 0f bd 94 d6 bf
       0.85162115 -1.0536336 7.2163655e-30 -1.6764141
000030 92 7c 22 3f e7 24 a2 bf ce b8 e4 bf df 61 8f 3f
       0.6347133 -1.2667512 -1.7868898 1.1201743

neural_networks.1.linear_relu_stack.1.weight f4 [16]
000000 4b f9 cd 3f 17 f9 60 3f 54 8b 25 3f 5d db 83 3f
       1.6091703 0.8788008 0.6466572 1.0301319
000010 a3 a7 ea 3e 21 30 07 3f 8e c2 c8 3f a6 24 88 3f
       0.45831022 0.52807814 1.5684373 1.0636184
000020 36 b3 b1 3f 1d 03 d4 3f 7e 4e 12 0f ed da c7 3f
       1.3882816 1.656345 7.213473e-30 1.5613686
000030 70 76 9d 3f a8 9e 87 3f a9 c6 01 40 04 62 a7 3f
       1.2301769 1.0595293 2.0277503 1.3076787

neural_networks.1.linear_relu_stack.1.bias f4 [16]
000000 e8 b3 41 3f b7 75 dd bd 43 ff 50 bf 56 2c 9a 3e
       0.7566514 -0.10813468 -0.816395 0.3011195
000010 e3 ba f0 be f2 7c 29 bf 84 24 41 3f 48 69 51 3f
       -0.47017583 -0.66206276 0.75446343 0.8180127
000020 b6 d4 44 3f 30 0c 44 3f fa b2 31 3e c3 66 14 3f
       0.7688707 0.76581097 0.1735343 0.579693
000030 05 35 23 3f eb 3c fe 3e bd f6 1a 3f df c9 dc 3e
       0.63752776 0.49655852 0.6053274 0.43122765

neural_networks.1.linear_relu_stack.1.running_mean f4 [16]
000000 cc 0a bd c0 79 fa 92 ba f4 07 b5 c0 fa 38 41 40
       -5.907568 -0.0011213563 -5.657221 3.0191026
000010 f8 bb 8c 3e 8f bd ba c0 48 34 4a c1 b0 13 9f 40
       0.2748716 -5.8356395 -12.637764 4.9711533
000020 21 b1 7b 40 1e 07 9b c0 c4 78 07 10 5d bd f6 c0
       3.932686 -4.844619 2.671709e-29 -7.7106156
000030 44 b7 3b 40 60 a6 ba c0 ea bd 03 c1 60 71 a5 40
       2.9330606 -5.8328094 -8.233866 5.1700897

neural_networks.1.linear_relu_stack.1.running_var f4 [16]
000000 a1 aa 3a 39 76 ae e1 2c 04 2c 2b 39 99 07 43 38
       0.00017801907 6.4142537e-12 0.00016324228 4.64987e-05
000010 cc e9 ce 34 9f 25 36 39 dd 90 55 3a d6 30 04 39
       3.85406e-07 0.00017370888 0.00081468915 0.00012606694
000020 74 77 a5 38 6c 10 fb 38 04 00 00 00 29 ff 9e 39
       7.890063e-05 0.000119716715 6e-45 0.00030326218
000030 64 15 38 38 c1 f9 35 39 a5 51 b5 39 8a fc 0e 39
       4.388894e-05 0.00017354546 0.0003458384 0.00013636253

neural_networks.1.linear_relu_stack.3.weight f4 [16, 16]
000000 22 96 18 bf 51 3a 67 3d a5 e2 1d bf 32 eb b7 3e
       -0.59604084 0.0564521 -0.6167396 0.35921627
000010 a9 b2 42 be 6a a7 0b bf c3 54 0f bf a4 82 69 3f
       -0.19013466 -0.5455233 -0.5598871 0.91214967
000020 65 55 0f 3f 9d 5a 16 bf 3c 8d cb 3a 96 8f 62 be
       0.55989677 -0.58732015 0.0015529762 -0.22125086
000030 d7 4b ab 3e 33 69 e3 be fe 04 06 bf 9f 63 e0 3e
       0.334563 -0.44416198 -0.5235137 0.43826005
000040 f1 bf f8 bf d9 56 c3 ba 1b b8 6f bf 89 4f 07 3f
       -1.9433576 -0.0014903202 -0.936403 0.52855736
000050 3b 3b 80 3d bc 50 7f bf 4b 46 da bf 1e 41 2c 3f
       0.06261297 -0.99732566 -1.7052702 0.6728686
000060 c9 88 56 3f 3f c9 f9 bf 4e 54 50 bc eb 11 0c c0
       0.8380247 -1.951454 -0.012715412 -2.1885936
000070 b4 1e 4c 3f cf 40 1e bf 6e a6 08 c0 67 f4 3a 3f
       0.7973435 -0.6181764 -2.135158 0.7302918
000080 9f 1b 88 bc 12 47 58 3e d2 02 45 bf 97 85 28 3e
       -0.016614733 0.21120861 -0.7695743 0.1645721
000090 ae 65 a6 bd 26 cf 2f bf 94 64 53 be 05 fa f4 3d
       -0.081248626 -0.6867546 -0.20643836 0.1196175
0000a0 23 13 24 be 4a 4c cd 3d 5b 67 ab 3c e7 c5 24 bf
       -0.16022925 0.100243166 0.020923307 -0.64364475
0000b0 17 f6 ea b8 35 0f 45 bf 23 19 98 be 42 4b 5d bd
       -0.00011203827 -0.7697633 -0.29706678 -0.05402685
0000c0 68 c8 3a 3e df 01 df be 81 0f e0 bc 10 24 d9 be
       0.18240511 -0.43556115 -0.027351143 -0.42410326
0000d0 51 ac 24 be 38 b3 b1 bd c0 4c a7 3d ed 03 ee be
       -0.16081358 -0.086767614 0.08168936 -0.4648737
0000e0 f9 b2 0d be 50 6b 4c 3e cf a7 4f be 99 30 c9 bd
       -0.13837804 0.19962811 -0.20278858 -0.098237224
0000f0 b6 0b 80 be 5f f6 1b 3d 7e d1 83 be cc 37 ae be
       -0.25008935 0.038076755 -0.25745767 -0.34026945
000100 3d 42 d8 3d 0d 07 d8 be a8 86 26 3c 33 ec 9d bf
       0.10559509 -0.4219288 0.0101639405 -1.2337707
000110 19 3e e1 be f7 08 f7 bc c1 0a f3 bd 57 fd 4e bf
       -0.4399269 -0.030155642 -0.118672855 -0.80855316
000120 76 ba d8 bf ce 1b 89 be ee c0 89 bf ec 03 05 be
       -1.6931903 -0.26779026 -1.0762002 -0.12989777
000130 72 91 94 bf 70 13 12 3d e2 e1 9f 3d 52 31 b8 bf
       -1.1606886 0.03566307 0.078067556 -1.4390051
000140 dc 7c b9 be 5f c2 4f be b1 c3 a1 bf c7 85 7b bd
       -0.36228073 -0.2028899 -1.2637845 -0.061406877
000150 91 0e 91 be bf 3c d8 be 23 7a 85 be aa a0 87 bd
       -0.28331426 -0.42233846 -0.26069745 -0.06622441
000160 67 74 c2 be 4f d9 a9 be ae 9d bf 3b 7f 69 f1 be
       -0.37979433 -0.33173606 0.0058476543 -0.471508
000170 1a 3d 18 be 27 0c 55 be e9 af 48 be 71 2c d9 bd
       -0.14867058 -0.20805417 -0.19598354 -0.1060418
000180 9b 6c 41 bf 04 b5 09 3e 38 11 04 bf 3c 97 82 be
       -0.75556344 0.13447958 -0.51588774 -0.25506008
000190 fa 77 85 be 5f ee b0 be f7 c9 1b bf bd 36 79 3d
       -0.26068097 -0.34556863 -0.6085505 0.060843218
0001a0 9b 91 86 3d cb de 13 bf f2 39 08 be 11 66 ab be
       0.06570741 -0.5776183 -0.13303354 -0.33476308
0001b0 4e c6 b4 3d c7 b5 17 bf 74 19 14 bf 14 15 65 bc
       0.08826886 -0.59261745 -0.5785134 -0.013982076
0001c0 48 5a 0c 3d e8 e0 2f be 6d a7 e2 3c 2b e1 a1 bd
       0.034265786 -0.17175639 0.027667725 -0.079042755
0001d0 85 9f 0d bf 25 cd 9f 3d 85 b8 cb be 1c fb 7e be
       -0.5532153 0.078028 -0.39789215 -0.24900478
0001e0 a4 20 e1 bc 58 81 17 be 36 61 26 bc 5a 72 39 bd
       -0.027481385 -0.14795434 -0.010155013 -0.04527507
0001f0 71 c5 ae be d2 79 23 be d9 52 a1 3c c9 25 84 bc
       -0.3413501 -0.1596444 0.019692825 -0.016131299
000200 75 db a8 3d 45 98 79 be 69 f2 80 be 78 17 32 bf
       0.08244983 -0.24374492 -0.25184944 -0.6956706
000210 55 1b 4c be 25 84 67 bd 05 1c 15 be b4 e8 63 bf
       -0.19932301 -0.056522507 -0.1456147 -0.8902695
000220 5f a6 86 bf 26 c9 a4 3d 7a f2 b5 3d f5 5f 9f be
       -1.0519522 0.080461785 0.08884139 -0.31127897
000230 6a 01 74 bf 4d 11 d7 bd 23 a6 04 3e 51 1e 88 bf
       -0.9531466 -0.10501347 0.12954001 -1.0634252
000240 c8 ff a3 be 1a 78 ad 3e 22 e5 77 bd 13 d5 a3 3d
       -0.32031083 0.33880693 -0.060521252 0.07999625
000250 d2 2a 89 be 72 62 a5 bd e9 32 5d be 3c 68 26 bd
       -0.26790482 -0.080754176 -0.21601452 -0.04062675
000260 b4 f0 df bd 11 f8 bd be 35 3d af 3d 5f e8 24 bd
       -0.10934582 -0.37103322 0.08556596 -0.04026067
000270 3f 2b 81 bd 24 72 40 be fe 43 6c be e0 10 ae 3d
       -0.06307077 -0.18793541 -0.23072812 0.084993124
000280 8d 62 c5 be cb 9b df bd df e8 98 be a2 8f 2a bf
       -0.3855175 -0.10918387 -0.29865167 -0.66625416
000290 ed 09 1a bf c0 41 9d be a2 f7 08 be 08 b8 1a bf
       -0.60171396 -0.30714226 -0.13375714 -0.6043706
0002a0 e8 53 00 bf bf 93 bd be 79 77 54 be 87 da 2e bb
       -0.5012803 -0.37026784 -0.207487 -0.0026680545
0002b0 6b 04 36 bf 19 1b 85 bd bc 12 dc be 2a ec 2d bf
       -0.7110049 -0.06499309 -0.42983043 -0.6793848
0002c0 56 d9 a1 39 63 f1 3b 3c fa 43 60 be 47 35 6e 3f
       0.0003087024 0.011471125 -0.21900931 0.93050045
0002d0 1c 0f 06 3e b8 93 fa bd a0 7a dc be e7 b8 d6 3f
       0.13091701 -0.12235206 -0.43062305 1.6775178
0002e0 9d 6a d9 3f 6b 63 94 be 50 83 aa bc 3b 86 f9 be
       1.6985661 -0.289821 -0.020814568 -0.48735222
0002f0 43 0f c6 3f a6 36 8b bd 60 09 c3 be 02 a9 aa 3f
       1.5473408 -0.06797533 -0.3809309 1.3332827
000300 fd 6e 6e 3f f3 e6 1b 3e 0c d9 01 3f 5a 20 43 bf
       0.93138105 0.15224819 0.5072181 -0.7622124
000310 bf eb 6e 3d 60 f3 d1 3e 0e a9 6d 3f 61 74 01 bf
       0.058330294 0.41005993 0.9283608 -0.50568205
000320 c7 d1 19 bf 05 b3 68 3f f6 d2 82 3c 06 7f 72 3f
       -0.6008572 0.9089816 0.015969735 0.9472507
000330 ff 7c c4 be c3 7b 02 3f c4 ba 97 3f f8 c0 38 bf
       -0.38376614 0.50970095 1.1853871 -0.72169447
000340 34 84 cf bd cb ac 65 be 5c 30 bb be be f3 62 3e
       -0.101326376 -0.22429197 -0.36560333 0.22163293
000350 7f ae 55 be ef 1b e2 be 1d d2 7f be a3 c5 0e 3e
       -0.20867346 -0.44161937 -0.24982496 0.1394258
000360 78 4b 01 3d 04 ab aa be 5c 88 87 bd 20 03 99 be
       0.031566113 -0.333336 -0.06617805 -0.29885197
000370 cc 25 f2 bd 6d 0d 82 be 8f cf 81 3e 79 42 6e be
       -0.118236154 -0.25400868 0.25353667 -0.23267545
000380 7f 1f e4 be 26 e1 3c be 1b c2 26 be 39 0e 15 be
       -0.4455528 -0.18445262 -0.16284983 -0.14556207
000390 f1 92 44 be d0 0c f7 be 5c df 39 bd 9c 0d a1 be
       -0.19196679 -0.48251963 -0.045379028 -0.31455696
0003a0 e0 9e ea 3d c3 32 3f be 74 a6 a0 bd a4 dc 80 be
       0.11456084 -0.18671708 -0.078442484 -0.25168335
0003b0 b8 5a 30 3d 23 b3 03 bf 4e 1f b1 3c 88 fa cb 3d
       0.043055266 -0.51445216 0.021621373 0.099598944
0003c0 41 e1 ae be 20 96 a9 bd 8e e8 d1 be 11 d3 54 bd
       -0.3415623 -0.08280587 -0.40997738 -0.0519591
0003d0 7d d7 f9 bb 93 52 80 be ca ec 40 be 58 ea 16 be
       -0.007624565 -0.25063 -0.18840328 -0.14737833
0003e0 c3 b5 bd 3d 72 bd 9f be e0 dd ed bd cd bf 86 be
       0.09263184 -0.31199223 -0.11614585 -0.26318207
0003f0 66 7f 9c 3d 0a 3e cd be be f0 81 3d e6 cc 0c be
       0.07641487 -0.40086395 0.06344746 -0.13750038

neural_networks.1.linear_relu_stack.4.weight f4 [16]
000000 7c 11 d5 3e c6 87 aa 3e 3d 27 91 3e c1 a6 ce 3e
       0.41614902 0.33306712 0.2835025 0.40361598
000010 1c 01 f1 3e 56 af dd 3d e6 87 0a 3f 24 7c c4 3e
       0.4707116 0.10824458 0.54113615 0.38375962
000020 6f 21 97 3e e4 15 cd 3e 30 1d 94 3e 3c 73 cb 3e
       0.29517695 0.40055764 0.28928518 0.39736354
000030 1e fd dd 3e 13 f3 e7 3e 0b d9 d6 3e fb 44 01 3f
       0.43357176 0.45302638 0.41962466 0.5049588

neural_networks.1.linear_relu_stack.4.bias f4 [16]
000000 6a c5 6e bf ff 2e a5 3d 66 69 b3 be a3 1d ff be
       -0.9326998 0.080656044 -0.3504135 -0.498273
000010 3f 4d 0d bf d9 5f 2e be c5 9c 19 bf 92 85 00 bf
       -0.55195993 -0.1702875 -0.60004836 -0.5020381
000020 2b ab c1 be 1f e3 e6 be 51 a7 b7 be a8 6a 86 be
       -0.37825903 -0.45095155 -0.3586984 -0.26253247
000030 0f d3 34 be ec 16 08 bf d1 25 f4 be 50 d1 0c bf
       -0.17658637 -0.53159976 -0.47685102 -0.55006886

neural_networks.1.linear_relu_stack.4.running_mean f4 [16]
000000 15 44 51 bf 37 9e 00 c1 bc 56 d3 bf 34 a0 94 bf
       -0.8174451 -8.038627 -1.6510844 -1.161139
000010 c9 c9 b4 c0 ed 24 24 c0 7a 07 5f c0 1f 2c a4 bf
       -5.649632 -2.5647538 -3.4848313 -1.2825965
000020 fc 32 81 c0 e7 3d bf bf 5b 61 82 c0 12 eb 8a 40
       -4.0374737 -1.4940766 -4.074384 4.341195
000030 d9 6f 51 40 3e 7b 6f bf 97 6c be bf 33 9b c2 bf
       3.2724516 -0.9354743 -1.4876889 -1.5203613

neural_networks.1.linear_relu_stack.4.running_var f4 [16]
000000 02 92 df 41 b7 e3 5a 43 c8 d0 6c 40 dd ca 00 40
       27.946293 218.88951 3.700243 2.0123818
000010 2d c7 d7 41 1e d8 3b 40 44 28 77 41 94 8c 4d 3e
       26.972254 2.9350657 15.44733 0.20073158
000020 44 fb 6b 41 52 9a 0f 40 b9 ff 4f 40 71 e0 72 42
       14.748844 2.243794 3.249983 60.71918
000030 e7 eb 89 42 d9 aa 84 3f 20 66 ec 3f 29 42 04 40
       68.96075 1.0364639 1.8468666 2.066538

neural_networks.1.linear_relu_stack.6.weight f4 [1, 16]
000000 df c1 43 3f 44 85 3b 3e 8a a3 5a bd d9 7d e1 3c
       0.764677 0.18312556 -0.05337862 0.02752583
000010 09 8e f8 bc 2e 6d a7 bc b3 d5 ee bc c4 1e b8 3c
       -0.030341165 -0.020437803 -0.029154634 0.022475608
000020 00 16 f2 3c 72 f3 15 3d ff bf 61 3c 8a 5c 14 3e
       0.029551506 0.03660912 0.013778686 0.14488426
000030 d8 b3 35 be 22 dd df 3c 8f de 85 bc 17 9c 8b bc
       -0.17744386 0.027327124 -0.016341476 -0.017042203

neural_networks.2.linear_relu_stack.0.weight f4 [16, 1]
000000 73 1c 05 c0 88 d0 e6 bf 0e 16 1d c0 38 dd de bf
       -2.0798614 -1.8032389 -2.454471 -1.7411261
000010 03 3c 04 c0 42 10 00 3b d5 88 cf bf ba be e0 bf
       -2.0661628 0.001954094 -1.6213633 -1.7558205
000020 d1 68 81 3f 5c 39 29 c0 8d a1 76 3f c9 71 36 c0
       1.0110112 -2.644126 0.96340257 -2.850695
000030 f0 8f 01 3f ee 2c 06 3f 77 c5 65 3f 3f 31 bc bf
       0.50610256 0.5241231 0.8975443 -1.4702529

neural_networks.2.linear_relu_stack.1.weight f4 [16]
000000 c5 d4 f9 3e a3 fe e5 3f 9a 30 e5 3f 02 ed c9 3f
       0.48795143 1.7968334 1.7905457 1.5775454
000010 e8 fb ab 3f a0 a6 0d 3f d4 d8 a7 3f 3e fd 0b 3e
       1.3436251 0.55332375 1.3113046 0.13670823
000020 c9 60 c8 3f da 9e c9 3f b7 08 bc 3f dd 36 c5 3e
       1.5654536 1.5751603 1.469016 0.3851842
000030 fa c1 9a 3f 94 4b 86 3f dc 69 b7 3f fa d2 04 3f
       1.2090447 1.0491815 1.4329181 0.51884425

neural_networks.2.linear_relu_stack.1.bias f4 [16]
000000 94 74 30 bf 74 7c 49 3e 12 d9 4f 3e a0 6e cc 3d
       -0.68927884 0.19676381 0.2029765 0.099820375
000010 37 13 ae 3e cd dc 0c bd 39 4b a9 3e 4d c6 4c bf
       0.33999035 -0.03439026 0.33065203 -0.7999008
000020 0f 27 2c 3f 31 16 c4 3e 06 87 52 3f d0 a4 14 bf
       0.672471 0.3829818 0.8223728 -0.58063984
000030 81 17 29 3f a7 d5 11 3f ad 4e 84 3e 12 5c 35 3c
       0.6605149 0.5696663 0.25841275 0.011069315

neural_networks.2.linear_relu_stack.1.running_mean f4 [16]
000000 c7 32 19 c1 09 ea 04 c1 c2 bc 34 c1 a7 44 00 c1
       -9.574897 -8.3071375 -11.296083 -8.016761
000010 7b 56 18 c1 b1 6f 13 3c d1 c5 ee c0 24 5f 01 c1
       -9.521113 0.008998797 -7.4616475 -8.085728
000020 c9 de 94 40 86 c1 42 c1 3f c2 8d 40 35 07 52 c1
       4.6521955 -12.172247 4.4299617 -13.12676
000030 c3 f8 14 40 f6 3d 1a 40 6b 3a 84 40 82 ae d8 c0
       2.3276832 2.4100318 4.132131 -6.771302

neural_networks.2.linear_relu_stack.1.running_var f4 [16]
000000 2b cc 72 3a 97 c5 36 3a 26 f7 a8 3a 43 36 2a 3a
       0.0009261991 0.0006972192 0.0012891039 0.0006493071
000010 6a 18 70 3a e5 e1 60 30 66 73 13 3a ae 26 2d 3a
       0.00091589114 8.181174e-10 0.00056248007 0.000660519
000020 3d 43 65 39 d9 31 c4 3a c1 df 4f 39 61 2d e4 3a
       0.0002186419 0.0014968469 0.00019824413 0.0017408543
000030 cb 90 65 38 76 17 76 38 9a df 34 39 d6 de f2 39
       5.4732704e-05 5.867282e-05 0.00017249436 0.00046323863

neural_networks.2.linear_relu_stack.3.weight f4 [16, 16]
000000 b4 4a 46 3e dc 7a 89 3f f2 37 70 3f 6b 0f 20 3f
       0.19364434 1.0740619 0.93835366 0.62523526
000010 2c 3b 7f 3f 68 8a ef 3c 9e ec 90 3f 4c a5 17 3c
       0.99699664 0.029240802 1.132221 0.009255718
000020 b4 18 6d bf e0 ec af 3f ac 0c 73 bf d1 dd 83 3d
       -0.9261582 1.3744164 -0.9494121 0.064387925
000030 40 01 0e bf 6c 8d f7 be f5 07 72 bf 55 6f 71 3e
       -0.5547066 -0.48350084 -0.9454339 0.23577626
000040 ad 3b b6 bd 1a 5f f6 be 29 7c fc be 2f ab 15 be
       -0.08898101 -0.48119432 -0.49313477 -0.14616083
000050 d9 fb d8 be 34 d9 bf 3d 50 83 9b be 32 08 57 3d
       -0.42379645 0.093676 -0.3037362 0.05249805
000060 6b d7 bc 3f 3d 7f 99 be 71 85 ca 3f f1 7f 63 3c
       1.475324 -0.29979888 1.5821973 0.013885484
000070 7c e2 ca 3f 4a ad ac 3f a3 8a 72 3f 9f fe ba 3c
       1.5850368 1.3490384 0.9474279 0.02282649
000080 f2 c5 59 bc 3a 54 65 be fa 42 2d bd 83 67 c1 3c
       -0.013291823 -0.22395411 -0.042300202 0.023608929
000090 15 f8 e6 bd 37 86 27 be a5 df 10 3e 17 01 f2 3d
       -0.11277787 -0.16359793 0.14147814 0.11816614
0000a0 69 8f ec be 8c 57 5d bd 44 c6 70 be 4b 31 53 3e
       -0.46203163 -0.05403857 -0.23513132 0.20624273
0000b0 47 56 a9 be eb 09 20 be 1a bc 8e be 3f 8c 1c 3e
       -0.33073637 -0.15628783 -0.27877885 0.15287875
0000c0 52 58 1a bf f0 af df be 90 3c d3 be 52 63 0e bf
       -0.60291016 -0.43688917 -0.41257143 -0.556203
0000d0 80 5a c3 be 49 4f 8a bd 23 46 14 be 5a a4 ec be
       -0.38154984 -0.06753404 -0.1447988 -0.4621914
0000e0 61 f9 be bc 58 d2 80 be 84 e5 e8 bd 6e 43 fa be
       -0.023312273 -0.2516048 -0.11371902 -0.4887957
0000f0 55 f3 a7 bc 49 b0 88 bd 78 79 17 3e 32 61 58 bf
       -0.020501772 -0.06674249 0.1479243 -0.8452331
000100 be 01 87 3d 3d 6c c5 3d 51 0c 28 3d e8 50 fa 3d
       0.06592129 0.096397854 0.04102737 0.12222463
000110 1c 90 27 be ab 96 61 3d 07 cf 10 bd 2b 84 7b be
       -0.16363567 0.05507533 -0.035353687 -0.24562137
000120 03 f6 f4 be c4 52 d1 3c c6 3f 44 bf b2 e6 6b bd
       -0.47843942 0.025552161 -0.7665981 -0.057593055
000130 b9 15 03 bf 74 6d fb be 60 4a 11 bf 13 b6 30 be
       -0.5120502 -0.49106944 -0.5675411 -0.17256956
000140 e9 4f a8 be cb 0d d1 be e5 27 9f be 66 7c 56 bd
       -0.32873467 -0.40830836 -0.31085125 -0.05236473
000150 8d 02 7c 3d ee af 81 be 00 ad 0e be 60 84 fb bd
       0.06152587 -0.25329536 -0.13933182 -0.12281108
000160 94 82 1e be 1c 03 fb bd 83 4c ff bd 26 92 ff bd
       -0.15479499 -0.122564524 -0.12465765 -0.124790475
000170 2d 5b e2 bd 1d cb 64 3e 76 f7 39 3e 5a af bf be
       -0.11052547 0.22343107 0.18160805 -0.3743847
000180 be 6b 20 bf ef 46 c3 be 86 1c bd be fe bc 2f bf
       -0.626644 -0.38140056 -0.36935824 -0.68647754
000190 a4 1e a6 be 06 39 e1 bd dd 47 a7 be 2b c0 4d bf
       -0.32445252 -0.109972045 -0.32672015 -0.8037135
0001a0 83 a5 58 be b1 c8 ab bd c5 5e 6b 3e 85 45 34 bf
       -0.21156888 -0.08387888 0.2298537 -0.7041858
0001b0 42 1a 52 3e 8d ca 50 3d d8 a1 54 be f2 14 4f bf
       0.20517829 0.050974417 -0.20764863 -0.80891335
0001c0 58 a3 eb be 72 86 27 be 99 18 0f bd 12 bc e1 bd
       -0.4602306 -0.1635988 -0.034935568 -0.110222
0001d0 84 78 78 be e1 b5 2d be ea de 4c 3e df 82 ab bd
       -0.24264723 -0.16963913 0.2000691 -0.08374571
0001e0 44 20 08 be 7d c6 63 be 04 4a f9 3b cd 67 cd bd
       -0.13293558 -0.22243686 0.0076077003 -0.10029564
0001f0 83 ff ec bd 7c 4a 51 bd 7c 3d 0c 3e 51 80 e4 be
       -0.115721725 -0.051096424 0.1369533 -0.44629148
000200 ce 44 41 bf 7d e6 1b bf 56 b1 98 bb 3d b4 62 bf
       -0.7549561 -0.6089857 -0.004659812 -0.8855627
000210 d4 89 7a be 59 bd ba bc 7e 29 5e be 89 c4 10 bf
       -0.2446664 -0.022795366 -0.21695516 -0.5654989
000220 88 f9 7c 3d a4 5d f6 be 42 47 ec bd 0a 24 b3 be
       0.06176141 -0.48118317 -0.11537029 -0.34988433
000230 5b f1 05 3d c5 fd 08 be 2c 24 c9 3d 2f 70 3e bf
       0.032700878 -0.13378055 0.09821352 -0.7438993
000240 ea f1 50 bf b8 77 92 be 53 10 ef bc 7a 81 ea be
       -0.8161913 -0.28606963 -0.029182589 -0.45801908
000250 6d db f3 3d 13 cf ca bd b8 0a 9e be 20 98 3e bf
       0.119070865 -0.099027775 -0.30867553 -0.74450874
000260 4a f3 17 3e 6b 9d 80 be d4 ae 60 be bc da 3b bf
       0.14838901 -0.251201 -0.21941692 -0.7338064
000270 8f 11 07 3d d4 26 5f be 73 d8 01 3e 5a e1 16 bf
       0.03297573 -0.21792156 0.12680225 -0.5893761
000280 63 9a 52 bf 63 33 6a be fe 57 ea bc 07 c0 7a bf
       -0.82266825 -0.22871165 -0.028606411 -0.9794926
000290 0f 49 1a be 73 51 35 bf b8 05 1e bf 23 4e 61 bf
       -0.15066932 -0.70827407 -0.61727476 -0.8800985
0002a0 75 1a 8f bd 38 2f 06 bd da 79 b5 3c e2 ac 60 bf
       -0.06987468 -0.032759875 0.02215283 -0.877638
0002b0 5a 1e 34 be 02 20 16 3d e5 04 c5 3d 24 83 99 bf
       -0.17589703 0.03665162 0.09620074 -1.1993146
0002c0 34 30 b8 be c8 68 fa bd 94 48 9a 3d f4 30 b9 be
       -0.35974276 -0.12227017 0.075333744 -0.3617016
0002d0 da 32 ad bd b9 10 12 3e 9f b8 e8 bd 29 5a f7 bc
       -0.08456965 0.14264192 -0.11363339 -0.030194359
0002e0 e6 50 22 be c2 ed a5 be 57 d2 71 bd cb ec 04 be
       -0.15851173 -0.32407957 -0.059038486 -0.12980954
0002f0 24 8f 63 3e 8c 41 89 3c fe bb 55 3d f7 71 81 be
       0.22222573 0.016754888 0.052181236 -0.2528226
000300 bf 4f 73 3d ec cb 19 3e b5 12 1e bd 27 f5 03 be
       0.059402224 0.15019196 -0.03859206 -0.12886487
000310 43 00 c5 3e 03 c6 ca be 25 bc 7c bd 4e 72 7b 3b
       0.38476762 -0.39604196 -0.061702866 0.0038367691
000320 e9 70 df be 7b a9 28 be b7 40 93 be ef 5c 1c bb
       -0.4364083 -0.16470902 -0.2876031 -0.0023859104
000330 74 be b7 be 32 cc dc be b2 e7 10 bf 53 a7 c4 be
       -0.35887492 -0.4312454 -0.5660354 -0.38408908
000340 62 c3 98 be de 65 0e bf 1d d6 12 bf bd 5a 1b bf
       -0.29836565 -0.55624187 -0.5735796 -0.6068533
000350 b2 c5 77 be 37 6b c5 bd 59 98 12 bf 20 72 cd bd
       -0.24196509 -0.0963959 -0.57263714 -0.10031533
000360 06 e7 10 3c 73 29 a1 be e5 31 fc 3c b3 29 23 bf
       0.008844143 -0.31476936 0.03078551 -0.637355
000370 4a 89 a0 bd 93 0e 11 3e 3f bd 27 3e f7 50 08 bf
       -0.07838686 0.14165716 0.16380785 -0.5324854
000380 c5 98 c2 be 74 b7 ca bf 02 57 c3 bf 11 a5 d0 bf
       -0.3800718 -1.5837235 -1.5260928 -1.6300374
000390 11 c0 66 bf bb 32 cb bd 34 c8 7d bf 04 2b 93 be
       -0.9013682 -0.099217854 -0.9913361 -0.28743756
0003a0 ff 8f fc 3e d4 04 ad bf ab 46 00 3f 15 3b e2 be
       0.4932861 -1.3517098 0.5010783 -0.441857
0003b0 fe bd e5 3e df 15 08 3f 8b 1b 15 3f f0 0b 57 bf
       0.44871515 0.5315837 0.5824515 -0.8400259
0003c0 e1 f6 bc bd 5f 10 b8 3d c8 34 0d 3f 7f 78 97 be
       -0.09226776 0.089874975 0.5515866 -0.2958412
0003d0 ff 0d f1 3e af 10 82 bc 5b 67 df 3e 05 59 b4 be
       0.4708099 -0.015877096 0.4363354 -0.35224167
0003e0 72 3e 1b bf 1a 71 91 3e 55 79 ae be 24 6e bd bd
       -0.6064216 0.28406602 -0.34076944 -0.09249523
0003f0 98 cb 21 bf 3f b9 29 bf 41 02 3a bf c4 f4 88 be
       -0.63201284 -0.6629829 -0.7265969 -0.2674924

neural_networks.2.linear_relu_stack.4.weight f4 [16]
000000 8c b8 00 3f b2 1d cf 3e f2 0d ff 3e 7e e2 09 3f
       0.50281596 0.40452343 0.49815327 0.53861225
000010 ee 9c a5 3e 9f 64 ff 3e ba ad 07 3f bc b8 03 3f
       0.3234629 0.49881455 0.5299946 0.5145376
000020 d9 2e 0f 3f 5f a4 03 3f d8 22 e3 3e a9 34 f0 3e
       0.5593086 0.51422685 0.4436252 0.46915177
000030 d1 f8 e9 3e 72 7d a8 3e b1 3e b3 3e 1d 72 0a 3e
       0.45697644 0.32908207 0.35008767 0.13520093

neural_networks.2.linear_relu_stack.4.bias f4 [16]
000000 8e 00 51 be fe 47 a9 bc 2c a2 0c bf f0 d9 f7 be
       -0.20410368 -0.020664211 -0.54934955 -0.4840846
000010 6a 65 f8 be 41 8e 01 bf c9 ad 03 bf 9f 8e ff be
       -0.48514873 -0.5060769 -0.5143705 -0.499135
000020 08 c0 f9 be 90 59 f2 be 1e 20 c2 be a6 f2 f9 be
       -0.4877932 -0.47333956 -0.37915128 -0.4881794
000030 55 dd f4 be af f3 0a bf 3c 07 a2 3d f5 23 f7 be
       -0.47825113 -0.5427808 0.07911536 -0.4826962

neural_networks.2.linear_relu_stack.4.running_mean f4 [16]
000000 0c de a8 3f 4c 8c 90 40 99 5f c0 bf 28 77 fa bf
       1.3192763 4.517126 -1.5029174 -1.9567614
000010 7f 95 1d c0 88 ab 74 bf c9 b3 d8 bf 89 c6 39 bf
       -2.4622495 -0.95574236 -1.6929866 -0.72568566
000020 c7 19 04 c0 d3 5b 97 bf fb 60 e8 bf 13 33 3d bf
       -2.0640733 -1.1824898 -1.8154596 -0.7390606
000030 72 73 df bf 1a 53 06 c0 42 ed 82 c0 a5 4b ae bf
       -1.7457106 -2.098822 -4.091462 -1.3616835

neural_networks.2.linear_relu_stack.4.running_var f4 [16]
000000 8d 9c a7 42 61 da 86 42 8b 01 cd 3f 77 7e bd 40
       83.80576 67.42652 1.6016096 5.9216876
000010 4e 28 ed 40 6d 9e 9f 3f ad 65 c9 40 a6 5c de 3e
       7.41117 1.2470223 6.2936616 0.4343006
000020 42 84 e3 40 ba 56 f1 3f 13 a8 a7 40 cd ed 83 3f
       7.1098948 1.8854592 5.239267 1.0306946
000030 7a 49 73 40 da 98 25 41 5b a8 cc 42 40 00 6f 41
       3.8013597 10.349817 102.32882 14.937561

neural_networks.2.linear_relu_stack.6.weight f4 [1, 16]
000000 4c cb 4b be d5 c2 3e 3e 42 38 6d bd 4a 4f 26 3c
       -0.1990177 0.1862901 -0.05791498 0.01015074
000010 0e 52 8d 3b 1e b0 b3 bc e6 c8 23 3c 15 ce 52 bc
       0.00431276 -0.021934565 0.009996628 -0.012866517
000020 a5 39 aa bc 0d 20 e5 bc 27 c9 2a 3c 8f 64 30 bc
       -0.02077944 -0.027969385 0.010423935 -0.010766163
000030 46 5b d3 3c 94 bb 6e 3c ee f7 3b 3e 5a 42 01 bc
       0.025800359 0.014571089 0.18356296 -0.007889355

neural_networks.3.linear_relu_stack.0.weight f4 [16, 1]
000000 56 95 4f bb ec 5e 22 bf dc 9a 09 40 98 9f 84 be
       -0.0031674705 -0.6342609 2.1500769 -0.2590301
000010 8c 90 71 be 01 42 a4 bd 38 94 42 3a 8a a5 c2 be
       -0.23590297 -0.08020402 0.0007422599 -0.3801692
000020 38 09 21 40 b3 a2 81 be c2 bd a6 3f b7 c1 1f 40
       2.5161877 -0.25319442 1.302666 2.4961984
000030 5a 86 ec 3f b9 10 8c be 85 93 41 3f 99 04 07 40
       1.8478501 -0.27356508 0.7561572 2.1096556

neural_networks.3.linear_relu_stack.1.weight f4 [16]
000000 04 51 d0 3e 3b 08 27 3f b6 ee ab 3f 3a 57 ad 3f
       0.4068681 0.65246934 1.3432224 1.3542244
000010 08 1d 71 3f 30 23 0f 3e 7b 34 2d 3f e1 43 f2 3f
       0.94184923 0.13978267 0.67658204 1.8926965
000020 1f e9 b6 3f f0 63 a1 3f b4 ff 46 3f bd 3f dc 3e
       1.4289893 1.2608624 0.7773392 0.43017378
000030 67 4a b6 3f 47 ce c7 3f 34 5c 75 3f 73 e8 d3 3f
       1.4241456 1.5609826 0.95843816 1.6555313

neural_networks.3.linear_relu_stack.1.bias f4 [16]
000000 66 d9 89 bd 68 6c 0d be 8f ec 01 3f ef 89 f1 be
       -0.067309186 -0.13810885 0.50751585 -0.47175547
000010 f3 61 a7 3f 17 51 ad bc 42 68 f2 bc 6e 32 5c 3e
       1.3076767 -0.02115683 -0.02959073 0.21503612
000020 a5 77 ba 3d b0 aa 5e 3f 99 0e ea 3f 09 4e 51 bd
       0.09104852 0.869792 1.8285705 -0.05109981
000030 95 a3 09 3f ba 74 05 3f 86 ba 9c 3f 3b 1b ba 3e
       0.5376523 0.52131236 1.2244422 0.363489

neural_networks.3.linear_relu_stack.1.running_mean f4 [16]
000000 a6 f9 6e bc 2b d7 3a c0 d9 87 1e 41 06 0e 98 bf
       -0.014585888 -2.9193828 9.908166 -1.187928
000010 36 86 8a bf 04 78 bb be 17 01 60 3b f8 a4 df bf
       -1.0822208 -0.36615002 0.0034180337 -1.747222
000020 4c 64 39 41 fc de 94 bf b5 fa bf 40 92 eb 37 41
       11.586987 -1.163055 5.999354 11.495012
000030 be 59 08 41 6e d6 a0 bf b8 ea 5e 40 86 94 1b 41
       8.52191 -1.2565439 3.483076 9.723761

neural_networks.3.linear_relu_stack.1.running_var f4 [16]
000000 a4 c9 61 31 38 05 0a 39 1f bb c6 3a 94 c9 b6 37
       3.2856429e-09 0.0001316265 0.0015161968 2.1789958e-05
000010 1a b5 97 37 f4 de 0a 36 59 62 46 2f 3a bc 45 38
       1.8084935e-05 2.0693378e-06 1.8042935e-10 4.714376e-05
000020 d3 e2 07 3b 72 39 af 37 8f b7 11 3a e1 bc 05 3b
       0.0020734563 2.0888376e-05 0.00055586634 0.002040677
000030 8b 04 93 3a ec 87 cc 37 5a 75 44 39 a9 67 bf 3a
       0.0011216564 2.4381989e-05 0.00018735733 0.0014603037

neural_networks.3.linear_relu_stack.3.weight f4 [16, 16]
000000 dd 8d d7 3c ad 6e 50 3e e8 e9 62 bf 7f 6e 7a 3f
       0.026312763 0.2035472 -0.8863816 0.97824854
000010 a5 e2 d9 3f 69 ef e9 3c 96 ac b1 3e f5 e0 59 3f
       1.7022291 0.028556542 0.34701985 0.8510888
000020 85 f9 8c bf 8d bd 90 3f f1 a1 24 bf a1 16 b2 be
       -1.1013647 1.1307846 -0.643096 -0.3478289
000030 b8 67 79 bf 67 6b 9a 3f 4c 3e ec be f1 a4 86 bf
       -0.9742389 1.2064027 -0.4614128 -1.0519086
000040 cd 9c 85 3a a3 30 62 be 5c d3 82 bf 94 9b d7 bd
       0.0010193825 -0.22088866 -1.0220752 -0.10527721
000050 bf a9 13 3e 7f 03 2e be 0a fd e8 be a2 80 01 be
       0.14420222 -0.16993521 -0.45505553 -0.12646726
000060 80 48 8d bf 3f 0d ea bd fd 1c 4d bf e0 b3 7b bf
       -1.103775 -0.11428308 -0.8012236 -0.9832134
000070 c8 25 43 bf 02 4c ff bc b1 de 38 bf 4f 75 8e bf
       -0.76229525 -0.031164173 -0.722148 -1.112955
000080 d3 8d 77 3e 9d 96 d4 3e 3a ce 72 bd f7 9c 95 3e
       0.24175195 0.4152116 -0.059278704 0.29221317
000090 28 14 ab 3e ce 71 5d 3d a2 9f 36 bd 4f 9c ef 3e
       0.33413815 0.05406361 -0.04458583 0.46798941
0000a0 a5 71 83 bd ce ae 26 3d 73 b8 83 3d a7 31 fe bd
       -0.0641816 0.04069405 0.06431665 -0.12411814
0000b0 00 2b 50 bd df c7 dd 3e fd 9a c9 bc 11 7e 91 3d
       -0.050822258 0.43316552 -0.024610037 0.071041234
0000c0 05 ba 2e bf 44 7f 2b bf 94 fc 83 3d 39 a2 a9 be
       -0.68252593 -0.66991067 0.0644466 -0.3313158
0000d0 ab 4e 8b 3d ce 98 99 be cf 7b ef bd ad 28 b9 be
       0.06802114 -0.29999393 -0.116935365 -0.36163846
0000e0 de b5 70 bd 38 02 d8 be 52 84 4c be 54 13 47 be
       -0.058767192 -0.42189193 -0.19972351 -0.19440967
0000f0 6e 6d 20 3d d4 d4 98 be ba 89 7e 3d 5a a6 96 ba
       0.03916686 -0.29849875 0.062143065 -0.0011493668
000100 bf 33 8f 3a ab d6 bd be 4e b8 e7 3f 7b 34 23 be
       0.0010925456 -0.3707784 1.810312 -0.15937988
000110 2f ee 1c bf f6 d4 b4 3d 7b fb f3 3d 10 08 25 bf
       -0.6130094 0.088296816 0.119132005 -0.6446543
000120 f5 69 21 3f b5 10 76 be cb 72 b6 40 8d a0 62 3d
       0.630523 -0.2402981 5.701513 0.055328894
000130 e7 8d e2 3f e9 f9 09 bf 89 e4 c1 40 08 8b 8f 3f
       1.7699555 -0.5389696 6.0591474 1.1214304
000140 56 d8 2b bf 2d 6d 18 bf 7f bb 1d bd d7 fb c3 be
       -0.6712698 -0.5954159 -0.03850889 -0.38278076
000150 8b b1 00 bf 70 09 d7 be 7b 1e 8a 3d f7 c8 0f bf
       -0.5027091 -0.41999388 0.06744095 -0.56166023
000160 8d 7b 5b be 6b 69 02 bf b4 04 89 3d d0 70 e2 3d
       -0.2143385 -0.50942105 0.0669035 0.110566735
000170 12 d0 78 3d 9c e1 1c bf 1f 90 0f be 7b db 87 3d
       0.060745306 -0.6128175 -0.14019822 0.066336595
000180 1e 23 6b bf c0 06 46 bf a7 a2 89 be 53 b1 15 bf
       -0.9185046 -0.7735405 -0.26881906 -0.584737
000190 49 8b ba be d0 67 62 bf 83 1c 04 3e 83 53 be be
       -0.3643439 -0.88439655 0.12901501 -0.3717309
0001a0 98 5d 04 be 7f 10 c9 be f9 3a b5 bd 00 ff 8b 3d
       -0.12926328 -0.39270398 -0.08849139 0.06835747
0001b0 72 74 0c 3e 6c 9b d3 be f1 bb 01 be dd b5 c2 bd
       0.13716295 -0.41329515 -0.1266935 -0.09507344
0001c0 8a d0 bd be 67 80 77 be 2d 7e fa be 1b 23 6d be
       -0.37073165 -0.24170075 -0.4892439 -0.23157923
0001d0 ca 36 68 bc f0 1b 87 be ec 12 eb b9 b4 73 55 bc
       -0.014173219 -0.26388502 -0.0004483679 -0.013028074
0001e0 0d e1 a0 be 09 fb 0f be 39 e3 91 be a6 fe 03 bf
       -0.314217 -0.14060606 -0.2849367 -0.5156044
0001f0 9b 12 eb be 06 87 03 be 05 2c 8a be a2 d4 f7 be
       -0.45912632 -0.12844476 -0.2698671 -0.48404413
000200 6e 68 cf bd 46 dd 2a c0 09 d3 7c bd 77 dd 54 c0
       -0.1012734 -2.6697555 -0.061724696 -3.3260171
000210 43 f3 02 bf 22 63 31 bf 29 b1 ef 3c e8 c8 93 c0
       -0.5115244 -0.6929189 0.029259281 -4.6182747
000220 36 83 67 3d 95 d8 9f bf 8e 1c b9 bd fe 93 0f bd
       0.056521617 -1.248797 -0.090386495 -0.035053246
000230 3d 9a 7c bd 7c 57 7c c0 e9 70 11 3e b2 72 1f 3d
       -0.06167053 -3.9428396 0.14203228 0.03892774
000240 35 12 1a bf 58 4f 36 bf 56 0b c1 3e 03 72 1d bf
       -0.6018403 -0.7121482 0.3770396 -0.61502093
000250 90 45 2a bf a8 e5 48 bf 93 00 15 3e 7f 23 69 bf
       -0.66512394 -0.7847543 0.14551 -0.9106979
000260 9f 76 f7 3c 39 be 6a bf 1f cf 49 3f 55 80 eb be
       0.03020793 -0.91696507 0.78831667 -0.45996347
000270 30 f2 49 3e 55 0e 62 bf cd ed 4c 3f 4a e9 de 3e
       0.19721293 -0.8830312 0.80050355 0.4353736
000280 5a 54 c7 3e c1 72 01 3e 04 50 72 3e 31 94 23 3e
       0.38931543 0.12641431 0.23663336 0.159745
000290 ea 57 df bc 63 97 e5 3e 1b e2 ea 3d 14 ee 89 3d
       -0.0272636 0.4484206 0.114689074 0.06734863
0002a0 63 36 d5 3e 6d 82 dd 3d b9 d6 91 3d 48 00 d0 3e
       0.41643056 0.10815892 0.07121033 0.40625215
0002b0 8f 62 f3 3d 89 a1 8f 3e 1a 8a af 3e 95 d5 e3 3e
       0.11884033 0.2805293 0.3428505 0.44498888
0002c0 ff ba bc be ed e5 93 be 0c f4 dc bf 91 1b 9a be
       -0.36861417 -0.28886357 -1.7261977 -0.30099156
0002d0 10 ec ea be 7a 31 55 bd b2 05 8b be 24 c5 8d be
       -0.45883226 -0.052049138 -0.27152783 -0.2768947
0002e0 fb 8b cc be 3a 32 bc be 6b ca 93 bf 44 e2 ea be
       -0.39950547 -0.3675707 -1.1546148 -0.45875752
0002f0 31 87 b8 bf de 09 d5 bd ef 17 87 bf e4 99 d4 bf
       -1.4416257 -0.10402273 -1.0554179 -1.6609464
000300 81 64 61 3e 2e 97 ac 3d ca ff f6 3d 36 f2 de 3e
       0.22010995 0.08427273 0.12060507 0.43544167
000310 54 24 f0 3e a9 c4 ba 3e da e1 0d 3e a9 f0 e0 3e
       0.46902716 0.36478165 0.13855687 0.4393361
000320 93 d3 87 3e 4f fb a6 3d fc 99 f4 3e fb e2 f9 3d
       0.26528606 0.08153402 0.4777373 0.12201496
000330 b2 c2 f4 3e d3 00 88 3e 89 27 c0 3e 7c 58 05 3f
       0.4780479 0.2656313 0.37530163 0.5208814
000340 07 7d 0a be f7 ee 0b be 72 76 23 bf e0 69 99 bd
       -0.13524257 -0.13665377 -0.6385261 -0.07490897
000350 95 aa 14 3e d1 c7 31 be 4e 14 c6 bd 0b ab 1c 3e
       0.14518197 -0.1736138 -0.096718416 0.15299623
000360 32 bd 26 bf db c6 09 3e 56 ae ba be 09 f8 df be
       -0.6513244 0.13454764 -0.36461133 -0.43743923
000370 f9 35 17 bf 55 1c 00 be c4 84 f4 be 34 89 c4 be
       -0.5906673 -0.12510808 -0.47757542 -0.38385928
000380 6d d1 31 bf 65 c5 c6 be 08 9b 1b 3e 27 4d fe be
       -0.69460183 -0.38822475 0.15195858 -0.49668238
000390 1c 51 b8 bd ba 2d d9 be 37 25 3d be ea 4a f5 bd
       -0.089998454 -0.424177 -0.18471228 -0.11977179
0003a0 3b ee 75 be 4e 8a 69 3c 27 a4 a7 3d 7a 0b 2b be
       -0.24016659 0.014254166 0.081856064 -0.16703597
0003b0 15 fb 27 3e f7 aa b6 be cf 97 11 be 4a 5e 8c bc
       0.16404374 -0.3567731 -0.14218067 -0.017134804
0003c0 18 84 b3 bd 7d 97 97 3e ef ae ec be 94 82 19 3f
       -0.08765429 0.29607764 -0.46227214 0.5996487
0003d0 f4 8a 1a be f4 c5 3f 3e 09 7a f8 bc fc 94 67 3d
       -0.15092069 0.18727857 -0.030331628 0.056538567
0003e0 18 31 0c bf db d0 32 be 0a ce c9 be 2c b1 b4 be
       -0.5476241 -0.17462485 -0.39415008 -0.3529142
0003f0 ed 28 28 bf 35 1e 37 3d 58 54 24 bf 10 06 fa be
       -0.6568745 0.044706542 -0.641912 -0.4883275

neural_networks.3.linear_relu_stack.4.weight f4 [16]
000000 b3 3b 20 3f a2 ea 0c 3f 76 d7 c4 3d da 49 83 3e
       0.62591094 0.5504552 0.096114084 0.25642282
000010 fd b2 e1 3e b3 b3 85 3e d6 86 08 3f 2f 06 82 3d
       0.4408187 0.26113662 0.53330743 0.06348836
000020 3d 8e 50 3e d4 cf 7b 3e 74 b9 89 3d f3 7a 5c 3e
       0.2036676 0.24590999 0.067248255 0.21531276
000030 ce 46 b8 3d 4c 6a 8f 3e 3d 77 00 3f 3d ab 3e 3e
       0.0899788 0.28010786 0.50181943 0.1862001

neural_networks.3.linear_relu_stack.4.bias f4 [16]
000000 2b 05 63 be 96 64 1c bf be 96 43 bf 74 97 b7 be
       -0.2216994 -0.6109098 -0.7640189 -0.35857737
000010 b9 04 10 3e 57 2f a1 be 69 cd 06 bf 98 34 0c be
       0.14064302 -0.3148143 -0.5265718 -0.13691938
000020 94 d4 51 be 6b 6f 47 bf 09 6f 4b bf ca c5 83 be
       -0.20491248 -0.77904385 -0.794663 -0.2573684
000030 89 fb 5d bf 72 00 db be ce fb 04 bf 17 7b 28 bf
       -0.8671194 -0.42773777 -0.51946723 -0.6581282

neural_networks.3.linear_relu_stack.4.running_mean f4 [16]
000000 da 26 a7 3e d2 3f b9 c0 92 f0 ad 3f d3 0e ab bf
       0.3264683 -5.7890406 1.3589041 -1.3363899
000010 88 2f a3 41 69 19 1b c0 2e 84 18 c0 bf f0 2e c0
       20.398209 -2.423426 -2.3830676 -2.733444
000020 87 35 23 c1 24 5e 88 be 5e 41 fe 3f a3 78 14 c1
       -10.200568 -0.26634324 1.9863698 -9.279452
000030 f5 32 79 40 70 28 34 c0 85 24 25 bf ee 5b 58 c0
       3.8937352 -2.814968 -0.6450885 -3.380611

neural_networks.3.linear_relu_stack.4.running_var f4 [16]
000000 08 61 9f 42 5b 03 d0 41 8d 6c 0d 40 a8 0e d0 3f
       79.689514 26.001638 2.2097504 1.6254473
000010 e0 e0 84 43 dd 2c a0 40 a3 57 1f 40 e0 c1 79 40
       265.75684 5.0054765 2.489724 3.9024582
000020 de 43 1c 43 33 9b f4 41 17 23 db 3f 5e f1 13 42
       156.2651 30.57578 1.7120084 36.98571
000030 6a 87 eb 3f 99 61 18 41 6e 27 4a 3f 3e 1d 14 41
       1.84007 9.523828 0.78966415 9.257139

neural_networks.3.linear_relu_stack.6.weight f4 [1, 16]
000000 11 73 77 be 59 68 79 bb 32 0f 97 bc 55 87 b4 3c
       -0.24164988 -0.003805658 -0.018439863 0.022037188
000010 43 59 86 3e 18 95 ca 3c 39 54 99 3c 29 ad cb 3c
       0.26239976 0.024729297 0.018716918 0.024862843
000020 81 48 e0 bb cb fb 38 bc 8b 4a f5 bc 05 35 b0 39
       -0.0068445806 -0.011290501 -0.029942771 0.0003360884
000030 86 08 4c bd ff 8c dd 3b 88 21 74 bc 29 bd bf 3c
       -0.049812816 0.006761193 -0.014900573 0.023405628

neural_networks.4.linear_relu_stack.0.weight f4 [16, 1]
000000 11 56 43 3f a8 b7 c8 3f 03 52 fd bf 15 22 6e 3f
       0.763032 1.5681047 -1.9790653 0.93020755
000010 dd 3f 13 c0 fc 66 4d b7 8c e9 d4 ba fa 60 c1 be
       -2.300773 -1.224293e-05 -0.0016243919 -0.377693
000020 2a 44 d9 3e 1b ae 5d bf ce d2 bd 3b 6c e5 1a c0
       0.42434818 -0.8659379 0.005792952 -2.4202528
000030 c5 dc fb bf 22 18 88 be b5 95 4e 2b 43 2f 24 c0
       -1.9676749 -0.26580912 7.339366e-13 -2.5653846

neural_networks.4.linear_relu_stack.1.weight f4 [16]
000000 2c 65 86 3f 4d f2 85 3f 66 fe ef 3f 04 35 68 3f
       1.0499625 1.0464569 1.8749511 0.90705895
000010 c6 64 07 3e f7 42 3c 3f c4 05 09 3f 2c 4d 87 3f
       0.13222036 0.7353968 0.5352442 1.0570426
000020 5f f2 30 3f 97 a0 0b 3f e3 0b 0e 3f 71 1d c7 3f
       0.6911983 0.54541916 0.5548689 1.555586
000030 17 d8 51 3f 6b c3 46 3f f8 95 43 ab 73 de 68 3d
       0.8197035 0.77641934 -6.948604e-13 0.05685277

neural_networks.4.linear_relu_stack.1.bias f4 [16]
000000 2f d3 12 3f 57 0a f2 3e f6 7a 34 3e 5d d4 e2 3f
       0.5735349 0.47273514 0.17625031 1.7721058
000010 6a 52 1b 3e b9 ae 14 bc c9 3a fc bc 53 48 bd 3f
       0.15168157 -0.00907486 -0.03078975 1.4787697
000020 f8 8d c7 3e e1 a9 d8 3d 6d 99 11 be f5 4b 13 3e
       0.389755 0.10579277 -0.14218684 0.14384444
000030 8d ee 92 3d 75 56 00 40 8b 75 28 3e 80 a4 8d 3e
       0.07174406 2.005277 0.16451089 0.27664566

neural_networks.4.linear_relu_stack.1.running_mean f4 [16]
000000 97 47 60 40 bd 09 e7 40 41 95 11 c1 cb af 88 40
       3.5043695 7.2199388 -9.098939 4.271459
000010 f4 58 29 c1 9b 76 6c b8 e5 1b f5 bb a2 ed de bf
       -10.584217 -5.6377245e-05 -0.007480132 -1.741627
000020 58 f5 f8 3f 48 5d 7f c0 55 87 da 3c f1 68 32 c1
       1.9449873 -3.9900684 0.02667586 -11.15062
000030 dc 00 11 c1 e7 21 9b bf c7 43 76 2c cc 19 3d c1
       -9.06271 -1.2119721 3.4996327e-12 -11.818798

neural_networks.4.linear_relu_stack.1.running_var f4 [16]
000000 5c a2 83 39 af b2 8b 3a 5a da dd 3a f3 8f c3 39
       0.00025107234 0.001065811 0.0016926036 0.0003730055
000010 9c 19 16 3b a1 55 92 29 15 3b 9d 30 81 11 82 38
       0.0022903448 6.498557e-14 1.1440046e-09 6.2021434e-05
000020 29 30 a2 38 e0 a8 aa 39 11 f5 79 32 fe 9b 26 3b
       7.7337325e-05 0.00032550748 1.4549429e-08 0.0025422568
000030 fc 1c dc 3a f4 cc fb 37 b5 17 a4 11 8d 2c 3b 3b
       0.0016793306 3.001697e-05 2.5889248e-28 0.002856049
